HW1/LetNet5_dropout.pth (torch, 181416 bytes, 10 tensors)

conv1.weight f4 [6, 1, 5, 5]
-0.3829769 -0.49060848 -0.03832841 -0.17542315 -0.13359025 -0.011188845 -0.72340935 -0.06637856
-0.33493486 0.11954314 0.005326986 -0.06060151 -0.10665242 -0.12348133 0.12622942 0.067056306
-0.18961322 0.087251216 0.15450262 0.052505396 0.13370633 0.15084751 0.14405932 -0.040241946
-0.00015175232 -0.5021937 0.18189828 0.4098249 0.015301732 0.0023585926 -0.74013275 0.112100005
0.6072526 0.19992468 0.14445195 -0.381664 -0.034685466 0.39748812 0.039528187 0.08612241
-0.3197894 -0.08465707 0.106936276 0.24287878 -0.13418072 -0.19044575 -0.25803414 0.22027744
0.079514295 -0.14696008 -0.18746822 0.7509706 -0.1590042 -0.46845418 -0.4581091 0.01980123
0.77146935 -0.2924921 -0.03070958 -0.40498823 0.18243088 0.281901 -0.057055905 0.12036811
0.03452586 0.32286394 -0.019530555 -0.0684025 0.009540036 -0.21396622 0.3277244 -0.2668694
-0.18627949 0.19006146 -0.08637123 -0.49140033 0.02323725 0.11510034 0.056267936 -0.044306677
-0.19790158 -0.22900838 -0.012890312 0.10167359 -0.10150786 -0.006618706 -0.1360954 0.13737127
-0.041976217 -0.04358251 0.68700284 0.242849 0.02203757 -0.40322757 -0.24474591 0.12988313
0.111412466 -0.22261627 -0.42509317 -0.16038667 -0.15072684 -0.4897758 -0.4495666 -0.64764106
0.07536205 0.31379378 -0.21271889 -0.47226706 -0.43084168 0.22594696 -0.024994904 0.1099178
0.31101194 0.15921004 -0.111536056 0.037878044 0.15685856 -0.08116803 0.41940823 0.26564446
-0.10448707 0.0624478 0.24831516 0.5074322 0.23724362 0.21728691 0.37024876 0.38643673
0.2633472 -0.18719062 0.2060841 0.41194564 0.4215905 -0.08730512 0.0739775 0.00066883734
-0.12718238 -0.18527184 -0.086820476 0.08550226 -0.26592737 -0.5015277 -0.45040423 -0.23122936
0.25840676 -0.069946446 -0.52376384 -0.734705 -0.44577497 0.08701365
00000000: 8c15 c4be 0931 fbbe 40fe 1cbd 20a2 33be
00000010: e2cb 08be 6b51 37bc 5b31 39bf 7cf1 87bd
00000020: 957c abbe 09d3 f43d ff8d ae3b 4a39 78bd
00000030: 956c dabd c8e3 fcbd 4942 013e d154 893d
00000040: f829 42be c4b0 b23d ef35 1e3e e60f 573d
00000050: 50ea 083e c577 1a3e 4984 133e bdd4 24bd
00000060: b41f 1fb9 c48f 00bf 8b43 3a3e 92d4 d13e
00000070: 1eb4 7a3c 9e92 1a3b 5779 3dbf b094 e53d
00000080: e874 1b3f 0eb9 4c3e 36eb 133e 7769 c3be
00000090: 5912 0ebd 9083 cb3e 4fe8 213d f260 b03d
000000a0: 70bb a3be b060 adbd 6801 db3d 37b5 783e
000000b0: ac66 09be 3604 43be 0d1d 84be 6990 613e
000000c0: 64d8 a23d b47c 16be abf7 3fbe 9c3f 403f
000000d0: ffd1 22be 3ad9 efbe 478d eabe 3036 a23c
000000e0: 047f 453f 86c1 95be a892 fbbc 9e5a cfbe
000000f0: 29cf 3a3e 5455 903e 74b3 69bd 8e83 f63d
00000100: fd6a 0d3d 6c4e a53e 8bfe 9fbc 9c16 8cbd
00000110: d04d 1c3c f619 5bbe 7ecb a73e 1ba3 88be
00000120: 0dc0 3ebe 799f 423e 66e3 b0bd d398 fbbe
00000130: 0c5c be3c bab9 eb3d 3579 663d eb7a 35bd
00000140: b6a6 4abe 2c81 6abe e331 53bc 3e3a d03d
00000150: 5ae3 cfbd bbe1 d8bb 985c 0bbe 0eab 0c3e
00000160: 41ef 2bbd 9383 32bd 6bdf 2f3f 69ad 783e
00000170: 2288 b43c d873 cebe ac9e 7abe 1500 053e
00000180: 382c e43d 85f5 63be d0a5 d9be 673c 24be
00000190: 2358 1abe e5c3 fabe 982d e6be cecb 25bf
000001a0: 6b57 9a3d 94a9 a03e fbd2 59be fdcc f1be
000001b0: 4897 dcbe a45e 673e 1dc2 ccbc 951c e13d
000001c0: f53c 9f3e f507 233e 046d e4bd 0226 1b3d
000001d0: 889f 203e 6d3b a6bd adbc d63e 8d02 883e
000001e0: 51fd d5bd 44c9 7f3d 5446 7e3e 14e7 013f
000001f0: feef 723e 7680 5e3e 3f91 bd3e 09db c53e
00000200: 72d5 863e e6ae 3fbe b607 533e 8aea d23e
00000210: b6da d73e 07cd b2bd 8481 973d ea54 2f3a
00000220: 193c 02be e7b7 3dbe efce b1bd cf1b af3d
00000230: a227 88be 1f64 00bf 629b e6be 64c7 6cbe
00000240: e44d 843e 1540 8fbd 6315 06bf a015 3cbf
00000250: 9e3c e4be 3634 b23d

conv1.bias f4 [6]
-0.95350057 -0.03632125 -0.017848039 -0.2778052 -0.1954978 -0.50146174
00000000: 9d18 74bf 97c5 14bd 0d36 92bc 7c3c 8ebe
00000010: 9330 48be cc5f 00bf

conv2.weight f4 [16, 6, 5, 5]
0.23409238 -0.06452158 -0.30322137 -0.044923883 -0.13705449 -0.089985244 -0.20726405 0.0911073
-0.054476943 -0.06325013 -0.22430065 -0.051361732 -0.046995122 -0.1556881 0.2768818 0.052148506
-0.041683074 -0.1498241 -0.3878447 0.13785905 0.2586208 -0.1061651 0.18754207 0.051443696
-0.046587344 -0.12653959 0.1849213 -0.54683954 -0.016892292 0.6206937 -0.083745964 0.06281543
-0.41265994 -0.026283214 0.15503156 0.08051975 -0.078558534 -0.0042775786 0.13434398 0.373368
0.051219694 -0.26506075 0.29420233 0.05389835 0.21978816 0.010964071 -0.0046721445 0.17292374
0.2421866 0.37418795 -0.30469668 -0.4934472 0.010290726 -0.106491335 -0.07316908 -0.28296065
-0.12542287 -0.31809157 -0.18039377 0.22273171 -0.25556463 -0.1816447 0.033180058 0.008640572
-0.11396729 0.038707044 -0.42047498 0.28102002 -0.1246516 0.058916952 0.15638989 0.3275719
-0.077608764 0.22013499 -0.018234517 -0.09338369 -0.13942075 0.009554649 -0.2527632 0.15340163
-0.23666674 -0.34401473 0.2073612 0.24720354 -0.29591903 -0.200271 -0.08490412 0.033497125
0.23477565 -0.21089451 0.04334602 0.1428203 -0.06392863 0.00506642 -0.06965194 0.2213814
0.40531045 0.93174684 0.3682849 0.21316074 0.59525555 0.17664789 0.077168114 -0.47620988
-0.5513156 0.0887099 -0.3970272 -0.113264956 -0.24997519 -0.27107713 -0.07502115 -0.17405492
0.050242696 -0.08546493 0.09026456 0.29987296 -0.51943755 -0.13333644 -0.48704103 -0.20745993
0.30287242 -0.5123733 -0.47843486 -0.59751415 -0.5442673 -0.24349715 0.12924545 0.056379568
-0.2192459 0.20521414 -0.3676641 0.20547025 -0.10843803 0.26239935 0.2650063 0.0917191
0.30736113 -0.27729562 -0.20919251 -0.04141017 0.19774002 -0.01754347 -0.25209215 -0.052209362
-0.018084604 -0.19401078 -0.28233308 0.12744482 0.57734114 -0.08705096 0.16476744 0.3631719
0.23426376 -0.08890261 0.28081992 0.05299206 0.05675421 -0.027187966 0.0911004 -0.12981844
0.055417426 0.19252639 0.06007415 0.21909255 -0.161987 -0.15765089 0.031478453 0.11286621
0.105501436 -0.27898628 -0.25141594 -0.0594041 -0.35205343 -0.119764365 -0.36093053 -0.067548305
0.07539066 0.2119168 0.56537455 0.0150369145 -0.21830912 -0.057587177 0.06600141 0.19552548
-0.05424867 -0.062275216 -0.13547821 -0.23479275 -0.24933259 -0.07455265 0.20627446 0.07179322
-0.1558597 -0.49866083 -0.21341869 0.28199956 -0.07803657 -0.18256918 -0.10041282 -0.14613774
0.23537587 0.24933255 0.067715675 -0.13537498 0.21219414 -0.026204785 0.06560789 -0.68549407
-0.009256423 -0.09976633 0.16115418 -0.14521156 0.011266536 -0.09941413 -0.3925694 0.13846514
-0.40818208 -0.66686547 -0.3564389 0.13660295 0.0049487567 -0.25448248 -0.21425444 -0.25629425
0.35240173 -0.049759604 -0.21941528 -0.13442065 -0.0065570083 0.13039404 -0.11600651 -0.11997915
-0.20223469 -0.022378841 -0.091095 -0.014261419 0.18283096 -0.43540347 0.29577187 0.02593924
-0.2248143 0.10819524 -0.050395835 0.069182724 0.2349813 -0.12920518 -0.061672915 -0.061761208
0.3427324 0.393332 0.14829227 0.33615375 0.39414832 -0.18101805 0.075955465 -0.10726828
00000000: eab5 6f3e e423 84bd d53f 9bbe 1b02 38bd
00000010: 0358 0cbe 2f4a b8bd 073d 54be 7796 ba3d
00000020: 3723 5fbd 4989 81bd 12af 65be ae60 52bd
00000030: f57d 40bd b46c 1fbe 74c3 8d3e ac99 553d
00000040: dfbb 2abd 7d6b 19be 9593 c6be ec2a 0d3e
00000050: f269 843e 176d d9bd 070b 403e a0b6 523d
00000060: 5fd2 3ebd 9893 01be 025c 3d3e adfd 0bbf
00000070: b461 8abc c8e5 1e3f 0183 abbd 60a5 803d
00000080: 2a48 d3be e54f d7bc 98c0 1e3e 8ae7 a43d
00000090: 4ce3 a0bd ee2a 8cbb 7891 093e 172a bf3e
000000a0: becb 513d 0bb6 87be b0a1 963e 84c4 5c3d
000000b0: 2610 613e a6a2 333c ca18 99bb ec12 313e
000000c0: c4ff 773e 9095 bf3e 3401 9cbe 1da5 fcbe
000000d0: 6f9a 283c 2118 dabd acd9 95bd 38e0 90be
000000e0: da6e 00be e6dc a2be 25b9 38be c813 643e
000000f0: 5ed9 82be 1101 3abe d0e7 073d 3091 0d3c
00000100: af67 e9bd 478b 1e3d 7f48 d7be dbe1 8f3e
00000110: 5749 ffbd e752 713d ac24 203e 81b7 a73e
00000120: 58f1 9ebd 116b 613e 8e60 95bc f33f bfbd
00000130: 50c4 0ebe 1a8b 1c3c 2e6a 81be 5115 1d3e
00000140: c458 72be b322 b0be 7f56 543e ed22 7d3e
00000150: b382 97be d713 4dbe 36e2 adbd 4834 093d
00000160: 0769 703e bbf4 57be 998b 313d 7c3f 123e
00000170: 03ed 82bd 3604 a63b ada5 8ebd ceb1 623e
00000180: da84 cf3e f686 6e3f d78f bc3e cf46 5a3e
00000190: ab62 183f 2fe3 343e 510a 9e3d c8d1 f3be
000001a0: 0523 0dbf 89ad b53d 2647 cbbe 75f7 e7bd
000001b0: 7ff9 7fbe 9fca 8abe b0a4 99bd 743b 32be
000001c0: 49cb 4d3d 3d08 afbd a0dc b83d f388 993e
000001d0: dcf9 04bf 5989 08be 715d f9be 6070 54be
000001e0: 1812 9b3e e62a 03bf 6af5 f4be b0f6 18bf
000001f0: 1a55 0bbf 5157 79be eb58 043e 43ee 663d
00000200: ff81 60be a823 523e 783e bcbe cb66 523e
00000210: c214 debd 3559 863e e8ae 873e 39d7 bb3d
00000220: 705e 9d3e b1f9 8dbe 9036 56be b69d 29bd
00000230: 5c7c 4a3e 53b7 8fbc 3912 81be 7cd9 55bd
00000240: 2a26 94bc c3aa 46be f68d 90be e580 023e
00000250: a1cc 133f c647 b2bd ccb8 283e abf1 b93e
00000260: d7e2 6f3e 9212 b6bd a1c7 8f3e 340e 593d
00000270: 1a77 683d 4cb9 debc d992 ba3d 20ef 04be
00000280: 62fd 623d a325 453e 5010 763d cc59 603e
00000290: ecdf 25be 3c6f 21be 8def 003d 6626 e73d
000002a0: 2311 d83d 4ad7 8ebe 97b9 80be b751 73bd
000002b0: 5940 b4be 0547 f5bd e3cb b8be c456 8abd
000002c0: 6b66 9a3d b800 593e 63bc 103f 645d 763c
000002d0: 6d8c 5fbe 88e0 6bbd bf2b 873d d537 483e
000002e0: da33 5ebd 4c14 7fbd cdba 0abe 836d 70be
000002f0: 0b51 7fbe 0faf 98bd 9d39 533e 5308 933d
00000300: af99 1fbe 7950 ffbe 6e8a 5abe 3f62 903e
00000310: a3d1 9fbd 6af3 3abe 3da5 cdbd 22a5 15be
00000320: 5f06 713e 0851 7f3e 84ae 8a3d bd9f 0abe
00000330: 6c49 593e 6bab d6bc 6e5d 863d 8a7c 2fbf
00000340: 41a8 17bc 4a52 ccbd 9a05 253e 57b2 14be
00000350: 4797 383c a399 cbbd dbfe c8be cec9 0d3e
00000360: 3efd d0be b2b7 2abf 297f b6be a5e1 0b3e
00000370: 2e29 a23b 874b 82be 8465 5bbe 0039 83be
00000380: 006e b43e bad0 4bbd 66ae 60be 91a5 09be
00000390: 2cdc d6bb 0486 053e d294 edbd a1b7 f5bd
000003a0: 9c16 4fbe d553 b7bc 0490 babd baa8 69bc
000003b0: 0a38 3b3e 34ed debe 696f 973e 877e d43c
000003c0: b835 66be 7795 dd3d dd6b 4ebd acaf 8d3d
000003d0: f09e 703e 5d4e 04be bd9c 7cbd 52f9 7cbd
000003e0: 9f7a af3e d062 c93e eed9 173e 581c ac3e
000003f0: cfcd c93e cc5c 39be 8a8e 9b3d 79af dbbd

conv2.bias f4 [16]
-0.14346129 0.20387526 -0.2877597 -0.11944871 0.13385892 0.13424572 -0.42900664 -0.74527067
-0.40337223 0.1297809 -0.23209247 0.5206844 -0.14145131 0.2051033 -0.1881073 0.19014235
00000000: 84e7 12be adc4 503e 3d55 93be 86a1 f4bd
00000010: 5012 093e b677 093e c2a6 dbbe 0fca 3ebf
00000020: ce86 cebe 49e5 043e a6a9 6dbe 934b 053f
00000030: 9dd8 10be 9906 523e 339f 40be adb4 423e

fc1.weight f4 [120, 256]
0.22958852 -0.101607606 -0.14867426 0.32812786 0.049525063 0.0661016 0.052102815 -0.2742286
-0.13510726 0.082977176 0.008553335 -0.2021305 -0.29782838 -0.35081688 -0.07989787 0.100666046
-0.102534816 0.21448927 0.464301 0.3675546 -0.6468639 -0.16256613 0.021118794 -0.3014427
0.08460146 -0.16178909 0.10287763 -0.4210689 0.12306205 0.061642762 0.14849703 -0.42433217
-0.17130719 -0.22432938 -0.16525395 -0.2765786 -0.37246662 -0.019138388 0.14605151 -0.057304796
0.2342625 -0.026824217 0.09381857 0.010665309 0.4365216 0.07558158 0.11125388 0.18421721
-0.17084454 0.3072963 -0.015551244 -0.40632498 0.03701086 0.09768235 0.09027239 0.23353744
-0.064621955 -0.21086013 -0.15295449 0.23839575 -0.12625687 -0.09176284 -0.14489543 0.13323633
0.25143796 -0.06666402 0.11452577 -0.1705242 -0.2247823 -0.2514091 -0.08578568 0.12839645
0.057496633 0.1881994 0.11418266 0.18292578 0.04354675 0.21949331 0.14066207 0.069827765
-0.040243708 0.24291813 -0.004173447 0.028101463 -0.5499919 0.31969613 0.032295723 0.21098451
0.15037768 0.16094911 0.12992582 -0.2394835 -0.60622096 -0.07953602 0.28878576 -0.38683525
-0.36848137 0.01419501 0.110948056 -0.39923978 -0.18818715 -0.30039245 -0.1579559 0.26733232
-0.14304185 0.19254395 -0.027551252 0.114464834 -0.12461102 0.12731037 0.28505477 0.009611486
-0.2908165 0.19401065 0.34158158 0.23168889 0.25446182 -0.08472608 -0.056025308 0.17115237
-0.08494933 -0.03412834 0.2487849 0.1561644 -0.09581947 0.07234307 0.012130383 -0.019645745
-0.050529864 -0.50659555 0.43419582 -0.14024898 -0.0039753173 0.26627946 0.18867747 0.2558834
0.20869273 -0.10684511 0.21285261 0.18009196 -0.057539575 -0.5569663 -0.15841357 0.1270205
0.067803904 -0.09842892 0.03936586 -0.2751032 -0.006533545 -0.27414817 0.14475395 -0.15962216
-0.004059693 0.019430278 0.475762 0.34908226 -0.42704397 0.12910615 0.30066493 0.19108538
0.050808378 -0.13865729 -0.24508211 -0.10355033 0.048578393 -0.11450073 0.093631625 -0.072866574
0.023923704 0.2193079 -0.06139088 -0.27101552 0.13762172 -0.34608534 0.03724404 -0.0027541171
-0.16138516 -0.42607468 0.30246833 -0.16756317 0.092717424 -0.01806388 0.09412633 0.056065924
-0.07177042 0.357373 -0.25887823 0.16426007 -0.51427466 0.0868492 -0.030175509 0.17251164
-0.052286495 0.05511105 0.04365519 -0.25681636 0.07533903 -0.17454578 0.38912812 0.1253012
0.20822942 0.13034068 -0.032067634 -0.34604907 -0.25871006 0.16179727 -0.06969104 -0.2500438
0.44913208 0.365855 -0.13477002 0.16007538 0.16459247 0.38773724 0.18882693 0.17935763
-0.408897 -0.16047381 0.05216782 -0.035749614 -0.23187378 0.023057586 0.1182858 0.11542357
-0.049048204 0.06658793 0.25328013 0.283905 0.33075207 -0.211279 -0.059930343 0.19904715
0.0365921 0.01135963 0.29748535 0.075101145 -0.08065922 0.09536239 0.31309614 -0.113107264
-0.28187302 0.23877127 -0.29858935 0.235077 0.23914944 0.059349578 0.15333146 0.09308669
0.18916276 -0.1323712 -0.2647727 -0.008195736 0.22243135 -0.042802427 -0.4912836 0.32302052
00000000: 4119 6b3e a617 d0bd 113e 18be 6000 a83e
00000010: cbda 4a3d 4760 873d c369 553d b167 8cbe
00000020: 8f59 0abe f0ef a93d 4a23 0c3c 4cfb 4ebe
00000030: f67c 98be 459e b3be 7fa1 a3bd 002a ce3d
00000040: c6fd d1bd 13a3 5b3e dcb8 ed3e 1e30 bc3e
00000050: df98 25bf bc77 26be 5201 ad3c b356 9abe
00000060: 8843 ad3d 0aac 25be 82b1 d23d 5896 d7be
00000070: f507 fc3d 1f7d 7c3d 9b0f 183e 1142 d9be
00000080: 276b 2fbe 9ab6 65be 5538 29be b69b 8dbe
00000090: f2b3 bebe 1cc8 9cbc 878e 153e 6fb8 6abd
000000a0: 82e2 6f3e 76be dbbc f323 c03d 8cbd 2e3c
000000b0: c27f df3e 84ca 9a3d 13d9 e33d 70a3 3c3e
000000c0: dff1 2ebe f155 9d3e a5ca 7ebc d409 d0be
000000d0: b398 173d af0d c83d bbe0 b83d 7024 6f3e
000000e0: 8458 84bd b8eb 57be 1aa0 1cbe 041e 743e
000000f0: 7b49 01be 28ee bbbd 785f 14be 1b6f 083e
00000100: 7abc 803e 2587 88bd 7d8c ea3d e59d 2ebe
00000110: 552d 66be b2b8 80be 67b0 afbd 5c7a 033e
00000120: 9781 6b3d 58b7 403e 99d8 e93d e550 3b3e
00000130: 145e 323d dbc2 603e b809 103e dc01 8f3d
00000140: 96d6 24bd 88bf 783e 69c1 88bb 0a35 e63c
00000150: 45cc 0cbf 36af a33e 8548 043d 530c 583e
00000160: 9bfc 193e d8cf 243e 460b 053e 2a3b 75be
00000170: 4c31 1bbf c8e3 a2bd badb 933e 450f c6be
00000180: 97a9 bcbe 3092 683c bc38 e33d 2869 ccbe
00000190: 22b4 40be 0acd 99be 31bf 21be c8df 883e
000001a0: 9079 12be 3e2a 453e 2ab3 e1bc 8a6c ea3d
000001b0: 1034 ffbd a65d 023e b3f2 913e 7f79 1d3c
000001c0: e6e5 94be baaa 463e c8e3 ae3e da3f 6d3e
000001d0: d248 823e de84 adbd cb7a 65bd 9142 2f3e
000001e0: eaf9 adbd 29ca 0bbd 78c1 7e3e 8fe9 1f3e
000001f0: 003d c4bd 9a28 943d 84be 463c 1df0 a0bc
00000200: 67f8 4ebd 3fb0 01bf ea4e de3e 6e9d 0fbe
00000210: 6143 82bb c855 883e ab34 413e 2603 833e
00000220: 8cb3 553e 9cd1 dabd 09f6 593e 076a 383e
00000230: 9eae 6bbd 5895 0ebf 2b37 22be a911 023e
00000240: c6dc 8a3d 1a95 c9bd 193e 213d 54da 8cbe
00000250: 5917 d6bb 265d 8cbe 613a 143e fe73 23be
00000260: 2c07 85bb 3f2c 9f3c 1497 f33e e9ba b23e
00000270: 82a5 dabe 6734 043e c1f0 993e e3ab 433e
00000280: 721c 503d 2dfc 0dbe cef6 7abe 3212 d4bd
00000290: 23fa 463d 5c7f eabd f0c1 bf3d 123b 95bd
000002a0: a5fb c33c 4092 603e 0175 7bbd 8cc2 8abe
000002b0: b5ec 0c3e 1932 b1be 358d 183d 6b7e 34bb
000002c0: 2742 25be 7626 dabe 21dd 9a3e ae95 2bbe
000002d0: a2e2 bd3d b4fa 93bc 4ec5 c03d 62a5 653d
000002e0: 5ffc 92bd 98f9 b63e b08b 84be cb33 283e
000002f0: 81a7 03bf fedd b13d a132 f7bc e4a6 303e
00000300: 5d2a 56bd 20bc 613d c9cf 323d 6f7d 83be
00000310: 594b 9a3d 21bc 32be cd3b c73e f54e 003e
00000320: 183a 553e 0778 053e 5a59 03bd 582d b1be
00000330: a575 84be 2fae 253e 2dba 8ebd be05 80be
00000340: a4f4 e53e 5951 bb3e 2701 0abe cdea 233e
00000350: ee8a 283e 7f85 c63e d95b 413e 87a9 373e
00000360: f35a d1be 3f53 24be edad 553d 306e 12bd
00000370: 5270 6dbe 43e3 bc3c d33f f23d 3163 ec3d
00000380: c5e6 48bd 415f 883d efad 813e ff5b 913e
00000390: 5658 a93e 8659 58be 8579 75bd 04d3 4b3e
000003a0: 99e1 153d be1d 3a3c 0050 983e a1ce 993d
000003b0: a930 a5bd 5b4d c33d 234e a03e c8a4 e7bd
000003c0: a951 90be 7580 743e b4e0 98be 06b8 703e
000003d0: 97e3 743e 8b18 733d ec02 1d3e 3ca4 be3d
000003e0: e2b3 413e 518c 07be 4a90 87be 6947 06bc
000003f0: 0bc5 633e 9951 2fbd 8689 fbbe f262 a53e

fc1.bias f4 [120]
-0.09569852 -0.028252611 0.27509746 -1.2268171e-06 -0.19596177 0.032506626 -0.20061548 0.13650653
-0.25045374 -0.07908152 -0.14661397 -0.24131471 0.00046425743 0.10971215 0.2631021 0.12412291
-0.037182253 0.042393945 0.2268658 -0.108574495 -0.16072515 -0.003175632 0.029717166 -0.06831435
-0.16694878 0.089171655 -0.1401177 -0.10074736 -0.033522893 0.3994351 -0.09030414 0.23618223
0.35925198 0.014632878 -0.07849493 -0.35314584 -0.07608072 0.11144531 0.0866907 -0.1196567
-0.03518126 0.10103355 0.066227354 -0.056611825 -0.023597663 0.1506445 -0.09670666 -0.0616548
-0.022580415 -0.09270302 -0.490126 -0.050424334 0.013028718 -0.08857495 -0.2527492 0.25401884
-0.024064543 0.08172136 -0.04221418 0.22348782 0.08435727 -0.2648381 -0.13499013 0.044982757
0.12852009 0.0038835336 0.0083053 0.035029575 -0.07917579 0.024587056 0.17051864 0.33886656
0.18868414 -0.08361075 0.20589636 -0.021155287 0.008894838 -0.024310831 0.15679604 0.09049489
0.11501038 0.1491031 -0.041804884 0.094036035 0.107035555 0.22233208 0.22632763 -0.098043986
-0.15317062 0.18612929 -0.05140388 -0.12494284 -0.06225474 -0.048827562 0.16575049 -0.042330362
0.28577468 0.044039298 -0.23111138 -0.0055535557 -0.029051863 -0.20244424 0.102761395 -0.008703067
0.2836514 -0.17298271 -0.1018472 -0.23045781 0.4015909 0.011165975 -0.16739732 0.4656411
-0.03851145 0.52398825 -0.046449367 -0.14469437 -0.07136821 0.29105768 0.22593322 -0.083428815
00000000: 96fd c3bd 0572 e7bc 93d9 8c3e 1da9 a4b5
00000010: 34aa 48be ab25 053d 256e 4dbe 5ec8 0b3e
00000020: 793b 80be 7ef5 a1bd f921 16be 341b 77be
00000030: 9467 f339 c4b0 e03d 52b5 863e 2734 fe3d
00000040: 6b4c 18bd 46a5 2d3d 824f 683e 4e5c debd
00000050: 2295 24be 441e 50bb 6a71 f33c 65e8 8bbd
00000060: 9ff4 2abe a19f b63d 047b 0fbe a254 cebd
00000070: 4d4f 09bd c282 cc3e 60f1 b8bd c1d9 713e
00000080: e0ef b73e bdbe 6f3c f3c1 a0bd 88cf b4be
00000090: 35d0 9bbd 703d e43d e58a b13d 920e f5bd
000000a0: 3a1a 10bd aeea ce3d 35a2 873d cde1 67bd
000000b0: e34f c1bc 8d42 1a3e 240e c6bd be89 7cbd
000000c0: 90fa b8bc 15db bdbd ccf1 fabe bf89 4ebd
000000d0: 6776 553c c966 b5bd 5868 81be c20e 823e
000000e0: 0123 c5bc 875d a73d c7e8 2cbd fed9 643e
000000f0: 81c3 ac3d dc98 87be da3a 0abe d73f 383d
00000100: c59a 033e e282 7e3b f412 083c 2c7b 0f3d
00000110: eb26 a2bd cb6a c93c 709c 2e3e eb7f ad3e
00000120: 6a36 413e 1d3c abbd 7fd6 523e da4d adbc
00000130: a8bb 113c 8227 c7bc 248f 203e 6355 b93d
00000140: 908a eb3d 7cae 183e 993b 2bbd f795 c03d
00000150: 7535 db3d 05ab 633e 6ec2 673e 49cb c8bd
00000160: c2d8 1cbe ad98 3e3e e08c 52bd 08e2 ffbd
00000170: d4fe 7ebd 69ff 47bd 7fba 293e 9a62 2dbd
00000180: 0f51 923e 8d62 343d 76a8 6cbe 9afa b5bb
00000190: 2cfe edbc 8b4d 4fbe 9174 d23d 4f97 0ebc
000001a0: c23a 913e 6122 31be 4495 d0bd 22fd 6bbe
000001b0: 539d cd3e 7ef1 363c 346a 2bbe 8368 ee3e
000001c0: 2fbe 1dbd 1824 063f b141 3ebd c32a 14be
000001d0: 7f29 92bd 8305 953e 0a5b 673e badc aabd

fc2.weight f4 [84, 120]
0.005717983 0.11866908 -0.102798864 0.052054413 -0.51329064 -0.06395595 0.1905567 0.25169143
-0.24174866 0.06177433 -0.07500806 -0.21274827 0.091928735 -0.08628752 0.06292849 0.18807128
-0.20003952 0.01612371 0.016742805 -0.020688094 0.16283727 -0.02997177 0.1893987 0.28736636
0.18092485 -0.21303488 -0.2546273 0.02490217 -0.1346444 -0.07221348 -0.50729895 -0.05035226
-0.10757114 0.010607362 -0.260655 -0.5748283 -0.00032537463 -0.25165972 0.20482749 -0.16622782
-0.013590864 0.17226544 -0.043408144 0.2551418 -0.057817113 -0.32084346 0.05890932 0.11583349
-0.016315535 -0.015548776 0.2500827 0.03425171 0.3380269 -0.16807893 0.0547439 0.17281006
0.012444647 -0.03877079 0.22467946 -0.657789 0.4237673 -0.071498394 0.17311785 0.08423454
0.29895326 -0.2084111 0.072613075 -0.021031143 -0.009004783 0.033852383 0.053474776 -0.6225624
-0.32703558 0.00068907754 -0.49080294 -0.06317403 0.031420205 -0.85501486 0.025698887 0.1488519
-0.40261415 0.2585587 0.02087028 0.13905028 -0.02262658 0.2867805 -0.060020786 -0.13964713
-0.1292743 0.109889515 -0.12966187 -0.05976935 -0.055081535 0.19800809 -0.20386285 -0.04016124
-0.15705846 0.21207136 0.300493 -0.012183834 0.01742565 0.016253889 -0.06756529 0.07767076
0.06234221 0.22641274 0.18583444 -0.34096074 -0.10723762 -0.036430422 0.11583419 -0.13053992
0.08131472 0.19692875 -0.06237489 -0.3684764 0.2681471 -0.25299254 0.115054004 0.017646546
-0.101496086 -0.046500996 0.020329515 0.07973224 0.33078015 0.2366581 0.0067388956 -0.08852632
-0.21609849 0.0584356 -0.09183646 0.094066136 0.012970481 -0.24871452 0.059241462 0.14544176
0.16158481 0.10420558 -0.12555794 -0.5433544 -0.25689238 -0.01899111 0.17111053 0.20637727
0.29764724 0.17787597 -0.6694382 0.19066761 -0.78155375 0.08548166 -0.10124637 -0.11181085
-0.63052404 0.017867956 0.117193334 -0.8926289 -0.05780339 -0.12177174 0.30330184 0.24772091
-0.04505013 0.38919896 -0.022173326 0.09013567 -0.03133153 0.29762235 0.15006717 0.0078127375
-0.05841825 -0.02991837 -0.12639321 -0.045851994 -0.029526705 -0.093527846 -0.07327772 0.018750384
0.043360524 0.27354717 -0.67473656 0.06684264 0.108459175 0.28510496 -0.07309749 -0.004539036
0.16623561 -0.09014637 0.19104691 0.0737231 -0.5395985 0.0008698089 0.047865946 -0.44677636
0.2097753 0.07857757 0.1729013 -0.026998438 -0.014909879 -0.33193862 -0.40246588 0.21609077
-0.27713072 0.36152378 0.06738529 -0.32476082 -0.043491617 -1.1157075 -0.7271064 0.018280242
-0.6959114 0.17760892 0.1455704 0.08278663 0.01333067 -0.7444346 -0.0028834143 0.037216946
-0.058821794 0.10122572 -0.25480774 -0.6156895 0.048132595 0.019648641 -0.37553796 -0.9100031
0.33616573 -0.18294556 0.26527876 -0.56187296 -0.12631327 -0.05506733 0.09987199 0.32376942
-0.13527675 -0.5021538 0.049255174 -0.47255138 0.11052991 -0.2412664 -0.8078097 -0.070896655
-0.17604816 0.036176868 0.20799038 0.025517862 -0.04207894 -0.13613693 0.14702989 0.20040812
0.15199661 0.027916415 -0.31348184 -0.022887193 -0.31555244 -0.15427159 0.058470603 -0.4285855
00000000: eb5d bb3b c608 f33d 3688 d2bd 0237 553d
00000010: 0467 03bf 56fb 82bd 4c21 433e b3dd 803e
00000020: f68c 77be 1407 7d3d d39d 99bd afda 59be
00000030: 2245 bc3d 83b7 b0bd a7e0 803d c295 403e
00000040: 29d7 4cbe df15 843c 3528 893c 147a a9bc
00000050: d0be 263e 5b87 f5bc bcf1 413e af21 933e
00000060: 5d44 393e d125 5abe 825e 82be a3ff cb3c
00000070: 39e0 09be a9e4 93bd 58de 01bf 2c3e 4ebd
00000080: 424e dcbd 80ca 2d3c 9274 85be f327 13bf
00000090: 0b97 aab9 8bd9 80be 4cbe 513e a037 2abe
000000a0: 37ac 5ebc 5a66 303e bdcc 31bd f2a1 823e
000000b0: a3d1 6cbd 9845 a4be e64a 713d 1c3a ed3d
000000c0: 28a8 85bc 4bc0 7ebc d70a 803e 854b 0c3d
000000d0: dd11 ad3e e21c 2cbe 243b 603d 1ff5 303e
000000e0: a2e4 4b3c 1fce 1ebd 5f12 663e dc64 28bf
000000f0: 07f8 d83e c06d 92bd ce45 313e 2983 ac3d
00000100: 6710 993e b869 55be 2ab6 943d 8149 acbc
00000110: cc88 13bc cca8 0a3d 5e08 5b3d 4060 1fbf
00000120: 3571 a7be 36a3 343a 864a fbbe 6361 81bd
00000130: 79b2 003d 41e2 5abf 7986 d23c a26c 183e
00000140: 7123 cebe ce61 843e 26f8 aa3c 3263 0e3e
00000150: 615b b9bc e5d4 923e 5bd8 75bd a8ff 0ebe
00000160: 7b60 04be c10d e13d 15c6 04be b5d0 74bd
00000170: 2d9d 61bd a2c2 4a3e 6cc1 50be 1d80 24bd
00000180: efd3 20be 3c29 593e 38da 993e b49e 47bc
00000190: 3dc0 8e3c e026 853c ac5f 8abd d911 9f3d
000001a0: 8c5a 7f3d bed8 673e 624b 3e3e 6892 aebe
000001b0: 669f dbbd 1138 15bd 7a3a ed3d 42ac 05be
000001c0: 5588 a63d b1a7 493e d07c 7fbd f0a8 bcbe
000001d0: 944a 893e 3d88 81be 6fa1 eb3d 7d8f 903c
000001e0: 2edd cfbd d477 3ebd 158a a63c a84a a33d
000001f0: 045c a93e 8056 723e f4d1 dc3b 4a4d b5bd
00000200: ec48 5dbe 2b5a 6f3d c114 bcbd bfa5 c03d
00000210: 2482 543c 05af 7ebe 2da7 723d afee 143e
00000220: 7d76 253e bc69 d53d 4392 00be 4619 0bbf
00000230: 6687 83be 3f93 9bbc 9937 2f3e 9054 533e
00000240: 3865 983e 1e25 363e 4d60 2bbf 5f3e 433e
00000250: e813 48bf 0211 af3d 425a cfbd 16fd e4bd
00000260: 066a 21bf d25f 923c 0f03 f03d 5483 64bf
00000270: 3fc3 6cbd 7663 f9bd 614a 9b3e 8daa 7d3e
00000280: 7c86 38bd 1645 c73e d6a4 b5bc 0d99 b83d
00000290: 7e55 00bd f561 983e 35ab 193e ff00 003c
000002a0: fa47 6fbd 5f17 f5bc 396d 01be 4dcf 3bbd
000002b0: fde1 f1bc 878b bfbd a112 96bd 689a 993c
000002c0: ce9a 313d 600e 8c3e 89bb 2cbf cbe4 883d
000002d0: d81f de3d 47f9 913e 23b4 95bd 32bc 94bb
000002e0: ab39 2a3e a99e b8bd cda1 433e 23fc 963d
000002f0: 2123 0abf e303 643a 150f 443d dfbf e4be
00000300: 56cf 563e 47ed a03d 0a0d 313e d42b ddbc
00000310: 9148 74bc dcf3 a9be 0210 cebe e646 5d3e
00000320: 14e4 8dbe a519 b93e 4d01 8a3d 0d47 a6be
00000330: 4424 32bd 81cf 8ebf a523 3abf 72c0 953c
00000340: 4027 32bf 1ddf 353e 6810 153e 098c a93d
00000350: e268 5a3c 4493 3ebf aaf7 3cbb cc70 183d
00000360: 1fef 70bd 6e4f cf3d 2976 82be d49d 1dbf
00000370: af26 453d 30f6 a03c 8346 c0be f7f5 68bf
00000380: ea1d ac3e 1556 3bbe 9ed2 873e e8d6 0fbf
00000390: 4458 01be 488e 61bd b089 cc3d 1bc5 a53e
000003a0: fd85 0abe 278d 00bf cbbf 493d 41f2 f1be
000003b0: 815d e23d 8a0e 77be 9ecc 4ebf 4432 91bd
000003c0: f845 34be 322e 143d 6efb 543e d60a d13c
000003d0: f75a 2cbd 7b67 0bbe 018f 163e c937 4d3e
000003e0: 00a5 1b3e f7b0 e43c b180 a0be ec7d bbbc
000003f0: 1790 a1be 5ff9 1dbe df7e 6f3d 8f6f dbbe

fc2.bias f4 [84]
0.10086911 -0.04837903 0.025285147 -0.112413876 0.17877431 -0.020205723 0.07268341 0.020608418
0.16599639 -0.2861565 0.21856618 -0.051853914 0.0011961497 -0.091129884 0.08610791 0.29981056
0.28037912 -0.08996331 0.23641068 0.15532625 0.18378504 0.013660599 0.09183359 0.01663032
0.371563 0.8190196 -0.0067811217 -0.04232747 0.15413867 -0.3427654 0.35384437 -0.08603603
0.020376766 0.022942187 -0.08935657 0.09926517 -0.18107596 -0.049557876 0.12834482 -0.035776798
0.042562198 -0.03611155 -0.088795096 -0.10541705 -0.15160666 -0.17639098 -0.11068265 0.20638478
0.30657855 -0.08825174 -0.08273351 0.18836479 0.10968778 0.061678883 0.05779321 0.12839249
0.2064151 0.23482692 -0.13387807 0.06749582 0.114275515 0.40289214 0.17493436 -0.03399565
0.40782428 -0.015835905 0.2093148 -0.20969017 -0.0577172 -0.1397902 0.14092647 -0.15485618
-0.018186953 -0.041550312 0.07826855 0.014783416 -0.19063105 0.17788556 -0.031488895 0.12894246
0.03910007 -0.16802555 -0.045657102 0.04336654
00000000: 7794 ce3d 1729 46bd cc22 cf3c 3f39 e6bd
00000010: 9d10 373e 7986 a5bc 0adb 943d fcd2 a83c
00000020: f5fa 293e 1b83 92be d0cf 5f3e c564 54bd
00000030: 20c8 9c3a 4ea2 babd 5859 b03d c580 993e
00000040: da8d 8f3e af3e b8bd a415 723e d80d 1f3e
00000050: 2532 3c3e b4d0 5f3c 4013 bc3d 4f3c 883c
00000060: 813d be3e 45ab 513f 2c34 debb 925f 2dbd
00000070: 87d6 1d3e f27e afbe 172b b53e a833 b0bd
00000080: 2ded a63c 41f1 bb3c 9400 b7bd 8a4b cb3d
00000090: fa6b 39be 33fd 4abd d36c 033e b18a 12bd
000000a0: b355 2e3d b4e9 13bd 34da b5bd e5e4 d7bd
000000b0: c73e 1bbe d69f 34be 96ad e2bd 8856 533e
000000c0: ddf7 9c3e 54bd b4bd 3070 a9bd b3e2 403e
000000d0: fda3 e03d ffa2 7c3d 93b8 6c3d 5279 033e
000000e0: 7b5e 533e 7876 703e 5517 09be 403b 8a3d
000000f0: 4809 ea3d e147 ce3e fe21 333e 063f 0bbd
00000100: 58ce d03e 4dba 81bc 9e56 563e 05b9 56be
00000110: df68 6cbd 2a25 0fbe 074f 103e 9e92 1ebe
00000120: cefc 94bc a930 2abd 434b a03d 2436 723c
00000130: c934 43be a227 363e 80fa 00bd 7e09 043e
00000140: 6527 203d e40e 2cbe f102 3bbd 1da1 313d

fc3.weight f4 [10, 84]
0.18508328 0.01778038 -0.54981387 -0.35830763 -0.78653115 0.17819645 0.27982873 -0.109334245
-0.4372907 0.26821265 0.08255786 0.53557724 -0.122733206 -0.14590964 -0.70306504 -0.5661547
0.048615277 -0.006490745 0.22751573 -0.530871 0.16877553 0.04833225 0.16611007 -0.5231759
0.15178119 -0.5095743 0.09661837 0.21480976 0.14117385 0.27095523 -0.57142264 0.11461888
-0.04776642 -0.45672503 0.30471182 0.099818796 0.36362928 0.18842 -0.5848291 0.21386878
0.27206707 0.11113131 -0.288168 0.27712506 0.4314879 0.2489384 -0.63284755 -0.02090786
-0.31585816 0.059285842 -0.33019724 0.19372058 -0.54596245 0.009859856 0.04888101 0.08001159
-0.54454154 0.03744882 -0.0354477 -0.5801883 -0.19800657 -0.40555495 -0.2854902 -0.47109866
-0.61782193 0.10935334 -0.052939024 -0.5292165 -0.04513108 0.42543632 0.1642439 0.058740027
0.27383655 0.115130395 -0.27881405 -0.8595423 0.06447177 -0.028035019 -0.20605011 0.14198978
0.20315652 -0.012690155 -0.057763353 -0.7366791 0.13156842 0.37032363 -0.9281644 -0.36864185
0.0043593873 0.17420901 0.24144028 0.016224679 0.058376454 -0.0069318274 -1.1859955 -0.22506219
-0.41129643 -0.8993464 0.05869475 0.32353845 0.038166173 -0.01829958 0.17643237 0.20582114
-0.21155089 -0.35475639 0.010788878 -0.29446834 -0.4562257 0.3614601 -1.1749879 -0.019229393
-0.88762003 -0.17911258 0.114836246 -0.59836775 -0.6555449 0.020169543 -0.23604167 0.09234522
0.30737656 0.09937648 -0.36870494 -0.4837749 0.6071172 -0.6277599 0.061546266 -0.22045948
-0.21627532 0.14483559 -0.8891283 0.14413084 -0.6758897 0.39489296 -0.26895043 -0.62896603
0.14922248 0.29746813 -0.15461427 -0.5827636 -0.10925877 -0.5187842 -0.22951472 -0.095275745
0.096476115 -0.72194666 0.119821504 -0.18287912 -0.45001495 0.20796958 -0.907624 -0.16677658
-0.35861528 0.11516173 0.12040578 -0.04551681 -0.09400709 -0.21582821 0.03168821 -0.087188534
0.10061672 0.15055516 -0.054404788 0.14486128 0.017087944 -0.14643747 -0.030172408 0.0372641
-0.042446017 -0.2729971 -0.7289019 0.18202747 -0.062978566 -0.334336 -0.29762033 0.01540832
-0.22566095 -0.17489044 0.16478857 0.19456604 -0.7120387 0.057735723 0.15797485 0.18250404
0.1519691 0.04907997 -0.6516892 -0.19253406 -0.12988159 0.0060645314 -0.379277 0.04578874
0.095818006 -0.01697753 0.14308089 0.13607436 -0.12199058 -0.5104428 -0.6312256 -0.6181581
-0.17604053 0.47879022 0.30934584 0.2622908 -0.021147417 0.104337774 0.120745584 -0.3824109
-0.24906038 0.159067 0.24235381 0.07456245 -0.48595014 0.085418135 0.41547993 0.19409662
-0.30712935 -0.21796279 -0.26653695 0.17748147 -0.3565299 -0.0020027047 -0.47459126 -0.51205826
0.106359504 -0.30047005 0.19086784 -0.3000174 0.23319057 0.15405376 -0.16836701 0.22511478
0.055763945 -0.7057005 0.12098731 -0.1739259 -0.6523029 -0.3760559 0.15534097 0.0038122397
-0.3427925 0.13170873 -0.32296664 0.19075997 -0.55159336 -0.5309554 -0.85428464 0.089322425
0.16512857 -0.2362421 -0.11526067 0.045600507 0.17685927 -0.19936845 0.033178795 -0.08230284
00000000: 7986 3d3e 29a8 913c 9ac0 0cbf 1974 b7be
00000010: 1b5a 49bf 2179 363e b645 8f3e a2ea dfbd
00000020: 91e4 dfbe 2b53 893e 1814 a93d 971b 093f
00000030: 8c5b fbbd 5669 15be 12fc 33bf 84ef 10bf
00000040: d020 473d 51b0 d4bb e2f9 683e 29e7 07bf
00000050: 7ed3 2c3e 0af8 453d c218 2a3e dbee 05bf
00000060: 876c 1b3e 7673 02bf dadf c53d 17f7 5b3e
00000070: e18f 103e a5ba 8a3e c148 12bf 4ebd ea3d
00000080: b9a6 43bd ddd7 e9be 3003 9c3e cc6d cc3d
00000090: 9e2d ba3e 2cf1 403e 5cb7 15bf 6b00 5b3e
000000a0: 604c 8b3e d098 e33d c28a 93be 56e3 8d3e
000000b0: fbeb dc3e b5e9 7e3e 4c02 22bf f646 abbc
000000c0: 29b8 a1be b6d5 723d 9d0f a9be b05e 463e
000000d0: 32c4 0bbf 3c8b 213c 7437 483d 1edd a33d
000000e0: 1367 0bbf ef63 193d 9c31 11bd 3887 14bf
000000f0: 3cc2 4abe e6a4 cfbe c62b 92be d833 f1be
00000100: 9429 1ebf a5f4 df3d 97d6 58bd bc7a 07bf
00000110: 5edb 38bd cad2 d93e 8e2f 283e 6299 703d
00000120: 4e34 8c3e 7cc9 eb3d b7c0 8ebe f70a 5cbf
00000130: c609 843d b2a9 e5bc cdfe 52be c565 113e
00000140: 4308 503e 5eea 4fbc 4499 6cbd 0097 3cbf
00000150: dfb9 063e 0f9b bd3e 2f9c 6dbf a0be bcbe
00000160: 31d9 8e3b d963 323e 1f3c 773e 9ee9 843c
00000170: 261c 6f3d 6224 e3bb b3ce 97bf b476 66be
00000180: 7295 d2be 913b 66bf e869 703d d5a6 a53e
00000190: 2254 1c3d 00e9 95bc b0aa 343e c7c2 523e
000001a0: cca0 58be a1a2 b5be d6c3 303c 8ec4 96be
000001b0: 6a96 e9be 4c11 b93e 0166 96bf f686 9dbc
000001c0: 113b 63bf 4a69 37be 442f eb3d a12e 19bf
000001d0: cad1 27bf 993a a53c e8b4 71be 7e1f bd3d
000001e0: 7660 9d3e e585 cb3d e5c6 bcbe 58b1 f7be
000001f0: 086c 1b3f dfb4 20bf f017 7c3d 21c0 61be
00000200: 4777 5dbe c84f 143e ea9d 63bf 0997 133e
00000210: 1b07 2dbf 692f ca3e dfb3 89be eb03 21bf
00000220: c7cd 183e be4d 983e 3453 1ebe ff2f 15bf
00000230: 10c3 dfbd 0bcf 04bf e805 6bbe ee1f c3bd
00000240: 4595 c53d 7fd1 38bf fa64 f53d aa44 3bbe
00000250: 5c68 e6be faf5 543e 0c5a 68bf 7bc7 2abe
00000260: 6c9c b7be ead9 eb3d 4e97 f63d d66f 3abd
00000270: ca86 c0bd 1202 5dbe 7fcb 013d e78f b2bd
00000280: 2410 ce3d 222b 1a3e 8ed7 5ebd 8456 143e
00000290: 04fc 8b3c b4f3 15be 202c f7bc 3ea2 183d
000002a0: e0db 2dbd 47c6 8bbe 5199 3abf 6965 3a3e
000002b0: e8fa 80bd 172e abbe b161 98be 2e73 7c3c
000002c0: aa13 67be 7b16 33be 56be 283e 523c 473e
000002d0: 2b48 36bf 4b7c 6c3d 29c4 213e 57e2 3a3e
000002e0: ca9d 1b3e 1408 493d 1ad5 26bf a627 45be
000002f0: aeff 04be fab8 c63b 9830 c2be f98c 3b3d
00000300: 3b3c c43d 7614 8bbc cc83 123e 1457 0b3e
00000310: 32d6 f9bd 61ac 02bf 0098 21bf 9c3f 1ebf
00000320: f843 34be fe23 f53e 9462 9e3e fb4a 863e
00000330: 593d adbc 0baf d53d 7649 f73d 5dcb c3be
00000340: af09 7fbe 76e2 223e 992b 783e 33b4 983d
00000350: 75ce f8be b4ef ae3d c9b9 d43e 44c1 463e
00000360: 0f40 9dbe a331 5fbe 8877 88be b4bd 353e
00000370: 168b b6be cf3f 03bb a0fd f2be 4016 03bf
00000380: 03d3 d93d 36d7 99be dc72 433e e19b 99be
00000390: 82c9 6e3e 45c0 1d3e 6768 2cbe 7d84 663e
000003a0: bc68 643d caa8 34bf 32c8 f73d a219 32be
000003b0: 53fd 26bf 668a c0be b411 1f3e c5d6 793b
000003c0: 8082 afbe a7de 063e e25b a5be 9556 433e
000003d0: 3935 0dbf b1ec 07bf 66b2 5abf adee b63d
000003e0: 7717 293e 73e9 71be c90d ecbd 99c7 3a3d
000003f0: 991a 353e 3e27 4cbe 7de6 073d 648e a8bd

fc3.bias f4 [10]
-0.30130458 -0.1605035 0.15277262 0.33674696 -0.28357455 -0.14888114 0.093695596 0.10059891
0.096559435 -0.13918081
00000000: 9844 9abe 085b 24be 6d70 1c3e 196a ac3e
00000010: af30 91be 4c74 18be 7ae3 bf3d cd06 ce3d
00000020: f4c0 c53d 6a85 0ebe
