HW1/LetNet5_batch_norm.pth (torch, 250578 bytes, 10 tensors)

conv1.weight f4 [6, 1, 5, 5]
0	0xbdbfec65	-0.093712606
1	0xbe185940	-0.14877796
2	0x3e52650d	0.2054636
3	0x3eb69486	0.3566019
4	0xbd6ebeb3	-0.058287334
5	0xbdef3961	-0.11680866
6	0x3debdfd4	0.11517301
7	0xbcae2ee0	-0.021262586
8	0x3d899135	0.06717149
9	0xbe6baef8	-0.23015964
10	0xbafe286a	-0.0019390706
11	0x3e9f8735	0.31157842
12	0x3e1319ff	0.14365385
13	0x3de68b63	0.11257055
14	0xbd133e83	-0.035948288
15	0x3de8b2a6	0.113621995
16	0x3ee3137b	0.443508
17	0x3e9b54f9	0.30338266
18	0x3d30a727	0.04312816
19	0x3d126e99	0.035750005
20	0xbde3f38e	-0.11130439
21	0x3ec90a08	0.39265466
22	0xbb2dd831	-0.0026526565
23	0x3e33d553	0.17561845
24	0x3cb3da53	0.021954691
25	0xbf38b588	-0.72151995
26	0xbfb6b76d	-1.4274727
27	0xbf78d9d1	-0.9720736
28	0xbefe2c6f	-0.49643275
29	0x3d9cf08d	0.07663069
30	0xbec434f8	-0.38321662
31	0xbf5f929a	-0.8733307
32	0xbf39fddd	-0.7265299
33	0xbd344f34	-0.044020846
34	0x3e87679c	0.26446235
35	0x3ec423e5	0.38308635
36	0x3df9b7c2	0.12193252
37	0x3e985194	0.2974974
38	0x3ef28fa9	0.4737523
39	0x3edd3c3d	0.4321002
40	0x3eb78876	0.358463
41	0x3cfef1ba	0.031121124
42	0x3e950e55	0.29112497
43	0x3ec2f0ec	0.38074434
44	0x3e982c84	0.29721463
45	0x3e96322c	0.29335153
46	0xbdc3828b	-0.095463835
47	0xbdd85973	-0.10563936
48	0x3e9f56d6	0.31120938
49	0x3ee5858c	0.4482845
50	0xbe092d6e	-0.13396236
51	0x3d3d1c04	0.046169296
52	0x3e0ca71a	0.13735619
53	0x3ea00ac6	0.3125822
54	0x3edb2c29	0.4280713
55	0x3e71cfe7	0.23614465
56	0xbcab79be	-0.020932075
57	0x3dea9613	0.11454406
58	0x3e9e48b5	0.30914846
59	0x3eaf872d	0.34282818
60	0x3e24dc89	0.16099752
61	0xbe2a803a	-0.16650477
62	0xbcb414f0	-0.02198264
63	0xbdacd494	-0.084389836
64	0x3de3de9a	0.11126442
65	0xbd2db431	-0.042408172
66	0xbec5a35b	-0.38601193
67	0xbe8ea4e2	-0.2786017
68	0xbf03308c	-0.5124595
69	0xbe16edf9	-0.14739217
70	0xbe2410c5	-0.16022022
71	0xbed9d6fa	-0.42546827
72	0xbeaad0da	-0.33362466
73	0xbef1fe8e	-0.47264522
74	0xbe6de50d	-0.23231907
75	0x3e183f17	0.14867817
76	0x3df5498b	0.11976918
77	0x3df53be0	0.11974311
78	0x3ec9a5d5	0.39384332
79	0xbe5730d1	-0.21014716
80	0x3dae0260	0.08496547
81	0x3d30a4b8	0.043125838
82	0x3eb0c89d	0.34528056
83	0x3e815813	0.25262508
84	0xbe8dd97e	-0.27704996
85	0x3e4f6f61	0.20257331
86	0x3f048385	0.5176318
87	0x3e71d351	0.23615767
88	0x3decedde	0.11568807
89	0xbeb8540d	-0.36001626
90	0x3ed64422	0.41848856
91	0x3ed91866	0.42401427
92	0x3c27a90f	0.010233178
93	0xbe2f6c73	-0.17131214
94	0xbefe44eb	-0.49661955
95	0x3e9d1622	0.30680948
96	0x3eb9d69b	0.36296543
97	0x3b769512	0.0037625474
98	0xbee36754	-0.4441477
99	0xbf3b6274	-0.731971
100	0x3eb2058c	0.34769857
101	0xbe784d40	-0.24248219
102	0xbeedafbf	-0.46423146
103	0xbdda0dee	-0.10647188
104	0x3e6de5b4	0.23232156
105	0x3dbf7ab3	0.09349575
106	0xbecbba72	-0.39790684
107	0xbf787f85	-0.9706958
108	0xbf0cfa4b	-0.55069417
109	0x3da74046	0.08166556
110	0x3f1c55f3	0.6106865
111	0xbe7626a2	-0.24038175
112	0xbeb38c7b	-0.35068116
113	0xbcbd16a2	-0.023082081
114	0x3efb1679	0.49040583
115	0x3eca1f34	0.3947693
116	0x3dcda4a4	0.10041168
117	0xbed7850d	-0.42093697
118	0xbe2711b6	-0.1631535
119	0x3e833ee0	0.25633907
120	0x3ee0e199	0.43922117
121	0x3d3e9644	0.046530023
122	0xbf10ea3b	-0.5660741
123	0xbec1e92e	-0.37873214
124	0x3eb35968	0.3502915
125	0xbef7b2d5	-0.48378626
126	0x3e154c8b	0.1457998
127	0x3d8071fa	0.06271739
128	0x3e6f7cfc	0.23387522
129	0xbe626f9d	-0.2211289
130	0xbef31656	-0.47477978
131	0x3e125390	0.14289689
132	0x3e09740a	0.13423172
133	0x3d4b7ba0	0.049678445
134	0xbe68ba1b	-0.22727244
135	0xbef6f3f2	-0.4823299
136	0x3e37e6a0	0.1795907
137	0xba6f99ad	-0.0009140026
138	0x3cfa8227	0.03057964
139	0x3d991036	0.07473795
140	0xbe0c5316	-0.1370357
141	0x3db1019d	0.08642886
142	0x3d5b7613	0.0535794
143	0x3ed656d9	0.41863135
144	0x3e6c58bf	0.23080729
145	0xbe2e6998	-0.17032468
146	0x3e96d356	0.29458112
147	0x3e6585c5	0.2241431
148	0x3dfeb933	0.12437668
149	0x3e60c217	0.2194904

conv1.bias f4 [6]
0	0xbf37f87a	-0.7186352
1	0xbf09be30	-0.5380583
2	0x3d3e364f	0.04643851
3	0xbe81f494	-0.2538191
4	0xbf0ff105	-0.5622714
5	0x3e030294	0.12793952

conv2.weight f4 [16, 6, 5, 5]
0	0x3ec97555	0.3934733
1	0x3e01bf8c	0.12670726
2	0xbea9d33e	-0.33168977
3	0xbece0845	-0.40240684
4	0x3e578865	0.21048124
5	0x3e890a7d	0.26765814
6	0x3e3019c0	0.17197323
7	0xbebe5a30	-0.37178183
8	0xbec0a5fa	-0.3762663
9	0xbc6bba72	-0.014387714
10	0x3e4d3921	0.20041324
11	0x3e9aefbd	0.3026103
12	0xbe3c6608	-0.18398297
13	0xbe2834ac	-0.16426343
14	0xbd1a1e39	-0.03762648
15	0x3e587e2b	0.2114188
16	0x3e416375	0.18885596
17	0xbe4b34da	-0.1984438
18	0xbdb93458	-0.09043187
19	0xbd7dc1ef	-0.061952528
20	0x3e6da65c	0.23207992
21	0x3e83e7b5	0.25762716
22	0xbe0ad28e	-0.13556883
23	0xbddcf845	-0.10789541
24	0x3d920089	0.07129008
25	0xbadf1c08	-0.0017021904
26	0x3dcc9825	0.09989957
27	0xbdbf5e0a	-0.093441084
28	0x3d9b6d1c	0.0758917
29	0xbe480111	-0.19531657
30	0x3bcfa320	0.0063365847
31	0xbcb1d6ae	-0.021708813
32	0x3e7f3d7f	0.24925803
33	0x3f0e0452	0.5547534
34	0x3e56e49f	0.2098565
35	0xbe9e2b58	-0.30892444
36	0xbecc2ccd	-0.3987793
37	0xbd409d10	-0.047024786
38	0x3e868ca9	0.2627919
39	0x3f235149	0.63795906
40	0xbdf878b8	-0.121324
41	0xbe9dd611	-0.30827382
42	0xbece5f80	-0.40307236
43	0xbe625e79	-0.22106351
44	0x3ea2cbd5	0.31796136
45	0x3e8298b4	0.25507128
46	0x3db31840	0.0874486
47	0xbeb3dd36	-0.35129708
48	0xbe2d3d94	-0.16918021
49	0xbe195444	-0.14973551
50	0xbe911698	-0.2833755
51	0xbe09d55b	-0.13460295
52	0x3e4b98f4	0.19882566
53	0x3ee54d6b	0.44785628
54	0xbd050c9e	-0.032482736
55	0xbe985359	-0.2975109
56	0xbf016fc6	-0.5056118
57	0xbe8afbe5	-0.27145305
58	0x3e52d1c4	0.20587832
59	0x3ea33bca	0.31881553
60	0xbe4f4d70	-0.20244384
61	0xbf013c63	-0.5048277
62	0xbf17abf7	-0.5924677
63	0xbe9a106b	-0.3009065
64	0xbd39f092	-0.04539544
65	0x3d9c803d	0.07641647
66	0xbde79d21	-0.11309267
67	0xbd9b4642	-0.0758176
68	0xbc91a868	-0.017780498
69	0xbe1fcc32	-0.15605238
70	0x3e45bf85	0.1931134
71	0x3dfea8eb	0.12434562
72	0x3e0132fa	0.12617102
73	0x3e8d67ac	0.27618158
74	0xbd948384	-0.07251647
75	0x3e3b7b18	0.18308675
76	0x3e5198f0	0.20468497
77	0x3cd8729a	0.026421834
78	0xbeb70992	-0.3574949
79	0x3e818067	0.25293276
80	0x3df50a09	0.11964805
81	0x3e961c9c	0.29318702
82	0x3d8be47c	0.06830689
83	0xbebcf575	-0.3690602
84	0xbe0a2248	-0.1348964
85	0x3d73579d	0.059409726
86	0x3ebf75b5	0.3739449
87	0x3c6843ca	0.014176318
88	0xbebe38df	-0.37152764
89	0xbdfad48a	-0.1224757
90	0x3d1fd8d8	0.039025158
91	0x3e698730	0.22805476
92	0xbc31cbf0	-0.010851845
93	0xbed1d8d2	-0.40985733
94	0xbddde8a8	-0.10835391
95	0x3c32d385	0.010914688
96	0x3ebe9a1d	0.37226954
97	0x3e29b3e2	0.16572526
98	0xbe9432ad	-0.28944913
99	0xbdcaaa42	-0.09895755
100	0xbbc5fcb3	-0.006042087
101	0x3e32ffed	0.1748044
102	0x3eecfbf6	0.4628598
103	0x3ebc5521	0.36783698
104	0xbdd56c49	-0.104210444
105	0xbee73b01	-0.45162204
106	0xbdb1b9e3	-0.08678033
107	0x3ea95e52	0.33079773
108	0x3f3358ff	0.7005767
109	0x3e24dddc	0.16100258
110	0xbebcd572	-0.36881596
111	0xbefc1f81	-0.49242786
112	0xbed6b4b9	-0.41934755
113	0x3ecdf9fc	0.40229785
114	0x3e54a781	0.20767023
115	0xbe322031	-0.17395093
116	0xbeaea469	-0.3410981
117	0xbf036073	-0.51319045
118	0xbe042290	-0.1290381
119	0xbe8fd367	-0.28090975
120	0x3d857009	0.0651551
121	0xbe2d3707	-0.16915523
122	0xbe2f6a5f	-0.17130421
123	0xbe2127fa	-0.15737906
124	0xbec118be	-0.3771419
125	0x3e92459e	0.2856874
126	0xbd0d1dca	-0.034452237
127	0xbf377f05	-0.7167819
128	0xbd480849	-0.048836026
129	0x3eb79736	0.35857552
130	0x3da815c7	0.08207279
131	0x3cbb3ed1	0.022857102
132	0xbf0782a2	-0.52933705
133	0xbe795a9c	-0.24350971
134	0x3d27045b	0.040775638
135	0x3e635828	0.22201598
136	0x3e413a02	0.18869784
137	0xbed979b1	-0.42475656
138	0xbe8ddb6e	-0.27706474
139	0x3cc43a1c	0.02395349
140	0x3dfba2c3	0.12286904
141	0x3e9c9fd4	0.3059069
142	0xbea28d41	-0.31748393
143	0xbe5a7a5c	-0.21335739
144	0x3d950ce5	0.0727785
145	0x3b789efb	0.0037936557
146	0x3e3ec9a0	0.18631601
147	0xbeb1bdbc	-0.34715068
148	0xbd09ba50	-0.033624947
149	0x3e160232	0.14649275
150	0xbd51db7a	-0.0512347
151	0x3c640c10	0.013918892
152	0x3d1db4e2	0.03850258
153	0xbe647bc9	-0.22312845
154	0xbe6041df	-0.21900128
155	0xbd98ba7d	-0.07457445
156	0xbde40ae1	-0.111348875
157	0x3ca0e7e6	0.019641828
158	0xbcdfa343	-0.027299529
159	0x3e0acc49	0.13554491
160	0xbeb0b14d	-0.3451027
161	0xbe5bc63a	-0.21462336
162	0xbe7c088f	-0.2461264
163	0xbd86e5c5	-0.06586794
164	0x3dd17a6a	0.10228427
165	0xbdee58c6	-0.11638026
166	0xbe4b0d59	-0.1982931
167	0xbd99473a	-0.074842885
168	0x3da04b04	0.07826808
169	0x3e70ddd7	0.23522125
170	0xbe76cb06	-0.24100885
171	0xbed5ac04	-0.417328
172	0xbec0f79b	-0.37688908
173	0xbe23b9b7	-0.15988813
174	0x3d79fe8f	0.06103378
175	0x3cc24569	0.023714738
176	0xbe95922b	-0.2921308
177	0xbd860f0c	-0.06545839
178	0xbd45f068	-0.048324972
179	0x3df05ef1	0.11736859
180	0xbde6989a	-0.11259575
181	0xbf192639	-0.5982395
182	0xbe332eef	-0.17498372
183	0xbe6a1965	-0.2286125
184	0xbe22fbf2	-0.15916422
185	0xbe533b63	-0.20628123
186	0xbea14ab8	-0.31502318
187	0xbd53255c	-0.0515493
188	0xbe733860	-0.23751974
189	0xbebce849	-0.3689597
190	0xbc39a018	-0.011329673
191	0x3f0c9279	0.54911
192	0x3ed82731	0.422174
193	0x3dc69cd5	0.09697882
194	0xbd4dc8af	-0.050240215
195	0xbe550cd9	-0.20805682
196	0x3efabce7	0.48972246
197	0x3e856737	0.2605531
198	0x3e777c39	0.24168481
199	0x3eed36bd	0.46330824
200	0xbdef08b2	-0.116715804
201	0xbe42e116	-0.19031176
202	0xbd5323b6	-0.05154773
203	0xbe3da4d8	-0.18519914
204	0xbea88e08	-0.3292086
205	0x3b9c3d74	0.004768068
206	0xbcf7ab3f	-0.030233024
207	0xbe03da73	-0.128763
208	0xbe72359c	-0.23653263
209	0xbeea0997	-0.4571044
210	0xbc8e75c1	-0.017390134
211	0x3ca2547b	0.019815674
212	0x3e19058b	0.1494352
213	0x3e3c4179	0.18384351
214	0x3dce30cf	0.10067903
215	0xbe37a411	-0.1793368
216	0x3b5b0ee8	0.0033425633
217	0x3d8c7ccb	0.0685974
218	0x3e701491	0.23445345
219	0x3e93021d	0.2871255
220	0xbd025b88	-0.031825572
221	0x3e84b662	0.25920397
222	0x3e7ef75a	0.24899045
223	0x3eadb8fa	0.33930188
224	0x3de44cca	0.11147459
225	0xbdf63aad	-0.1202291
226	0xbdd4f175	-0.10397617
227	0x3ebd07f7	0.3692014
228	0x3dd05e98	0.10174292
229	0x3e2c7466	0.16841277
230	0xbe0e288a	-0.13882652
231	0xbe66047f	-0.22462653
232	0x3d9ca4e6	0.076486394
233	0xbe5ce79f	-0.21572731
234	0x3ea38327	0.31936
235	0xbe962792	-0.29327065
236	0xbe91b3cf	-0.28457496
237	0xbd40270f	-0.04691225
238	0xbd46a1cc	-0.048494145
239	0x3eb4a94b	0.3528541
240	0xbe290e17	-0.16509281
241	0xbd69fd95	-0.0571266
242	0x3d426ea6	0.047468804
243	0x3d19ad16	0.037518583
244	0x3e22cc0f	0.15898155
245	0xbd934261	-0.07190395
246	0xbe0ce000	-0.13757324
247	0xbe779eec	-0.24181718
248	0xbea645e2	-0.3247519
249	0xbe490893	-0.19632177
250	0xbe4947be	-0.19656274
251	0xbe2d6a38	-0.1693505
252	0xbd9e01cc	-0.077151865
253	0xbe489f1b	-0.19591944
254	0xbd55f722	-0.052237637
255	0x3c591237	0.013248972

conv2.bias f4 [16]
0	0xbdd15351	-0.102209695
1	0xbee4ea71	-0.44710115
2	0x3e4420d2	0.19153145
3	0xbe8adc45	-0.27121177
4	0x3e7e8a41	0.24857427
5	0x3ecb68d1	0.39728406
6	0x3e1d38f3	0.15353756
7	0x3e0f5569	0.13997425
8	0xbc55d970	-0.013052329
9	0x3efb37d5	0.49066034
10	0x3cac8bb2	0.021062706
11	0x3e607cf0	0.2192266
12	0xbf2157b3	-0.63024443
13	0xbce4d190	-0.027931958
14	0xbdeda694	-0.11604038
15	0xbea4bcb4	-0.3217522

conv3.weight f4 [120, 16, 5, 5]
0	0x3e32b9c0	0.1745367
1	0xbeac8766	-0.3369705
2	0xbd0b811c	-0.034058675
3	0xbf27b836	-0.6551546
4	0xbe3355c0	-0.1751318
5	0xbc2a5f70	-0.010398731
6	0x3e0f0afd	0.13969035
7	0x3e8be811	0.2732549
8	0xbecdbbad	-0.40182248
9	0x3a9064ea	0.0011016403
10	0x3e47a624	0.19496971
11	0xbd030343	-0.031985532
12	0x3d4a41e2	0.049379237
13	0x3e2e23bf	0.17005824
14	0xbe64c2af	-0.22339891
15	0x3e1993f5	0.14997847
16	0x3e87ccb0	0.26523352
17	0x3e490e92	0.19634464
18	0xbe40388f	-0.18771575
19	0xbec693c7	-0.3878462
20	0x3e7602ec	0.24024552
21	0x3ee3df98	0.44506526
22	0xbe83aa55	-0.2571589
23	0x3c4a7286	0.012356406
24	0xbe8763ef	-0.2644343
25	0x3e852c0c	0.26010168
26	0xbefe50f8	-0.4967115
27	0x3daca6b8	0.084302366
28	0xbd1afdcd	-0.0378397
29	0xbdc8d726	-0.09806661
30	0xbd58d67a	-0.052938916
31	0x3e9c7294	0.30556166
32	0x3d260890	0.04053551
33	0x3dcb4ea6	0.099271104
34	0xbe4fa8ab	-0.20279185
35	0x3eb8f073	0.36120948
36	0x3f1c4725	0.6104606
37	0x3eaf2d50	0.34214258
38	0x3e87fbb2	0.26559216
39	0xbe54dd14	-0.2078746
40	0x3ead072f	0.33794543
41	0xbcb8e566	-0.022570323
42	0xbcb6c4eb	-0.022310695
43	0xbe95b600	-0.29240417
44	0xbe31f47d	-0.17378421
45	0x3d9e0d87	0.07717424
46	0xbe2a0fad	-0.16607542
47	0xbe09a4ec	-0.13441819
48	0xbe80d81f	-0.25164887
49	0xbd4bf338	-0.0497925
50	0x3f045528	0.5169244
51	0x3e8a64aa	0.27029926
52	0xbecf01d1	-0.40431073
53	0x3e877e01	0.2646332
54	0x3ec0a70b	0.37627444
55	0xbdbda9fe	-0.09260939
56	0x3d02dcec	0.03194897
57	0xbdc950c5	-0.09829859
58	0x3d742400	0.059604645
59	0x3f06ed90	0.5270624
60	0xbeb66421	-0.35623267
61	0xbe80feaf	-0.25194308
62	0xbe605cd5	-0.21910413
63	0x3d8cdda3	0.06878211
64	0x3e66b8e0	0.22531462
65	0xbdf1b553	-0.11802163
66	0x3cbd537e	0.023111101
67	0xbe9425c5	-0.28935066
68	0xbdab7282	-0.0837145
69	0x3e06afb6	0.13152966
70	0xbd049bdf	-0.032375213
71	0x3e11561b	0.14193003
72	0xbd6c0ba9	-0.057628307
73	0x3ed4a85b	0.41534695
74	0xbe2578a0	-0.16159296
75	0xbe5b58ca	-0.21420589
76	0x3d121683	0.035666
77	0x3ddbf50a	0.10740097
78	0xbe8e9ae3	-0.27852544
79	0xbeb3ee4e	-0.3514275
80	0xbe63e702	-0.22256091
81	0xbe2d0eb2	-0.16900137
82	0x3dc1b9b5	0.09459249
83	0xbeadcf02	-0.33946997
84	0xbedfe45d	-0.43728915
85	0xbe114d92	-0.14189747
86	0xbe1275d9	-0.14302768
87	0xbd2f5006	-0.042800926
88	0xbeb71718	-0.35759807
89	0xbeacde9b	-0.33763584
90	0x3e49ba32	0.19699934
91	0x3e31b628	0.17354643
92	0xbe373a17	-0.17893253
93	0xbebb780a	-0.3661502
94	0xbef70bb2	-0.4825111
95	0xbe36e26a	-0.17859808
96	0x3ec6febf	0.3886623
97	0xbeb02bc2	-0.34408385
98	0xbea0e71b	-0.3142632
99	0xbef4a4b3	-0.47781906
100	0xbec39cb0	-0.3820548
101	0xbeb4e8d1	-0.35333875
102	0xbea92b0b	-0.33040652
103	0xbdecd0c4	-0.115632564
104	0x3ed8e8f7	0.42365238
105	0x3e3e98e5	0.18613012
106	0x3e738156	0.23779806
107	0xbf14e79b	-0.581659
108	0xbe63d010	-0.22247338
109	0x3d2ca79a	0.042152025
110	0x3d919654	0.07108751
111	0x3ed8effe	0.423706
112	0xbd038db8	-0.032117575
113	0xbe44c860	-0.19217062
114	0x3e2eabaa	0.17057672
115	0x3e5c8a80	0.21537209
116	0x3e5af10f	0.21381019
117	0x3e6f3ed7	0.23363815
118	0x3e171680	0.14754677
119	0x3d01bec5	0.031676073
120	0x3dca310c	0.09872636
121	0x3e8cfb1e	0.27535337
122	0xbe0d64d6	-0.13807997
123	0x3d7f6416	0.06235131
124	0x3e2f1bca	0.17100444
125	0xbc5ab331	-0.013348387
126	0xbe34bf3f	-0.1765108
127	0xbecf0b68	-0.4043839
128	0xbe2ebfe1	-0.17065383
129	0xbee1713d	-0.44031706
130	0x3d354a00	0.044260025
131	0xbda85b58	-0.082205474
132	0xbf224197	-0.6338133
133	0xbe294487	-0.16530047
134	0xbdcca897	-0.099930935
135	0x3e76d8e4	0.24106175
136	0xbd10a3e5	-0.035312552
137	0xbd2960cc	-0.04135208
138	0x3e3e94b6	0.18611416
139	0x3d6c44ac	0.057682678
140	0x3e121003	0.1426392
141	0x3d008e75	0.031385858
142	0x3ca3aeb9	0.019980775
143	0x3ec021be	0.37525743
144	0x3bcdcd0f	0.0062805484
145	0x3e1d0c41	0.15336706
146	0xbe755dac	-0.23961514
147	0x3c477b8b	0.012175451
148	0x3f02326f	0.50858206
149	0xbd7eb778	-0.06218669
150	0x3ead3e96	0.33836812
151	0xbe024cfa	-0.12724677
152	0xbe5e8341	-0.21729757
153	0xbe415217	-0.18878971
154	0x3ec01d8d	0.37522545
155	0xbde306b0	-0.1108526
156	0x3d199c02	0.037502296
157	0x3e8dfc5b	0.27731594
158	0xbe91da6b	-0.28486952
159	0xbd1ed0b9	-0.038773272
160	0x3d275ead	0.040861774
161	0xbd792fed	-0.06083672
162	0x3eefefb2	0.4686256
163	0xbe6102e1	-0.21973754
164	0x3d401517	0.046895113
165	0x3e493e2c	0.19652623
166	0xbe50726f	-0.20356153
167	0x3dad3cc1	0.084588535
168	0xbc74890f	-0.014925255
169	0x3df26025	0.11834744
170	0x3ed24fc6	0.41076487
171	0xbe8afd14	-0.27146208
172	0x3d83158c	0.06400594
173	0xbed8827d	-0.42287055
174	0x3ef818fe	0.48456568
175	0x3ef95255	0.48695627
176	0xbe52df95	-0.20593102
177	0xbe8466bd	-0.25859633
178	0xbe9d56e1	-0.30730346
179	0xbdbc2fd9	-0.09188814
180	0xbd0a92cb	-0.0338314
181	0x3e899899	0.26874235
182	0x3ebdacea	0.37045985
183	0xbd3a99b3	-0.045556735
184	0x3e82ed2b	0.2557157
185	0xbe0ba517	-0.13637196
186	0xbf4e157a	-0.8050152
187	0x3f2fa0da	0.68604815
188	0x3db78f11	0.089628346
189	0x3e1fd17a	0.15607253
190	0xbe18f1ff	-0.14936064
191	0xbe11ad33	-0.14226227
192	0x3dc8bd28	0.09801704
193	0x3dd65fe2	0.10467507
194	0x3d9c4fab	0.07632383
195	0x3e424efc	0.18975443
196	0xbd5400a5	-0.051758427
197	0x3e230325	0.15919168
198	0xbd6f881e	-0.05847942
199	0x3e1c6d32	0.1527603
200	0x3e7190f9	0.23590459
201	0xbccfa0ee	-0.025345292
202	0xbe355adb	-0.1771044
203	0xbef1fb99	-0.47262266
204	0x3e86c67c	0.26323307
205	0x3e1e1836	0.15438923
206	0x3e222653	0.15834932
207	0xbea8074e	-0.32818073
208	0xbe57b3ec	-0.21064728
209	0xbeb720b5	-0.3576714
210	0x3e69a3cc	0.2281639
211	0xbdc6caac	-0.09706625
212	0xbe075119	-0.1321453
213	0xbede48e8	-0.43414998
214	0xbf052c18	-0.52020407
215	0x3d69789c	0.056999788
216	0xbe8c160e	-0.27360576
217	0xbe890987	-0.2676508
218	0xbeca4a11	-0.39509633
219	0xbe3ced0e	-0.18449804
220	0x3d95d2ad	0.07315574
221	0xbe94183b	-0.28924736
222	0xbecef9d9	-0.40424994
223	0xbefe3290	-0.4964795
224	0xbd79b0d8	-0.060959667
225	0x3e61e302	0.22059253
226	0xbee370f5	-0.44422117
227	0xbe8dc285	-0.2768747
228	0xbeba1791	-0.36346105
229	0xbe22f83f	-0.15915011
230	0xbcdf6546	-0.02726997
231	0xbd461054	-0.048355415
232	0x3c9b49d5	0.018956104
233	0xbe896859	-0.26837423
234	0xbce1031c	-0.027467303
235	0x3e4aa9dc	0.19791359
236	0x3df81768	0.121138394
237	0x3dd77749	0.10520799
238	0x3d74c298	0.05975589
239	0x3e0beb63	0.13664012
240	0xbdd3b8d9	-0.10337991
241	0xbd5171f7	-0.051134076
242	0x3df42031	0.119202025
243	0x3d394e05	0.04524042
244	0x3e89e285	0.26930633
245	0x3d018beb	0.031627577
246	0xbe1a3117	-0.15057789
247	0xbd31e20a	-0.04342846
248	0xbebb2a7e	-0.36555856
249	0x3e80a109	0.2512286
250	0x3e1f1911	0.15536906
251	0x3e702619	0.23452033
252	0x3dd7ac1b	0.105308734
253	0xbe464bec	-0.193649
254	0x3e051590	0.12996507
255	0x3e28d6ec	0.16488236

conv3.bias f4 [120]
0	0x3e9cebf3	0.30648765
1	0xbd6ec3b6	-0.058292113
2	0xbe167718	-0.14693868
3	0xbcd3fd6f	-0.025877682
4	0x3e341d93	0.17589407
5	0xbe03ea38	-0.12882316
6	0xbdfc3c63	-0.12316205
7	0x3c38e8ca	0.01128597
8	0xbe31d237	-0.17365347
9	0xbcb6f3a0	-0.022332966
10	0xbd8c45fd	-0.06849287
11	0xbe4a83a7	-0.19776784
12	0x3ca31376	0.01990674
13	0xbda2d495	-0.07950703
14	0xbdbd11fd	-0.092319466
15	0xbd355ffd	-0.044280995
16	0x3c87253d	0.016497249
17	0x3e62192d	0.22079916
18	0xbdae9f48	-0.08526474
19	0xbe560740	-0.20901203
20	0xbc3ac203	-0.011398795
21	0xbddaf603	-0.10691454
22	0x3cbbac9d	0.022909457
23	0xbc1d5929	-0.009603777
24	0xbda13710	-0.078718305
25	0x3e27cf8d	0.16387768
26	0x3daf8b34	0.08571473
27	0x3e7b7528	0.2455641
28	0xbdbd7553	-0.092508934
29	0xbcaa7cea	-0.020811517
30	0xbd4a52a5	-0.049395222
31	0xbd819fab	-0.063292824
32	0x3dbecb4b	0.09316119
33	0x3dc7b128	0.09750587
34	0xbc7f7d8c	-0.015593898
35	0x3da46985	0.08027939
36	0x3eab2456	0.3342616
37	0x3de575f1	0.11204136
38	0xbdceedfd	-0.101039864
39	0xbddbfde7	-0.107417874
40	0xbe43dec9	-0.19127955
41	0x3e394ea5	0.18096407
42	0xbd4de4ac	-0.050266907
43	0x3ea4bced	0.3217539
44	0xbdabe2b2	-0.08392848
45	0xbe7b618c	-0.2454893
46	0x3db6ad59	0.08919782
47	0x3ca3492b	0.01993235
48	0xbd0da354	-0.03457959
49	0x3d02d27f	0.031939026
50	0x3c9ac240	0.018891454
51	0xbd832cd8	-0.06405038
52	0x3aa1b207	0.0012336381
53	0xbe37402b	-0.17895572
54	0xbe0b2b2a	-0.13590685
55	0x3db96790	0.09052956
56	0xbe2e18c1	-0.1700163
57	0xbd43bab7	-0.047785487
58	0xbe84d869	-0.25946358
59	0xbdcf5b08	-0.10124785
60	0xbd4690f8	-0.048478097
61	0xbd944655	-0.07239977
62	0xbea742f1	-0.3266826
63	0xbd5cb814	-0.053886488
64	0xbb9fe610	-0.0048797205
65	0x3accd07e	0.00156261
66	0xbd79367c	-0.060842976
67	0xbdd55c48	-0.10417992
68	0xbe5ecb0d	-0.21757145
69	0xbdb9dfb4	-0.09075871
70	0xbe1c2714	-0.15249282
71	0xbd74910f	-0.05970865
72	0xbe0074c7	-0.12544547
73	0xbc0d6e34	-0.0086322315
74	0xbd3a022c	-0.045412228
75	0xbe891dd4	-0.2678057
76	0x3ce2c545	0.027681956
77	0x3e0d1346	0.13776883
78	0x3d29f6f4	0.04149528
79	0x3d9ec5ea	0.07752593
80	0x3daa20ea	0.08307059
81	0xbec004b2	-0.37503582
82	0xbd48d23d	-0.049028624
83	0xbc5c69ec	-0.013452988
84	0xbca7c066	-0.020477485
85	0xbe4564d2	-0.19276741
86	0x3e7d44bf	0.24733256
87	0x3e2f0488	0.17091572
88	0x3c9fa2a8	0.01948674
89	0xbe70ad67	-0.23503648
90	0x3b8ecc5a	0.0043578567
91	0x3e844870	0.25836515
92	0xbdf78220	-0.12085366
93	0xbcf89f56	-0.030349415
94	0xbdf1c818	-0.11805743
95	0xbd50971e	-0.050925367
96	0xbe009a2a	-0.12558809
97	0x3e11f53e	0.14253709
98	0x3e07aff6	0.13250718
99	0xbd69442a	-0.056949772
100	0x3eccb097	0.39978477
101	0xbcfa1f32	-0.030532453
102	0x3e1528f3	0.14566402
103	0xbcbcde0c	-0.023055099
104	0x3dcff98e	0.10155021
105	0xbdd84c25	-0.105613984
106	0x3d42fb6c	0.047603056
107	0xba8eeaff	-0.0010903775
108	0xbcde5cda	-0.027143884
109	0xbd545ab0	-0.0518443
110	0x3dba77a5	0.09104852
111	0xbe1aff68	-0.15136492
112	0x3d83970b	0.064252935
113	0x3e22d935	0.1590317
114	0xbd7e1080	-0.062027454
115	0xbd285154	-0.041093186
116	0x3dc63b73	0.09679308
117	0x3e4a96b7	0.19784056
118	0xbeb09295	-0.34486833
119	0x3de93edc	0.113889426

fc1.weight f4 [84, 120]
0	0x3df2b7dc	0.11851475
1	0xbdb3bca8	-0.08776218
2	0x3ee7e6f2	0.45293385
3	0xbdef6dc7	-0.1169086
4	0x3b9710a5	0.0046101385
5	0xbe2ef508	-0.1708566
6	0xbe3f514b	-0.18683355
7	0x3e377ea2	0.179194
8	0xbee37eb6	-0.4443261
9	0x3f03d53e	0.51497257
10	0x3dcbddf1	0.09954441
11	0xbda9a5e4	-0.08283594
12	0xbe77a490	-0.2418387
13	0x3e0b0d11	0.13579203
14	0x3dc6aedd	0.09701321
15	0x3cbd26a3	0.023089712
16	0x3a01433c	0.0004930978
17	0x3d277951	0.04088718
18	0xbc0c3d77	-0.008559576
19	0xbe58528d	-0.2112524
20	0xbde44d85	-0.11147598
21	0x3e1b898c	0.15189189
22	0x3d5c0b41	0.05372167
23	0xbc79101e	-0.015201597
24	0xbed4aef7	-0.41539738
25	0x3e28e839	0.16494836
26	0x3ee1de06	0.44114703
27	0xbba4301e	-0.005010619
28	0xbd47e2fa	-0.048800446
29	0x3d71423c	0.058901057
30	0xbd499f64	-0.049224272
31	0xbda10ece	-0.07864152
32	0x3d123927	0.035699036
33	0xbebfc011	-0.37451223
34	0xbcfdc795	-0.030978957
35	0x3e99cca8	0.30038953
36	0x3e1e28b4	0.15445215
37	0x3ede9e48	0.43480134
38	0x3e39e5d4	0.18154079
39	0xbc0d9040	-0.008640349
40	0x3e69774b	0.22799413
41	0xbcbe187f	-0.02320504
42	0xbdd21ab3	-0.10258999
43	0x3ef39878	0.47577262
44	0xbdeb630d	-0.11493502
45	0xbc9c455b	-0.01907604
46	0xbd99b52e	-0.075052604
47	0xbf479248	-0.7795758
48	0x3d8f88ec	0.07008538
49	0xbc60aa89	-0.013712534
50	0x3e364934	0.17801362
51	0x3d54e97e	0.051980488
52	0x3da2517b	0.079256974
53	0xbea62a3f	-0.32454106
54	0x3e54cc43	0.20781045
55	0x3e275d0f	0.16344093
56	0x3e8ef010	0.27917528
57	0xbc848864	-0.016178317
58	0xbe8ca8ce	-0.27472538
59	0xbd95ccab	-0.07314428
60	0x3d4acedd	0.049513686
61	0xbc58a4d6	-0.013222894
62	0xbd3f72e2	-0.04674042
63	0xbb772152	-0.003770907
64	0x39a9d149	0.00032390121
65	0x3d7b5d11	0.061368052
66	0x3c956e16	0.01824097
67	0x3de7071d	0.112806536
68	0x3e0210db	0.12701742
69	0x3e96f6ba	0.29485112
70	0xbd338ce5	-0.04383554
71	0xbdb9a262	-0.09064175
72	0xbd369031	-0.044571105
73	0x3e16777d	0.14694019
74	0xbac26684	-0.0014831577
75	0x3e6c5ca5	0.23082216
76	0x3cb509d5	0.022099415
77	0x3d0820c7	0.033234384
78	0x3df24863	0.11830213
79	0x3ee3ea0d	0.44514504
80	0xbe1caf5e	-0.15301272
81	0xbef78804	-0.4834596
82	0x3bf4c3d7	0.007469635
83	0x3eb016d3	0.34392413
84	0x3e0045c2	0.1252661
85	0x3e678993	0.22611074
86	0x3e8ddb6d	0.2770647
87	0x3eb09404	0.34487927
88	0x3d8760b1	0.06610239
89	0xbd7d138d	-0.061786223
90	0xbd0cd6d2	-0.034384556
91	0x3d059475	0.032612283
92	0x3deaa8b0	0.11457956
93	0xbc5484b4	-0.012971092
94	0xbea3d17e	-0.31995767
95	0xbd823195	-0.06357113
96	0xbf0a855f	-0.5410976
97	0x3b0636e2	0.002047949
98	0xbdb9c3b5	-0.09070531
99	0xbd4e2535	-0.050328452
100	0x3e6a43e6	0.22877464
101	0x3d83d727	0.064375214
102	0x3e32ac8e	0.17448637
103	0xbc2eb2a9	-0.010662713
104	0x3e5ebe6d	0.21752329
105	0x3db2106e	0.0869454
106	0x3dd87d1b	0.10570737
107	0xbd9abf6d	-0.07556043
108	0xbe826610	-0.25468493
109	0xbc7b8453	-0.015351373
110	0xbcf3e388	-0.029771581
111	0xbec5fb1d	-0.38668147
112	0xbd20d2e6	-0.03926363
113	0x3d52b81a	0.051445104
114	0xbcf43377	-0.029809697
115	0xbd041b20	-0.03225243
116	0x3ddc00e2	0.10742356
117	0xbe9e9314	-0.30971587
118	0x3e8ed9b5	0.27900472
119	0x3e2de43b	0.16981594
120	0xbe315932	-0.17319182
121	0xbdc3e6e8	-0.09565526
122	0xbf0a9fc9	-0.5415006
123	0x3e86fcfd	0.2636489
124	0x3f0d9b9b	0.5531556
125	0x3e30a903	0.17251973
126	0x3e25caf1	0.16190697
127	0x3da43ea6	0.08019762
128	0xbf01a963	-0.5064909
129	0xbeb1425b	-0.34620938
130	0xbe18ad08	-0.14909756
131	0x3eb130b3	0.34607467
132	0x3d7ad7b3	0.061240863
133	0xbe707bc8	-0.23484719
134	0x3dc1dbea	0.094657734
135	0x3d22f722	0.039786465
136	0x3c9cc0da	0.019134928
137	0xbcedef05	-0.029044637
138	0xbc235818	-0.009969734
139	0x3eda1a48	0.42598176
140	0x3c265bb4	0.0101537
141	0x3dc326e9	0.09528906
142	0x3db1e8ec	0.086870044
143	0xbcf16c1a	-0.029470492
144	0x3d62780f	0.055290278
145	0x3e0fd694	0.14046699
146	0xbe87fcc4	-0.26560032
147	0x3d208f36	0.039199077
148	0x3dc69087	0.09695535
149	0xbb7ae081	-0.0038280787
150	0x3cbfa9c7	0.023396386
151	0x3d1aad44	0.037762895
152	0x3ceb3feb	0.028717002
153	0xbc6e593c	-0.014547642
154	0xbd7ce31a	-0.06174002
155	0xbea8f2b4	-0.32997668
156	0x3e471cd0	0.19444585
157	0xbe54d2c9	-0.20783533
158	0xbe982793	-0.29717693
159	0x3cfe78a8	0.031063393
160	0xbe22c650	-0.15895963
161	0xbec6831a	-0.38771898
162	0xbd826226	-0.063663766
163	0xbecc28e4	-0.39874947
164	0xbd37a258	-0.044832557
165	0x3e22ec83	0.15910535
166	0xbf1fc980	-0.6241684
167	0x3e9c24e7	0.30496904
168	0xbd9a8e14	-0.075466305
169	0x3d01acf6	0.03165909
170	0x3cfa88c9	0.030582802
171	0xbcfea1f7	-0.03108309
172	0xbd984024	-0.07434109
173	0xbd33a64e	-0.043859772
174	0x3e0f3964	0.13986737
175	0xbdceafbb	-0.10092112
176	0xbdacd895	-0.08439747
177	0xbda12228	-0.07867843
178	0x3d06e7e4	0.032935992
179	0xbd80f0a7	-0.06295901
180	0x3bc77f2e	0.006088159
181	0xbd06775d	-0.032828677
182	0x3e989dbb	0.2980784
183	0xbd83242c	-0.064033836
184	0x3d080df8	0.033216447
185	0xb9968085	-0.00028705984
186	0xbbf3f300	-0.0074447393
187	0xbd373de2	-0.04473675
188	0x3dbf63e5	0.09345225
189	0x3dc22420	0.094795465
190	0x3e261c26	0.16221675
191	0x3ef72b15	0.48275056
192	0x3ef9d61a	0.4879616
193	0x3dcdf52a	0.10056527
194	0xbdaa77e8	-0.083236516
195	0xbea8a232	-0.32936245
196	0x3d899858	0.067185104
197	0xbd24f897	-0.040276136
198	0x3e1ebebb	0.15502445
199	0xbf041993	-0.51601523
200	0xbd1361e5	-0.03598203
201	0x3f0bdd24	0.5463431
202	0x3c719ed8	0.014747344
203	0xbd51311e	-0.051072232
204	0xbc0cf60d	-0.008603585
205	0xbea31293	-0.31850109
206	0xbee81000	-0.45324707
207	0xbdd12929	-0.10212929
208	0x3ce02ce0	0.027365148
209	0x3ea55020	0.32287693
210	0xbce90873	-0.028446412
211	0xbf2777d0	-0.65417194
212	0x3d20b393	0.039233755
213	0xbd9ef69c	-0.07761881
214	0xbdfb530e	-0.12271701
215	0xbd3116f9	-0.0432348
216	0xbe4da7b9	-0.20083512
217	0xbdaa2929	-0.08308632
218	0x3e1002c4	0.14063555
219	0xbd050780	-0.032477856
220	0x3ddb700c	0.107147306
221	0x3caef199	0.021355437
222	0x3dc7e4c6	0.09760432
223	0xbce65f78	-0.028121695
224	0x3e9e7ac6	0.30953044
225	0xbd086c5e	-0.033306472
226	0x3ea9c4fb	0.33158097
227	0x3ddd89fa	0.108173326
228	0x3d28ed85	0.04124214
229	0x3b96f510	0.0046068504
230	0x3ea2ed8a	0.31821853
231	0xbdf5930a	-0.11990936
232	0xbdd646c8	-0.10462719
233	0xbd510ba6	-0.0510365
234	0x3e0602dc	0.13087028
235	0x3da877fe	0.08226012
236	0x3d16dd16	0.036831938
237	0xbd1221c1	-0.03567672
238	0xbdbb0ed2	-0.09133686
239	0xbe7d0b01	-0.24711229
240	0x3e5f71fd	0.21820827
241	0xbdc5001c	-0.096191615
242	0x3e8c14c6	0.273596
243	0xbd758d43	-0.05994917
244	0xbf1bbbe5	-0.6083358
245	0xbcf873e7	-0.030328704
246	0xbf4a392f	-0.78993505
247	0x3e67c1cd	0.22632523
248	0xbdc0f4ca	-0.0942169
249	0x3f213edf	0.6298656
250	0xbc114c80	-0.008868337
251	0x3e9b5dcc	0.30345
252	0xbe078417	-0.13233982
253	0xbd2f0e40	-0.0427382
254	0x3e795a07	0.24350749
255	0xbe059e6a	-0.13048711

fc1.bias f4 [84]
0	0x3ee905f1	0.45512345
1	0x3b28b789	0.002574416
2	0x3df11f8c	0.11773595
3	0xbda4a988	-0.08040148
4	0xbe936cfd	-0.2879409
5	0xbe019a9d	-0.12656637
6	0xbdfb71cb	-0.12277564
7	0x3eade7dd	0.3396596
8	0xbe20349e	-0.15645072
9	0x3e38c73e	0.18044755
10	0x3b3417ac	0.002747993
11	0x3e1bfcc2	0.15233138
12	0xbe79822b	-0.24366061
13	0xbde73200	-0.112888336
14	0x3db00174	0.08594027
15	0xbdd4c8c3	-0.10389855
16	0xbbc7b1b7	-0.0060941833
17	0x3ec665f3	0.38749656
18	0x3ee9fa40	0.45698738
19	0x3e868063	0.26269826
20	0x3d92023e	0.07129334
21	0x3e1bafae	0.15203735
22	0x3ee52979	0.44758204
23	0xbed07cec	-0.40720308
24	0xbe2a5226	-0.166329
25	0x3dad4168	0.08459741
26	0xbe3d93bc	-0.18513387
27	0x3d9bef41	0.076139934
28	0xbdce7bd1	-0.1008221
29	0x3e9be796	0.30450124
30	0xbe7b4754	-0.24538928
31	0xbef4eda0	-0.47837543
32	0x3ea479e7	0.32124254
33	0x3e5238ee	0.2052953
34	0x3e715def	0.23570989
35	0x3d47f2ee	0.04881566
36	0x3d2d3983	0.042291176
37	0x3e2735e8	0.16329157
38	0xbc853103	-0.016258722
39	0xbd3f268f	-0.04666763
40	0xbe1b8586	-0.15187654
41	0x3e0e51a6	0.13898334
42	0x3e88620d	0.26637307
43	0x3eaf4ce8	0.34238362
44	0x3eaf959f	0.3429384
45	0x3ec8448e	0.39114803
46	0x3dba14e5	0.090860166
47	0x3c9b1ef9	0.018935667
48	0x3d976aa1	0.07393385
49	0x3d3ce8da	0.046120502
50	0x3dba7426	0.09104185
51	0xbe029574	-0.12752324
52	0xbe5364f0	-0.20643973
53	0xbcf3265e	-0.02968138
54	0xbc18542e	-0.009297414
55	0xbcbd92ca	-0.023141284
56	0x3e471097	0.19439922
57	0x3e19c826	0.15017757
58	0x3e890872	0.26764256
59	0xbe386aa4	-0.1800943
60	0x3e80b0f9	0.2513502
61	0xbe647d90	-0.22313523
62	0x3e2451fc	0.160469
63	0xbeb09621	-0.3448954
64	0xbeb86016	-0.36010808
65	0xbd604817	-0.05475625
66	0xbbc1649f	-0.0059018875
67	0x3d1940d5	0.037415344
68	0x3ecfaf5f	0.40563485
69	0x3e800c60	0.2500944
70	0x3e4dcb17	0.20097004
71	0x3c9ef368	0.019403175
72	0x3e87c27f	0.26515576
73	0x3ea4a5a7	0.32157633
74	0xbe928104	-0.28614056
75	0xbe18c811	-0.1492007
76	0x3dcd31f5	0.10019294
77	0x3db42207	0.08795553
78	0xbdf5de03	-0.12005236
79	0x3c982daf	0.018576471
80	0xbe8e987a	-0.27850705
81	0x3e07a5a2	0.13246778
82	0x3e55aaea	0.2086598
83	0x3dd3b765	0.10337714

fc2.weight f4 [10, 84]
0	0xbdefce28	-0.11709243
1	0xbf3cff0a	-0.7382666
2	0x3e83cd8e	0.25742763
3	0x3ea5dff2	0.3239742
4	0x3e3f0c24	0.18656975
5	0xbd8674ef	-0.06565272
6	0xbf0725bc	-0.52791953
7	0xbeb3966f	-0.3507571
8	0x3e8f172c	0.27947366
9	0xbf48be17	-0.78415054
10	0xbed8531e	-0.42250913
11	0x3e1e16e0	0.15438414
12	0xbebdf8ee	-0.3710398
13	0xbf248f4b	-0.6428115
14	0xbb2a7658	-0.002601048
15	0xbeb92def	-0.36167857
16	0xbf0eadae	-0.55733764
17	0xbf0148de	-0.5050181
18	0x3dbcb30c	0.09213838
19	0xbf6506ff	-0.894638
20	0x3e0800c5	0.13281544
21	0xbf01f3ce	-0.5076264
22	0x3dae92c0	0.08524084
23	0xbdbeb9ca	-0.0931278
24	0xbf262d9f	-0.6491336
25	0x3e9d55f4	0.3072964
26	0x3e37fbdc	0.1796717
27	0xbf3621ff	-0.71145624
28	0xbda48b07	-0.0803433
29	0x3e2dd8e9	0.16977276
30	0xbed98203	-0.42482004
31	0x3e270869	0.16311802
32	0x3d7c30bf	0.061569925
33	0x3e0e4e89	0.13897146
34	0x3ded0203	0.11572649
35	0x3d203af6	0.03911873
36	0x3e4df7f4	0.20114118
37	0xbe360dcd	-0.17778702
38	0x3e91fc84	0.28512967
39	0x3e50ec85	0.20402725
40	0xbc8bfe03	-0.017088896
41	0x3e469ad9	0.19395007
42	0x3e848118	0.2587974
43	0xbf451232	-0.7698089
44	0xbeb0abbb	-0.3450602
45	0xbeb5d566	-0.35514373
46	0x3e1dfc13	0.1542819
47	0x3e78263d	0.24233337
48	0xbd6ef1fb	-0.05833624
49	0xbf2a31ef	-0.6648244
50	0x3e9ec89d	0.3101243
51	0xbb01aee7	-0.0019788088
52	0x3e56946c	0.20955056
53	0xbd7f9a23	-0.062402856
54	0x3e249051	0.16070677
55	0xbd0f7c05	-0.035030384
56	0xbece3ecd	-0.40282288
57	0xbdc19b04	-0.09453395
58	0x3e92fef1	0.2871013
59	0x3e436a77	0.19083582
60	0xbe7c24c3	-0.24623398
61	0x3e921d10	0.28537798
62	0xbe2b3aa6	-0.16721591
63	0xbe54c8f2	-0.2077978
64	0xbe0ab3f5	-0.1354521
65	0xbea61935	-0.32441106
66	0x3d8416e1	0.06449676
67	0x3e8fc536	0.28080148
68	0xbeaa23bd	-0.3323039
69	0xbdd7d625	-0.10538892
70	0x3ea79958	0.3273418
71	0xbeb42d52	-0.35190827
72	0x3de37451	0.1110617
73	0x3e23ae9d	0.15984578
74	0x3e826907	0.25470755
75	0xbd4a5080	-0.049393177
76	0xbd96c215	-0.07361237
77	0xbe91f63f	-0.28508183
78	0xbd1495a4	-0.03627552
79	0xbeb643f0	-0.35598707
80	0x3e4abfb0	0.19799685
81	0xbf016ec5	-0.50559646
82	0x3e47d4e9	0.19514813
83	0xbf13a03c	-0.57666373
84	0xbe230e5c	-0.15923446
85	0x3d9b0d79	0.07570929
86	0x3e361041	0.17779638
87	0xbeee9c00	-0.46603394
88	0x3efca517	0.49344704
89	0x3d8c514d	0.068514444
90	0xbe330be8	-0.1748501
91	0xbc493819	-0.012281441
92	0xbea7eb59	-0.32796744
93	0xbec8e455	-0.39236704
94	0xbe9fc5cd	-0.31205598
95	0xbeb07d0e	-0.3447041
96	0xbe569273	-0.20954303
97	0xbd62a1d8	-0.055330127
98	0x3e511269	0.20417179
99	0xbeb68fc5	-0.35656562
100	0x3f17182c	0.5902126
101	0xbf75c5b2	-0.96004784
102	0xbf74d2d4	-0.956342
103	0x3cff052e	0.0311304
104	0xbe01ea9e	-0.12687156
105	0xbf264758	-0.6495261
106	0xbe3469e0	-0.17618513
107	0xbf78b5b0	-0.97152233
108	0xbdb91a72	-0.09038247
109	0xbf2b5f35	-0.6694215
110	0xbe90149a	-0.28140718
111	0xbd8bd16c	-0.068270534
112	0xbe565ef5	-0.2093466
113	0x3e384600	0.17995453
114	0x3ecd34d4	0.40079367
115	0x3ecf92b7	0.40541622
116	0x3f0778d3	0.5291874
117	0xbef1b2ec	-0.4720682
118	0xbefae163	-0.4900008
119	0x3cc5d5ca	0.024149794
120	0xbf4befe2	-0.7966291
121	0xbebebf4e	-0.3725533
122	0x3ed79491	0.42105535
123	0x3eb64b20	0.3560419
124	0x3db0e904	0.08638194
125	0x3deff738	0.11717075
126	0xbea69ff2	-0.32543904
127	0x3ddf2b6e	0.108969554
128	0x39e49b8c	0.0004360344
129	0xbea7fc2e	-0.32809585
130	0xbe2733a8	-0.16328299
131	0xbeb664f2	-0.3562389
132	0x3d28abeb	0.04117958
133	0xbe41a67e	-0.18911168
134	0xbeec4cc6	-0.46152323
135	0xbd96ec5c	-0.07369301
136	0xbd400e2f	-0.046888527
137	0x3d189824	0.037254468
138	0x3e1f1b09	0.15537657
139	0xbe9e3421	-0.30899146
140	0xbeeb24d4	-0.45926535
141	0x3d450abe	0.048105948
142	0xbf3e3358	-0.74297094
143	0x3de179f0	0.11009586
144	0xbf25353a	-0.6453434
145	0xbe9d3e92	-0.307118
146	0xbe291af9	-0.16514196
147	0x3ee4a647	0.4465811
148	0xbe1c2bf6	-0.15251145
149	0xbee0cd10	-0.4390645
150	0xbd8bd05f	-0.06826853
151	0xbe96192a	-0.29316074
152	0xbe47ad83	-0.19499783
153	0x3e2cee2b	0.16887729
154	0xbf01d516	-0.5071577
155	0x3e183dfb	0.14867394
156	0x3e88770c	0.26653326
157	0xbf5e5467	-0.8684754
158	0xbeaeb64f	-0.34123465
159	0xbe9f61f7	-0.3112943
160	0x3e973a5b	0.2953671
161	0xbe9a80e0	-0.3017645
162	0xbd3faba7	-0.04679456
163	0xbf4956cf	-0.78648084
164	0x3e9a867d	0.3018073
165	0xbdec0002	-0.11523439
166	0xbe44460c	-0.19167346
167	0xbf327a39	-0.69717747
168	0x3ca6f6bc	0.020381324
169	0x3e41f4a2	0.18940976
170	0x3c6ec1ed	0.014572603
171	0xbedb9003	-0.4288331
172	0xbddc05a4	-0.10743263
173	0xbd9a7d94	-0.075434834
174	0xbd5818b7	-0.052757945
175	0x3ee147bd	0.44000044
176	0xbd5d243c	-0.053989634
177	0x3e1c349b	0.15254442
178	0xbf2eddb2	-0.6830703
179	0xbf0e0188	-0.55471087
180	0xbe9861b2	-0.29762036
181	0x3b4996d8	0.0030760076
182	0xbec1a6d2	-0.37822586
183	0x3c8a07ae	0.016849365
184	0xbd8e3cdd	-0.069452025
185	0x3df0b9a6	0.1175416
186	0x3ec82624	0.390916
187	0x3e13bdba	0.14427844
188	0xbe28cc82	-0.16484264
189	0xbf32a0f8	-0.6977687
190	0x3d0ff87c	0.035149083
191	0xbdbd3884	-0.09239295
192	0x3e80913e	0.2511081
193	0xbecbdf84	-0.39818966
194	0x3dc6103b	0.096710645
195	0xbe13a432	-0.14418104
196	0x3e889043	0.26672563
197	0xb98a567a	-0.0002638584
198	0xbe3b83b0	-0.18311954
199	0xbe0c1b0a	-0.1368219
200	0x3f2078af	0.6268415
201	0xbd45b3c1	-0.04826713
202	0xbebc591f	-0.36786744
203	0xbf20d6ec	-0.62827945
204	0x3d990b52	0.07472862
205	0xbf053d49	-0.5204664
206	0xbbb6763c	-0.005568294
207	0x3dc00a2d	0.09376941
208	0xbd29b366	-0.041430853
209	0xbd45259d	-0.048131574
210	0x3e95df03	0.29271707
211	0x3e63b5aa	0.22237268
212	0x3d7a13a5	0.06105389
213	0x3e951a2a	0.29121524
214	0x3e3a6273	0.18201618
215	0xbf19635d	-0.5991724
216	0x3e14e7ca	0.14541546
217	0xbee876d9	-0.45403174
218	0x3eab867f	0.3350105
219	0xbd33024a	-0.043703355
220	0xbf214b57	-0.63005584
221	0x3bca735f	0.006178304
222	0xbe8a5979	-0.27021387
223	0x3eaf335b	0.3421887
224	0xbdf09ca0	-0.11748624
225	0xbf6251ab	-0.88405865
226	0xbe54c0b1	-0.20776631
227	0xbed354b1	-0.41275552
228	0xbe8bde96	-0.27318257
229	0x3d85b671	0.065289386
230	0x3e67eee5	0.22649725
231	0xbf3f7143	-0.747822
232	0xbe5fb123	-0.21844916
233	0xbe315b64	-0.17320019
234	0x3cec7d68	0.028868392
235	0xbea449a4	-0.32087433
236	0x3e72f1eb	0.23725097
237	0x3e82d270	0.25551176
238	0x3ce5cfa0	0.028053105
239	0x3dffbe5d	0.12487481
240	0x3d1322b9	0.035921786
241	0xbe8c6c22	-0.2742625
242	0xbe6861dc	-0.2269358
243	0xbc40dd9c	-0.011771586
244	0xbdc192f2	-0.09451856
245	0xbefc94b9	-0.49332216
246	0xbd77cdaf	-0.06049889
247	0xbd48d5aa	-0.04903189
248	0x3e23b755	0.15987904
249	0xbea5f64c	-0.32414472
250	0x3e2eb02f	0.17059396
251	0xbeec881a	-0.46197587
252	0xbecbcf72	-0.39806706
253	0x3d28d9c3	0.0412233
254	0x3dfe9777	0.124312334
255	0xbe9837d7	-0.29730102

fc2.bias f4 [10]
0	0xbdc91e56	-0.09820239
1	0xbf1476bb	-0.5799367
2	0x3eb95b3c	0.3620242
3	0x3dd76a9b	0.1051838
4	0xbe6d2959	-0.23160304
5	0xbeec7fb4	-0.4619118
6	0x3ecf7ba6	0.40524024
7	0x3e20064a	0.15627399
8	0x3d1d2b43	0.038371336
9	0xbe8893f6	-0.26675385
