HW1/model_LeNet5_weight_decay.pth (torch, 250740 bytes, 10 tensors)

conv1.weight f4 [6, 1, 5, 5]
-0.5549359 -0.9530635 -1.0542873 -0.8010428 -0.38820016 -0.26541856 -0.6275302 -0.73499143
-0.54270166 -0.20823756 0.14687867 -0.078195795 -0.12389072 0.017558735 0.21466973 0.2604669
0.10193051 0.110894665 0.2580435 0.4376666 0.18327138 0.045442227 0.080932714 0.21462871
0.3881012 0.011219826 -0.17881244 -0.28812638 -0.30767953 -0.13529149 0.013633793 -0.22723876
-0.36030695 -0.3833315 -0.18120708 0.032198843 -0.23468347 -0.38462976 -0.39805618 -0.17131953
0.0018977737 -0.28470874 -0.4461325 -0.4400736 -0.18261768 -0.0088010775 -0.28473967 -0.430272
-0.42770904 -0.20324816 -0.01977486 0.084666066 0.10835318 0.09524443 0.03774186 -0.007320625
0.09593126 0.11573992 0.10743835 0.057454508 0.013968853 0.114290036 0.13434766 0.12528911
0.075080596 0.021308405 0.11544349 0.13192663 0.12313015 0.07351383 0.0029377209 0.094554275
0.10512624 0.0930218 0.038416613 0.1532862 -0.031294264 -0.113560885 -0.079108134 0.105355926
0.12911549 -0.10889691 -0.2191425 -0.18460636 0.040475518 0.024755176 -0.26550305 -0.38817936
-0.33535615 -0.059343 -0.12675956 -0.47629058 -0.6237343 -0.5420549 -0.20196578 -0.21557796
-0.56437993 -0.7164988 -0.6379397 -0.31245542 -0.3610729 0.16157998 0.38949528 0.0069911326
-0.20093289 -0.45089442 0.14878426 0.43677694 0.038139593 -0.1858743 -0.49459404 0.13967665
0.46214122 0.06440341 -0.16805774 -0.5152543 0.122487135 0.45870563 0.08062346 -0.15336949
-0.51405823 0.10138428 0.44338912 0.1023933 -0.12365881 0.10211675 0.33679408 0.3604716
0.24553777 0.036801472 0.09901688 0.3357926 0.35561174 0.26596844 0.07286004 0.1382882
0.37787 0.39898974 0.3135556 0.13086711 0.16444391 0.39775765 0.41548628 0.3230679
0.14355992 0.13234247 0.36538005 0.37334272 0.26175714 0.07103089
00000000: 4710 0ebf f8fb 73bf e3f2 86bf 2411 4dbf
00000010: 2cc2 c6be f1e4 87be d2a5 20bf 6628 3cbf
00000020: 7fee 0abf 3a3c 55be 5d67 163e 1e25 a0bd
00000030: 6bba fdbd 56d7 8f3c 62d2 5b3e eb5b 853e
00000040: f1c0 d03d be1c e33d 471e 843e d615 e03e
00000050: 7eab 3b3e a121 3a3d 0dc0 a53d a1c7 5b3e
00000060: 33b5 c63e 5cd3 373c 9c1a 37be 4d85 93be
00000070: 2c88 9dbe da89 0abe 4660 5f3c 47b1 68be
00000080: 277a b8be 0744 c4be 598e 39be efe2 033d
00000090: dd50 70be 31ee c4be 05ce cbbe 636e 2fbe
000000a0: b8be f83a 58c5 91be 7b6b e4be 5451 e1be
000000b0: 2100 3bbe 6532 10bc 66c9 91be 9d4c dcbe
000000c0: aefc dabe 4920 50be e3fe a1bc 6765 ad3d
000000d0: 46e8 dd3d 830f c33d 3597 1a3d dae1 efbb
000000e0: 9c77 c43d 0d09 ed3d a308 dc3d 6b55 6b3d
000000f0: 9edd 643c e510 ea3d 6f92 093e ca4b 003e
00000100: dbc3 993d f78e ae3c a36d ec3d c617 073e
00000110: a92b fc3d 6b8e 963d c786 403b aca5 c13d
00000120: 6d4c d73d 3782 be3d bd5a 1d3d 0ff7 1c3e
00000130: 6a2e 00bd 9c92 e8bd 7203 a2bd d9c4 d73d
00000140: da36 043e 5805 dfbd e466 60be 7309 3dbe
00000150: a8c9 253d 5ecb ca3c 04f0 87be 72bf c6be
00000160: cdb3 abbe a511 73bd 42cd 01be 5cdc f3be
00000170: 0dad 1fbf 1cc4 0abf 1ed0 4ebe 78c0 5cbe
00000180: 347b 10bf 776c 37bf 0450 23bf 28fa 9fbe
00000190: 8cde b8be 3975 253e ed6b c73e df15 e53b
000001a0: 5ac1 4dbe a2db e6be e75a 183e 3aa1 df3e
000001b0: 4338 1c3d d555 3ebe 6e3b fdbe 6507 0f3e
000001c0: c69d ec3e efe5 833d 5417 2cbe b5e7 03bf
000001d0: 89da fa3d 77db ea3e ea1d a53d e40c 1dbe
000001e0: 5299 03bf 90a2 cf3d e603 e33e 94b3 d13d
000001f0: d540 fdbd 9622 d13d 4670 ac3e bc8f b83e
00000200: 416e 7b3e 24bd 163d 5dc9 ca3d 02ed ab3e
00000210: be12 b63e 042d 883e a537 953d 6c9b 0d3e
00000220: 2d78 c13e 6248 cc3e 5c8a a03e 0702 063e
00000230: fc63 283e e4a6 cb3e 9eba d43e 2869 a53e
00000240: 5f01 133e c984 073e 1813 bb3e c726 bf3e
00000250: 0805 863e a578 913d

conv1.bias f4 [6]
0.17798933 -0.06435983 -0.11340109 0.049797285 0.008134979 -0.06863804
00000000: d642 363e 16cf 83bd d53e e8bd 3df8 4b3d
00000010: 9348 053c 1a92 8cbd

conv2.weight f4 [16, 6, 5, 5]
0.08455787 0.2054072 0.19566531 -0.0121899005 -0.24884495 0.013923157 -0.015215066 -0.011031196
0.007104384 -0.13981357 -0.11168461 -0.067814104 -0.00460434 0.111100316 0.04320331 -0.13641809
-0.19203298 -0.13609557 0.13037653 0.19820932 -0.035788693 -0.09152421 -0.120756626 0.04202177
0.08787209 0.021923294 0.07066268 0.112813056 0.036767334 -0.1859617 -0.100260794 -0.046443246
0.06853107 0.15987381 -0.016116621 -0.1391276 -0.12341171 -0.001940367 0.2175382 0.13333133
-0.062736355 -0.07187694 8.8544766e-08 0.1698893 0.11692269 -0.0024101739 -0.0055179987 0.039453674
0.14068706 0.052023485 -0.015848849 -0.025173169 -0.032999292 -0.007006391 0.0134394625 -0.00559335
-0.0028814878 -0.011051572 0.0024446005 0.0070509785 -0.00048953027 0.0036746871 -0.00734321 -0.00039558695
0.0006294817 -0.0022909606 0.006775787 -0.0037725042 -0.0023284955 -0.0022290926 0.012154549 0.017278483
0.0019684164 0.00045552143 -0.008261227 -0.03470956 0.024290185 0.104119614 0.086993106 -0.13434927
-0.14837202 -0.10229779 0.026145564 0.1881566 0.060534935 -0.13211948 -0.13957576 -0.048142247
0.20360067 0.18273202 -0.0331566 -0.037431836 -0.014182997 0.14188091 0.101010375 -0.023322253
-0.008128792 0.019608663 0.13629666 0.05993196 -0.016829586 -0.029988667 -0.02817615 -0.004056614
0.014711691 0.0074655083 -0.019497573 -0.013803541 -0.018916678 -0.027796457 0.0018044472 -0.01273274
0.0021414957 -0.0077192998 -0.027482124 -0.032582138 -0.01610659 0.0062355674 0.009572403 -0.0074047484
-0.05154996 -0.038536217 -0.020662023 0.011408053 0.0007338395 -0.07607619 -0.09469222 -0.11668835
-0.022608401 0.060933985 -0.048134897 -0.030751685 -0.048119348 -0.0017864369 0.024289964 -0.0564609
-0.023205295 -0.054636553 -0.028715082 -0.008958276 -0.07567234 -0.011749318 -0.03614208 -0.026718339
-0.0264416 -0.030142996 0.035485215 0.0070577385 -0.00030891818 -0.02639738 -1.1866866e-12 -7.5960744e-13
-4.6201893e-13 -8.7883016e-13 -1.2907291e-12 -5.0926255e-13 -4.939571e-13 -5.0552016e-13 -1.1058276e-12 -1.4289484e-12
-3.6192447e-13 -4.1295957e-13 -5.2043884e-13 -1.197284e-12 -1.6213424e-12 -4.596617e-13 -5.260258e-13 -6.72474e-13
-1.3978812e-12 -1.8654358e-12 -6.0523114e-13 -7.1009745e-13 -9.169805e-13 -1.6444079e-12 -2.0622187e-12 -1.0976025e-12
-7.4591873e-13 -9.288577e-13 -1.6619551e-12 -2.058786e-12 -8.158598e-13 -5.9962696e-13 -9.581411e-13 -1.8122248e-12
-2.075984e-12 -8.0537096e-13 -6.4332415e-13 -1.1032681e-12 -2.0222131e-12 -2.3425376e-12 -8.6774267e-13 -7.9586126e-13
-1.3356412e-12 -2.2347141e-12 -2.6103418e-12 -8.7242984e-13 -9.124127e-13 -1.4862609e-12 -2.3249436e-12 -2.7161077e-12
3.6133728e-14 2.5145172e-13 3.175952e-13 2.623478e-13 9.668574e-14 1.8847955e-13 3.2402908e-13 3.4330684e-13
3.3800648e-13 1.9869162e-13 2.4982037e-13 3.3325545e-13 3.3013154e-13 3.5128378e-13 2.459581e-13 2.5930462e-13
3.1732028e-13 3.127862e-13 3.3702026e-13 2.5377365e-13 2.345738e-13 2.9444342e-13 3.0851894e-13 3.230448e-13
2.3813837e-13 -1.0885678e-12 -7.391334e-13 -8.2284196e-13 -1.5802209e-12 -1.949642e-12 -9.431573e-13 -6.8503493e-13
-9.051135e-13 -1.7539433e-12 -2.1405427e-12 -9.383441e-13 -7.5882345e-13 -1.11072e-12 -1.9960147e-12 -2.4426845e-12
-9.656823e-13 -8.68847e-13 -1.2866702e-12 -2.145103e-12 -2.6283324e-12 -9.465542e-13 -9.41118e-13 -1.3139428e-12
-2.1178035e-12 -2.5799397e-12 -2.6646147e-13 -2.7614315e-13 -4.1116828e-13 -3.9622957e-13 -1.0676891e-13 -1.3261423e-13
00000000: ad2c ad3d 4456 523e 7d5c 483e 26b8 47bc
00000010: 36d1 7ebe f41d 643c 9d48 79bc 31bc 34bc
00000020: e4cb e83b 4a2b 0fbe e7ba e4bd 1fe2 8abd
00000030: 01e0 96bb 9088 e33d f4f5 303d 2fb1 0bbe
00000040: 4ba4 44be a35c 0bbe 6d81 053e 62f7 4a3e
00000050: 2a97 12bd 0c71 bbbd 404f f7bd 051f 2c3d
00000060: 48f6 b33d 7b98 b33c 98b7 903d 880a e73d
00000070: 5899 163d be6c 3ebe 8855 cdbd 463b 3ebd
00000080: 055a 8c3d f6b5 233e 0107 84bc 7777 0ebe
00000090: 47bf fcbd ea53 feba 55c2 5e3e 0288 083e
000000a0: eb7b 80bd 3834 93bd 0026 be33 76f7 2d3e
000000b0: 2a75 ef3d 02f4 1dbb 54d0 b4bb 2d9a 213d
000000c0: 4510 103e 9416 553d 72d5 81bc f637 cebc
000000d0: 442a 07bd de95 e5bb 3131 5c3c 6c48 b7bb
000000e0: 58d7 3cbb a711 35bc 9735 203b e50b e73b
000000f0: d253 00ba 05d3 703b 4f9f f0bb c866 cfb9
00000100: cd03 253a f123 16bb 6c07 de3b 1e3c 77bb
00000110: ac99 18bb f815 12bb e023 473c 9b8b 8d3c
00000120: 8c00 013b 0dd3 ee39 195a 07bc 9d2b 0ebd
00000130: 36fc c63c aa3c d53d 7129 b23d db92 09be
00000140: d6ee 17be 8181 d1bd 392f d63c 20ac 403e
00000150: 7bf3 773d 544a 07be f3ec 0ebe ce30 45bd
00000160: b27c 503e 1a1e 3b3e 37cf 07bd 2052 19bd
00000170: cd5f 68bc 3b49 113e 87de ce3d 4f0e bfbc
00000180: a02e 05bc 59a2 a03c 5a91 0b3e 377b 753d
00000190: 33de 89bc cbaa f5bc abd1 e6bc 58ed 84bb
000001a0: 4e09 713c 39a1 f43b 60b9 9fbc 3f28 62bc
000001b0: 26f7 9abc 65b5 e3bc 3383 ec3a fb9c 50bc
000001c0: 5658 0c3b 2ef2 fcbb 3122 e1bc d974 05bd
000001d0: f8f1 83bc bb53 cc3b 91d5 1c3c 88a3 f2bb
000001e0: 0d26 53bd 27d8 1dbd 6743 a9bc d8e8 3a3c
000001f0: 235f 403a d5cd 9bbd ffed c1bd 4dfa eebd
00000200: 4135 b9bc ea95 793d 1929 45bd f5ea fbbc
00000210: cb18 45bd e026 eaba bffb c63c 8b43 67bd
00000220: 0819 bebc 94ca 5fbd e43b ebbc bcc5 12bc
00000230: 1afa 9abd 3680 40bc b809 14bd 6be0 dabc
00000240: 0e9c d8bc 72ee f6bc f258 113d 9a44 e73b
00000250: 4cf6 a1b9 513f d8bc e402 a7ab 7ccf 55ab
00000260: f90b 02ab 635e 77ab 6ba7 b5ab 3c58 0fab
00000270: 5c09 0bab 914a 0eab a3a1 9bab 4b1b c9ab
00000280: d0be cbaa bf79 e8aa 927d 12ab b480 a8ab
00000290: 042f e4ab 1e62 01ab 2710 14ab dc48 3dab
000002a0: fabb c4ab b444 03ac 805b 2aab eadf 47ab
000002b0: b40d 81ab 0a6e e7ab a11d 11ac 4c79 9aab
000002c0: 1cf5 51ab a0b9 82ab 3ee6 e9ab cbdf 10ac
000002d0: e5a4 65ab adc7 28ab acd8 86ab 480c ffab
000002e0: 9a15 12ac 18b1 62ab 6414 35ab 6c45 9bab
000002f0: f44c 0eac 68d7 24ac 733f 74ab d903 60ab
00000300: 8cf9 bbab 0841 1dac bdaf 37ac 3291 75ab
00000310: 2269 80ab 312c d1ab 769a 23ac 0c21 3fac
00000320: 5abb 2229 038e 8d2a 4bca b22a 4db0 932a
00000330: 89b7 d929 8835 542a 8369 b62a bb43 c12a
00000340: de47 be2a f6b4 5f2a e9a2 8c2a 2c9b bb2a
00000350: f8d8 b92a 54c1 c52a 4c76 8a2a bcf9 912a
00000360: aca2 b22a 3e15 b02a bdb9 bd2a a3dc 8e2a
00000370: a60d 842a c5c1 a52a 44ae ad2a a9db b52a
00000380: 5b0f 862a ca33 99ab 2d0c 50ab 039c 67ab
00000390: 7565 deab a131 09ac d3bc 84ab f8d1 40ab
000003a0: 4dc4 7eab 78d8 f6ab 97a0 16ac 690f 84ab
000003b0: fe96 55ab e851 9cab 0175 0cac 7ee3 2bac
000003c0: 5fe8 87ab 068f 74ab 2e15 b5ab bef2 16ac
000003d0: d4f3 38ac 3637 85ab 5973 84ab c7eb b8ab
000003e0: f506 15ac 108c 35ac 2501 96aa 6c74 9baa
000003f0: 9877 e7aa b30e dfaa 166c f0a9 734f 15aa

conv2.bias f4 [16]
-0.10029352 -3.3133945e-13 0.02767371 -7.818123e-15 0.0365754 6.863966e-38 -4.823977e-21 0.10839581
-1.7801186e-07 -0.029107539 0.0010070937 0.020539343 0.016698241 0.0368561 0.038972028 0.03935405
00000000: b066 cdbd 0c87 baaa fab3 e23c bbd6 0ca8
00000010: 16d0 153d ddda ba01 a53e b69d 9ffe dd3d
00000020: 8723 3fb4 ef72 eebc 7500 843a 2042 a83c
00000030: c0ca 883c 6cf6 163d 22a1 1f3d b631 213d

conv3.weight f4 [120, 16, 5, 5]
-0.048536744 0.06709842 0.03256329 -0.08276281 0.018282583 -0.05594889 0.010392677 0.0061431057
-0.017546084 0.083910234 -0.048658304 0.01741064 0.0331209 0.035711564 0.10851591 -0.0123984795
0.019920958 0.04362972 0.009457222 0.085029416 0.049151022 0.022327403 0.035158675 -0.02982769
0.049984463 -2.8474933e-13 -2.862499e-14 1.9220899e-14 9.2788265e-14 -1.4748443e-12 -2.7983963e-13 -6.9586505e-15
-2.5191895e-14 5.1888215e-14 -1.5312303e-12 -2.3906793e-13 2.1879678e-13 -2.900962e-15 -1.6958615e-13 -9.820142e-13
-2.0401581e-13 -5.190987e-14 -1.8141645e-13 -4.552007e-13 -7.760269e-13 -2.4405914e-13 1.0506819e-16 -8.312785e-14
-3.9079048e-13 -1.0067468e-12 -0.079270706 0.2085307 0.03219057 -0.13330223 0.0022145964 -0.079962045
-0.0341531 -0.07589593 -0.076262146 0.056135077 -0.014203919 -0.0020447578 0.02331194 -0.0942575
0.032527283 -0.027450474 0.049286924 0.04502842 -0.010370996 -0.08166623 0.20758572 0.041618552
-0.05822605 0.09306566 -0.06648419 -1.4304413e-15 -1.04802923e-16 9.542228e-16 1.1850465e-15 1.7063557e-15
-1.0739656e-15 1.3884493e-16 5.9117225e-16 3.046302e-16 1.1897044e-15 -1.2463402e-15 2.4555946e-16 5.1020685e-16
2.761742e-16 9.435122e-16 -1.3384178e-15 4.068313e-16 4.2531719e-16 1.0077501e-15 1.4244797e-15 -1.2118055e-15
4.4588873e-16 9.669518e-16 3.0661627e-15 2.0983155e-15 0.019863183 0.005609634 0.08445055 -0.08900715
0.021036386 -0.008684745 0.047485474 -0.011094956 -0.042168856 0.03233092 0.010520565 0.10913941
0.035674486 -0.019078542 0.024925638 0.005943972 0.044134315 0.021219583 -0.026631568 7.130371e-05
-0.03982244 -0.08266374 -0.008718677 0.0022871497 -0.03992159 5.5254025e-27 4.20821e-40 1.5661e-40
-5.29339e-40 2.23443e-28 8.364995e-29 5.36204e-40 1.0163e-40 -4.29742e-40 2.3262482e-30 2.5064604e-29
7.90049e-40 -6.4458e-41 8.524e-42 1.1650657e-30 3.064061e-29 7.00459e-40 -1.44896e-40 -2.46997e-40
2.2202308e-30 3.6022082e-29 4.99903e-40 5.6231e-41 1.81732e-40 4.957716e-30 -7.314307e-25 4.87945e-24
3.2439234e-24 1.5548029e-23 5.469841e-22 -6.1507066e-26 -5.4817834e-24 1.6244994e-23 5.9214424e-23 8.656281e-22
2.7663654e-24 4.3881786e-23 -8.1773296e-23 1.0852921e-23 3.069215e-22 -3.2276167e-24 9.044298e-24 1.9782355e-22
7.0495655e-22 -5.0636277e-22 -2.034421e-25 -2.2847472e-22 7.7482726e-23 2.3597587e-21 3.1074279e-22 0.039783657
-0.03635771 -0.0695905 0.32848033 0.013559223 0.0024337738 -0.003592965 0.011066263 0.028311338
-0.046614766 -0.11582264 0.009455043 -0.0030900214 -0.05267966 0.007787634 -0.014571985 -0.039745156
-0.07808031 -0.08178627 -0.035227045 -0.06248704 -0.0044986843 -0.04095841 -0.06255917 -0.107232
-1.29201245e-08 -2.280985e-07 -3.093504e-07 -2.4741422e-07 -1.1636732e-08 -1.886417e-08 -2.9826413e-07 -1.8670612e-07
-3.254459e-07 -2.1436318e-08 -2.04319e-08 -3.311083e-07 -1.9617978e-07 -3.5800633e-07 -2.7973833e-08 -2.4381938e-08
-3.4515685e-07 -2.9445746e-07 -3.7472756e-07 -3.569615e-08 -2.2775616e-08 -2.5679248e-07 -3.8880546e-07 -3.1233947e-07
-3.2297848e-08 0.007072202 -0.2060014 0.0915818 -0.038540244 0.082421504 0.033385146 -0.097017154
-0.082830705 0.020362621 0.07573325 0.009580714 -0.020337561 -0.062114984 0.011556747 0.015422659
-0.035325076 0.012504337 0.0067061884 0.016861768 -0.03953963 0.012659894 0.019734327 -0.012655985
-0.052471984 -0.012467751 0.012619352 0.08793194 0.04640722 -0.108892016 0.09227802 0.00823102
00000000: 77ce 46bd e56a 893d 1661 053d 8c7f a9bd
00000010: 5bc5 953c aa2a 65bd 0c46 2a3c 1b4c c93b
00000020: cebc 8fbc 21d9 ab3d ee4d 47bd c2a0 8e3c
00000030: c8a9 073d 4a46 123d 973d de3d fe22 4bbc
00000040: 4731 a33c 14b5 323d 77f2 1a3c e723 ae3d
00000050: 9552 493d f5e7 b63c 8b02 103d 3359 f4bc
00000060: 82bc 4c3d b44c a0aa 5eea 00a9 6020 ad28
00000070: cbf0 d029 de90 cfab 2489 9daa 39b6 faa7
00000080: 8ee8 e2a8 0aaf 6929 6380 d7ab 5295 86aa
00000090: e157 762a 4e09 51a7 e1ef 3eaa ca34 8aab
000000a0: 8eb3 65aa 01c8 69a9 bb41 4caa ab20 00ab
000000b0: a26e 5aab a164 89aa 5045 f224 f12f bba9
000000c0: d8fe dbaa e0af 8dab ae58 a2bd 1289 553e
000000d0: 42da 033d 6180 08be c322 113b 24c3 a3bd
000000e0: 1fe4 0bbd 536f 9bbd 542f 9cbd e5ed 653d
000000f0: 8eb7 68bc 5801 06bb aef8 be3c 130a c1bd
00000100: 543b 053d d1df e0bc 16e1 493d b86f 383d
00000110: 1ceb 29bc a040 a7bd 5a91 543e 3778 2a3d
00000120: 707e 6ebd 3599 be3d dd28 88bd f825 cea6
00000130: baa8 f1a4 9c84 8926 80c8 aa26 6ae9 f526
00000140: 56c6 9aa6 ca13 2025 d064 2a26 7c9b af25
00000150: 5874 ab26 d69d b3a6 2e8e 8d25 9f0e 1326
00000160: 1e34 9f25 75f9 8726 e7e2 c0a6 b485 ea25
00000170: bd2d f525 6b3b 9126 064a cd26 bba3 aea6
00000180: c884 0026 3a5a 8b26 b8f0 5c27 1733 1727
00000190: 1db8 a23c 05d1 b73b 69f4 ac3d 6149 b6bd
000001a0: 8054 ac3c 764a 0ebc 2180 423d 9ec7 35bc
000001b0: 40b9 2cbd 6d6d 043d 735e 2c3c 7c84 df3d
000001c0: 691f 123d 9a4a 9cbc da30 cc3c a7c5 c23b
000001d0: 2fc6 343d b1d4 ad3c 722a dabc e388 9538
000001e0: db1c 23bd 9b4b a9bd c8d8 0ebc 01e4 153b
000001f0: d284 23bd 3de2 da13 1495 0400 91b4 0100
00000200: 95c3 0580 b39f 8d11 ec13 d410 b8d6 0500
00000210: 4e1b 0100 f2ad 0480 49ba 3c0e 6f2f fe0f
00000220: 569a 0800 afb3 0080 c317 0000 f00a bd0d
00000230: c95d 1b10 98a0 0700 e993 0180 87b0 0280
00000240: 6420 340e 56a7 3610 8771 0500 c09c 0000
00000250: 98fa 0100 de1b c90e e95d 6297 bbc3 bc18
00000260: 86fc 7a18 0e5f 9619 d850 251c bc48 9895
00000270: f410 d498 a81c 9d19 f42b 8f1a 5dcf 821c
00000280: 8309 5618 0533 541a 38b7 c59a 10ed 5119
00000290: cd85 b91b 89b9 7998 32f1 2e19 6c27 6f1b
000002a0: 5f0f 551c ec09 199c 60d9 7b96 c01a 8a9b
000002b0: 7c57 bb1a 5f4c 321d 1ed5 bb1b 30f4 223d
000002c0: d2eb 14bd 7785 8ebd 932e a83e 8127 5e3c
000002d0: f37f 1f3b f377 6bbb 454f 353c 2eed e73c
000002e0: 20ef 3ebd 6c34 edbd 53e9 1a3c f581 4abb
000002f0: a1c6 57bd 692f ff3b 56bf 6ebc d1cb 22bd
00000300: 92e8 9fbd 8f7f a7bd 3c4a 10bd 69f2 7fbd
00000310: b369 93bb 01c4 27bd 061f 80bd 739c dbbd
00000320: 4ff7 5db2 3deb 74b4 cc14 a6b4 5ad4 84b4
00000330: e3ea 47b2 c00a a2b2 1c21 a0b4 6379 48b4
00000340: f2b8 aeb4 f622 b8b2 3982 afb2 2ec3 b1b4
00000350: 7da5 52b4 0434 c0b4 1c4b f0b2 7370 d1b2
00000360: ff4d b9b4 ed15 9eb4 2a2e c9b4 5550 19b3
00000370: 1ca4 c3b2 4add 89b4 04bd d0b4 9caf a7b4
00000380: dcb7 0ab3 eebd e73b 08f2 52be 3d8f bb3d
00000390: 60dc 1dbd 9bcc a83d ddbe 083d eeb0 c6bd
000003a0: 25a3 a9bd 83cf a63c 091a 9b3d 6df8 1c3c
000003b0: f59a a6bc 486c 7ebd 8358 3d3c 52af 7c3c
000003c0: 07b1 10bd fede 4c3c 96bf db3b b121 8a3c
000003d0: 4ff4 21bd 726b 4f3c e2a9 a13c 0c5b 4fbc
000003e0: ddec 56bd 8a45 4cbc 66c1 4e3c a915 b43d
000003f0: 7f15 3e3d c702 dfbd 42fc bc3d 66db 063c

conv3.bias f4 [120]
0.0020247353 -2.360287e-39 0.030095628 -3.8439666e-06 -7.2720974e-10 -1.43001e-39 -1.2644936e-08 -0.00025750656
0.00011354931 -1.3813977e-06 0.0056991163 0.0032754499 -8.225696e-06 5.781756e-39 -2.8074952e-05 -3.5931113e-05
-6.503216e-39 -2.72705e-31 -1.995716e-12 -0.0062684827 6.2101865e-31 -2.668963e-25 -2.071063e-39 -1.9689207e-21
-1.6147075e-11 -0.0017929793 0.0029459707 0.00046606848 -8.223999e-20 9.9781e-41 -0.031615984 -1.129856e-39
-0.002090077 -4.675341e-39 -2.279028e-39 1.5471409e-06 -1.6792794e-10 -3.124356e-39 -2.7586393e-09 -7.953633e-26
1.8262931e-26 3.1364946e-32 0.03942366 -1.4849445e-37 0.015378658 0.04870178 1.4957394e-35 -9.577118e-16
-8.943653e-07 -7.5114813e-06 -1.5138922e-06 -1.4077831e-12 -4.2884323e-05 -1.868411e-39 3.087002e-39 -0.00536028
-5.692945e-18 0.007468143 0.010095041 1.677068e-39 -0.00016265157 4.0783493e-13 -3.412974e-05 -0.003285353
-0.000610611 0.014962796 1.216601e-29 -6.05826e-39 -4.656252e-07 -0.018918315 6.467655e-39 2.667135e-39
-4.9395967e-06 3.482022e-23 -1.3204179e-07 -3.2568e-39 -2.6958686e-28 0.0048981365 2.1713608e-25 2.8143808e-30
-0.002700491 2.2603898e-32 -0.0020800948 4.173724e-39 3.266019e-39 -7.499606e-05 1.1762822e-15 -2.923563e-05
6.0545416e-13 -8.95962e-40 1.4849094e-24 0.0011499199 1.397172e-39 -6.657024e-08 8.6814865e-13 2.027431e-39
-6.908421e-39 -6.5212696e-17 6.8804606e-10 0.052693754 -0.0104492875 1.5020032e-26 0.045440257 -1.6666197e-14
-2.52476e-13 -1.95707e-05 -0.00015534477 1.9144284e-06 -0.02030462 1.611804e-30 -1.1316593e-11 0.022737663
-0.00013016292 -3.3017157e-05 -1.3350629e-30 9.792293e-09 -2.6465018e-21 -1.9355105e-07 0.032475226 -4.248123e-39
00000000: 6cb1 043b 85b3 1980 1b8b f63c 6cfb 80b6
00000010: d6e4 47b0 4992 0f80 043d 59b2 f201 87b9
00000020: 5221 ee38 7768 b9b5 a7bf ba3b eea8 563b
00000030: 1801 0ab7 2ff5 3e00 8082 ebb7 bdb4 16b8
00000040: 52d0 4680 e4fe b08c a06f 0cac d867 cdbb
00000050: 3688 490d 6833 a596 488d 1680 77c4 149d
00000060: fb07 8ead 6702 ebba 3011 413b a75a f439
00000070: 062f c29f 2616 0100 c37f 01bd 944d 0c80
00000080: acf9 08bb f3e8 3280 01d1 1880 5ba7 cf35
00000090: 83a3 38af 6f05 2280 7f92 3db1 23ec c495
000000a0: 08de b414 2adb 220b b47a 213d c41e 4a82
000000b0: c4f6 7b3c 857b 473d e60d 9f05 5405 8aa6
000000c0: 5114 70b5 220b fcb6 f130 cbb5 bb20 c6ab
000000d0: b1de 33b8 5f58 1480 4e9d 2100 4aa5 afbb
000000e0: 5808 d2a2 53b7 f43b ac65 253c fc42 1200
000000f0: 738d 2ab9 3597 e52a 8726 0fb8 144f 57bb
00000100: 6911 20ba 8426 753c 89c1 760f f7f7 4180
00000110: 0afb f9b4 95fa 9abc 316d 4600 e30a 1d00
00000120: d0be a5b6 5861 281a 5fc7 0db4 a276 2380
00000130: f8de aa91 8c80 a03b 9666 8616 6754 640e
00000140: b9fa 30bb 78bb ea0a 3352 08bb a572 2d00
00000150: 5590 2300 3447 9db8 2785 a926 0a3f f5b7
00000160: 926b 2a2b 94c1 0980 52c7 e517 e9b8 963a
00000170: bf36 0f00 60f5 8eb3 b45c 742b a713 1600
00000180: de39 4b80 c85e 96a4 f020 3d30 68d5 573d
00000190: 7d33 2bbc 4ec0 9414 901f 3a3d a21d 96a8
000001a0: a021 8eaa c22b a4b7 0be4 22b9 a179 0036
000001b0: e055 a6bc dcc3 020e 6715 47ad 5644 ba3c
000001c0: 587c 08b9 e77b 0ab8 58a0 d88d f63a 2832
000001d0: caf6 479d e8d2 4fb4 be04 053d 0a42 2e80

fc1.weight f4 [84, 120]
0.04750743 4.3328194e-16 -0.023875663 0.0013627955 5.1810134e-09 2.9037495e-12 0.0002923317 0.00057078316
0.00048002982 0.00013991531 0.033711545 0.18276607 -0.0022350354 -1.0275604e-06 0.00079273817 0.0024820722
-2.1274755e-11 -5.4895786e-09 -0.00031321627 -0.3250574 1.0377282e-05 -5.4787757e-09 -3.7852954e-24 0.0002458218
-5.111432e-06 0.0019236539 0.10429378 -0.012971292 9.216258e-21 6.229713e-05 -0.21035269 -9.826536e-11
0.008370396 -6.623048e-16 5.4415345e-24 0.0011543527 0.00059864606 2.9298405e-14 -0.0009935164 -6.171714e-05
2.7726497e-09 4.1452313e-31 -0.084341146 5.563528e-17 0.27994248 -0.07251815 3.895878e-18 9.039546e-05
0.002207736 -0.0014595762 -0.0001328493 -0.00015734872 0.00021801317 7.2766847e-22 6.774735e-08 -0.1202646
0.00039851075 0.0061012325 -0.004575748 2.33763e-40 0.0010970057 1.2596635e-12 0.003850905 -0.0017032032
0.0032299762 0.20169477 3.1069744e-19 1.108486e-39 0.00079093996 0.2617325 -3.841753e-05 8.033028e-13
-2.9653306e-06 2.4207614e-09 1.1521096e-06 -8.63146e-12 -2.7336573e-30 -0.027016422 -5.9675442e-09 -3.6728517e-05
0.038317226 2.837379e-06 0.060046963 0.00026357456 -1.8885914e-13 0.0013284968 1.3157097e-05 0.0033218556
-4.8945285e-11 -4.2257078e-08 9.231061e-25 0.0018147967 -2.5157091e-05 -5.0095156e-07 -1.6501623e-05 2.404033e-06
2.644006e-09 -1.05822555e-05 4.5212852e-07 0.19095021 0.11794478 -8.7203644e-13 0.13770284 -1.8158835e-14
0.0006820188 0.0015913149 -0.0005271325 -0.00071946176 -0.00637278 1.2076899e-30 -1.0629527e-05 0.26514938
0.102754325 0.0011874567 -9.66717e-06 2.2821961e-05 4.8293045e-22 -0.0003072414 -0.22151183 2.7478407e-07
-0.015792323 -1.0163707e-18 0.2560079 -0.0014334094 -5.596451e-09 7.254054e-12 -9.95336e-05 0.002297704
0.00089932856 -4.6071244e-05 0.008940357 0.2200438 -0.000394126 1.444619e-16 -0.00019502275 0.0013019887
-1.7135548e-19 3.4929229e-22 0.00020016602 0.18011196 -1.5882272e-13 9.312242e-16 -7.6580053e-16 0.00023053231
2.2888942e-07 -0.0022087507 0.017710434 0.0060924497 -2.523408e-19 -4.7110248e-06 -0.13900112 -1.6051649e-14
-0.04421601 1.382802e-10 7.811141e-20 -0.0013425996 0.00047814992 4.3124588e-17 -0.0006731083 1.9847012e-05
4.383088e-08 -1.1652692e-31 0.06316133 2.4438943e-19 -0.20815033 0.031206528 3.0330582e-17 -0.00035438273
0.00035306154 -8.913318e-05 0.00022855125 0.00010211826 -0.0008257139 2.9470077e-18 -4.2680035e-10 0.005671783
-0.00018096277 0.03971164 0.18609898 1.683596e-39 -0.0012200829 4.0498282e-08 -0.0005463424 -0.0012355868
0.0018427665 0.2617126 -1.6867853e-21 2.30849e-39 -1.3211758e-06 -0.19598475 1.2012704e-05 3.2915253e-24
6.6846457e-07 7.247212e-11 1.1349706e-06 -1.722956e-15 -8.880507e-32 0.10502735 -8.853035e-15 -5.2813986e-05
0.070550635 2.4816143e-07 -0.035506003 -0.00011383459 5.366066e-12 0.00023475979 -4.211282e-07 0.00065360905
5.7719794e-11 7.293578e-18 -1.72897e-25 -0.076183096 7.197551e-07 4.0374752e-07 4.2156902e-08 -3.2601898e-07
-4.7475144e-12 2.80475e-09 4.9625934e-09 -0.19604628 -0.033835765 4.389877e-16 0.014855599 2.4592099e-14
-0.00024992062 -0.0022313115 0.005744275 0.0005348211 0.05215496 6.0432605e-30 0.00017989182 0.030784339
-0.04463088 -3.111239e-06 2.5031447e-06 -8.2410804e-07 4.2737894e-16 -8.198303e-06 0.16580033 -1.0541482e-08
-0.040755067 6.243501e-39 0.050364368 -0.0001587192 2.5556257e-09 -6.973904e-39 1.5126888e-06 -0.00036288172
-3.7796271e-06 1.6044158e-08 -0.002002413 -0.003398656 7.737039e-06 1.93558e-39 2.2323618e-05 -0.0010523
00000000: 2797 423d 21c5 f925 e596 c3bc d49f b23a
00000010: ad04 b231 4d55 4c2c 1944 9939 9ca0 153a
00000020: 83ac fb39 3bb6 1239 1e15 0a3d 0727 3b3e
00000030: ac79 12bb b5ea 89b5 c2cf 4f3a 43aa 223b
00000040: 7d22 bbad d89e bcb1 2d37 a4b9 ec6d a6be
00000050: 161a 2e37 d23f bcb1 c06f 9298 a5e1 8039
00000060: de82 abb6 1d23 fc3a fa97 d53d 8b85 54bc
00000070: 1717 2e1e 84a5 8238 b266 57be 7b16 d8ae
00000080: fc23 093c 78e5 3ea6 5982 d218 a64d 973a
00000090: 75ee 1c3a c3f2 0329 e138 82ba 236e 81b8
000000a0: f888 3e31 3c85 060d 0dbb acbd 4649 8024
000000b0: 9f54 8f3e 6584 94bd 87bb 8f22 b192 bd38
000000c0: aaaf 103b 404f bfba 764d 0bb9 fafd 24b9
000000d0: 779a 6439 9fec 5b1c 807c 9133 494d f6bd
000000e0: 35ef d039 d9ec c73b 28f0 95bb a38b 0200
000000f0: 67c9 8f3a 2948 b12b 775f 7c3b 043e dfba
00000100: 02ae 533b 1389 4e3e 4567 b720 0212 0c00
00000110: 1557 4f3a cd01 863e 8222 21b8 111c 622b
00000120: feff 46b6 7c5a 2631 2fa2 9a35 a4d8 17ad
00000130: d7c7 5d8e 8b51 ddbc 130b cdb1 f20c 1ab8
00000140: 86f2 1c3d cd69 3e36 cef3 753d 6130 8a39
00000150: f1a2 54aa f520 ae3a 4dbd 5c37 7db3 593b
00000160: 7e43 57ae 267e 35b3 00d8 8e17 79de ed3a
00000170: 7108 d3b7 2179 06b5 f76c 8ab7 f954 2136
00000180: d8b1 3531 718a 31b7 12bc f234 7488 433e
00000190: 088d f13d d974 75ab f901 0d3e 6c8f a3a8
000001a0: 82c9 323a ab93 d03a 432f 0aba 439a 3cba
000001b0: c1d2 d0bb 7af5 c30d 7955 32b7 a9c1 873e
000001c0: dc70 d23d 6fa4 9b3a 2e30 22b7 ca71 bf37
000001d0: eff4 111c 3e15 a1b9 ffd3 62be 0986 9334
000001e0: e75e 81bc 66fd 95a1 7813 833e 3de1 bbba
000001f0: e74a c0b1 b63a ff2c b2bc d0b8 1495 163b
00000200: ebc0 6b3a 9f3c 41b8 937a 123c 2953 613e
00000210: b2a2 ceb9 a18d 2625 057f 4cb9 7ea7 aa3a
00000220: 044d 4aa0 5d22 d31b a8e3 5139 456f 383e
00000230: 88d1 32aa 1c34 8626 1bba 5ca6 0cbb 7139
00000240: a5c4 7534 b0c0 10bb 7915 913c 2ca3 c73b
00000250: aaf4 94a0 6513 9eb6 4f56 0ebe 9594 90a8
00000260: d91b 35bd 6b0a 182f 736f b81f 2bfa afba
00000270: 32b0 fa39 87e0 4624 8973 30ba 227d a637
00000280: 9040 3c33 b642 178c ba5a 813d 1643 9020
00000290: 5c25 55be d5a4 ff3c 08e0 0b24 72cc b9b9
000002a0: 1e1b b939 03ed bab8 42a7 6f39 5328 d638
000002b0: b974 58ba 6773 5922 cfa2 eaaf 5dda b93b
000002c0: d3c0 3db9 aca8 223d bb90 3e3e 2e55 1200
000002d0: 30eb 9fba 55f0 2d33 6b38 0fba 6af3 a1ba
000002e0: fc88 f13a 32ff 853e 58e6 fe9c 2223 1900
000002f0: 4153 b1b5 3ab0 48be 2c8a 4937 60ab 7e18
00000300: 8970 3335 2d5e 9f2e 4b55 9835 db4d f8a6
00000310: 188d e68b 9418 d73d 6b7b 1fa8 9684 5db8
00000320: da7c 903d 0c3b 8534 be6e 11bd 7bba eeb8
00000330: 3acd bc2c da29 7639 6b17 e2b4 f656 2b3a
00000340: b6da 7d2e f38a 0623 3f09 5696 e205 9cbd
00000350: 3235 4135 a3c2 d834 0110 3533 b507 afb4
00000360: cf09 a7ac afbd 4031 6f83 aa31 5bc0 48be
00000370: 5f97 0abd 260f fd25 e664 733c 8581 dd28
00000380: c707 83b9 323b 12bb 793a bc3b 3d33 0c3a
00000390: 70a0 553d ce24 f50e 58a1 3c39 702f fc3c
000003a0: dfce 36bd aeca 50b6 b3fb 2736 4638 5db5
000003b0: 005e f625 718b 09b7 90c7 293e ee19 35b2
000003c0: c9ee 26bd 57fc 4300 de4a 4e3d dc6d 26b9
000003d0: 0b9f 2f31 68f0 4b80 9707 cb35 2941 beb9
000003e0: 80a5 7db6 7ad1 8932 ea3a 03bb fcbb 5ebb
000003f0: 54ce 0137 9c13 1500 9b43 bb37 54ed 89ba

fc1.bias f4 [84]
0.026673563 0.04711131 0.015034646 0.030173704 -0.00023640739 0.009591907 0.0026044939 -0.021664774
1.1899592e-06 0.04160377 0.021668606 0.011299253 -0.000625585 0.02345672 0.008208262 4.905671e-39
-1.4338973e-22 0.0122599555 0.005104161 0.0033626924 1.0333307e-06 0.036623444 9.680293e-18 0.0046430575
-0.008289714 0.015945315 3.2952348e-17 -0.015363076 0.021922762 0.00030523245 -6.9782914e-06 0.012813274
0.0007768833 -4.2408868e-07 -0.018862048 -3.103327e-12 4.661278e-08 0.00035256607 0.002724869 0.016830537
0.026418775 0.028187659 0.017458372 0.00019462474 -0.018611016 0.00043393363 -5.8374575e-19 0.0040011993
3.204355e-19 -4.147042e-39 0.0055720033 0.019543955 0.0055966084 0.029536564 0.031666365 0.019076128
-0.0031356793 1.25867555e-05 0.003927689 7.404404e-23 0.012773239 0.011918597 -0.0066394415 0.0012698715
0.0029274977 0.010352511 0.009974834 2.8965778e-18 0.016763324 0.034600012 0.0036553238 0.00055479695
0.010653964 3.9869832e-15 0.01428085 0.0056081633 0.024469273 0.009685408 2.0060114e-30 -0.002514621
-2.0923832e-09 -9.158138e-10 -0.0057776887 0.01843881
00000000: 8482 da3c caf7 403d e053 763c d82e f73c
00000010: 20e4 77b9 6027 1d3c 28b0 2a3b 537a b1bc
00000020: b0b6 9f35 b768 2a3d 5c82 b13c 8120 393c
00000030: 4cfe 23ba 4f28 c03c f27b 063c 046b 3500
00000040: f958 2d9b fbdd 483c ce40 a73b 9e60 5c3b
00000050: f9b0 8a35 7702 163d e491 3223 ca24 983b
00000060: 95d1 07bc c09f 823c 44f7 1724 69b5 7bbc
00000070: 5d97 b33c 9b07 a039 1127 eab6 c4ee 513c
00000080: c1a7 4b3a 4eae e3b4 9584 9abc 9260 5aac
00000090: 4b33 4833 9ed8 b839 b793 323b 32e0 893c
000000a0: 306c d83c cee9 e63c dc04 8f3c 2e14 4c39
000000b0: 2176 98bc 9681 e339 954a 2ca1 7e1c 833b
000000c0: d826 bd20 4428 2d80 5a95 b63b a51a a03c
000000d0: c163 b73b aaf6 f13c 97b4 013d 8a45 9c3c
000000e0: f87f 4dbb b42b 5337 d8b3 803b 0a07 b31a
000000f0: d946 513c 3846 433c ac8f d9bb d171 a63a
00000100: 43db 3f3b 949d 293c 7c6d 233c cfba 5522
00000110: 3d53 893c beb8 0d3d 288e 6f3b cb6f 113a
00000120: f78d 2e3c 6ea5 8f27 3afa 693c afc4 b73b
00000130: c973 c83c 8caf 1e3c 3abf 220e 57cc 24bb
00000140: 98c9 0fb1 abbc 7bb0 c452 bdbb fd0c 973c

fc2.weight f4 [10, 84]
-0.09539612 -0.06584973 -0.066812396 -0.023943149 -0.0002158969 -0.019713616 -0.0974686 -0.09913139
-1.187388e-07 -0.2624322 -0.15283576 -0.0030037907 0.00063037506 -0.03089229 -0.17104213 2.680622e-39
3.755568e-18 -0.17104694 -0.018261243 -0.07368331 -0.00038907712 -0.24718224 -3.7479115e-18 -0.054839287
0.424861 0.17606884 -3.6905543e-10 0.14699695 -0.21819414 -0.040540628 -3.6420333e-05 0.07967704
-0.001335324 -2.2547088e-06 0.11069135 2.238752e-10 1.8398603e-06 -0.03425283 0.2938447 0.18820532
-0.06896649 -0.12909457 0.17354469 -0.03451741 -0.09018706 0.012044306 -2.4134447e-19 -0.014299639
6.215615e-19 8.6319254e-08 0.2146971 0.13110787 -0.0057482966 0.03823933 0.11873134 -0.23589839
-0.034473248 -3.1755753e-06 -0.13226178 1.7151851e-14 -0.13595241 -0.112576336 -0.030592239 0.11425832
-0.084829636 -0.16170011 0.20680918 -1.7918686e-10 -0.029663417 0.124762036 0.13562527 0.27970156
-0.043601893 -1.7856304e-15 0.09996485 -0.07060059 -0.08213684 0.2004365 3.5975107e-09 0.11567726
0.0004083112 0.0004955452 -0.13835974 -0.058523733 0.0051578404 -0.14944045 -0.03963562 -0.04263176
-1.4304777e-05 -0.0060619987 -0.102017805 0.16856535 3.1310883e-09 -0.008154055 -0.09331408 -0.050936233
-1.1493317e-05 -0.11105469 0.09893202 -5.328344e-39 -3.6249597e-23 -0.09039786 -0.019385144 -0.07080536
-4.6375944e-06 0.0046491036 -1.5127527e-18 -0.059808552 0.28864458 -0.14883763 -9.54913e-12 -0.030311653
-0.0043462925 -0.039797872 0.0007184439 -0.08341334 0.010532969 2.5972561e-08 0.0073233135 7.739078e-13
5.6229004e-09 -0.03310033 -0.07928841 -0.031242345 0.020527868 -0.0836008 -0.20461716 -0.033685934
0.35768747 -0.009800438 -1.07581915e-19 -0.014423583 -1.139245e-19 6.658477e-39 0.15736382 -0.0809488
-0.008943389 -0.14436416 -0.15104267 -0.008026348 -0.045437798 -4.496407e-07 0.36198992 -1.423777e-22
-0.024011496 0.27696514 -0.015285804 -0.083086304 0.1897801 0.10176749 -0.10082467 2.545841e-21
-0.0069963583 -0.046107776 -0.11559819 0.19661896 0.011464868 -3.1605395e-15 -0.09432435 -0.08120401
-0.053721987 0.16567469 1.1553603e-30 0.26283073 -0.00019506941 -0.00017952453 0.20688762 -0.05861016
0.33839482 -0.22831202 -0.05506351 -0.0066299858 0.00011364148 -0.032700174 -0.04694087 -0.03277714
3.0289106e-05 0.13709974 0.18103606 -0.07755138 -0.00011865713 0.111238785 -0.16864665 -4.826173e-39
4.8035393e-24 0.17201357 -0.026163729 -0.367274 -1.0381011e-05 0.10423074 2.0882307e-18 -0.39008597
-0.30952117 0.3534201 9.13712e-11 0.046675753 0.09171348 -0.02603433 0.0014387317 0.119643
-0.0009731497 -2.4377751e-08 -0.024138123 -9.801034e-13 -6.414548e-08 -0.022242872 -0.23626897 0.37411895
0.18949273 -0.110460356 0.10235041 -0.022602774 -0.12762363 0.025669506 -4.148508e-20 -0.020585118
9.850302e-19 6.902513e-09 -0.22594512 0.22697501 -0.010154697 0.15990458 -0.008787267 -0.13063931
-0.21194926 -1.8747576e-06 -0.06352675 -1.9580842e-19 -0.12164409 -0.045152184 -0.036031596 0.23293503
-0.05531558 -0.15564989 0.15480559 6.2555894e-23 -0.04102949 0.23710698 -0.19866122 -0.2205955
0.20732524 -4.3622415e-17 0.040555403 0.1862956 -0.18969607 0.30290478 9.5544436e-14 0.18540905
-0.0004942582 -0.00055025227 -0.08870472 -0.2254801 -0.11075443 0.12158604 -0.080426894 -0.16439787
00000000: 0a5f c3bd 39dc 86bd f0d4 88bd 6c24 c4bc
00000010: 6262 62b9 737e a1bc 9e9d c7bd 6605 cbbd
00000020: 58fd feb3 835d 86be fa80 1cbe 3fdb 44bb
00000030: c13f 253a d411 fdbc ab25 2fbe 7c30 1d00
00000040: 568e 8a22 ee26 2fbe 9a98 95bc 46e7 96bd
00000050: 0cfd cbb9 571d 7dbe 0646 8aa2 299f 60bd
00000060: 6287 d93e 644b 343e efe3 caaf 5e86 163e
00000070: 496e 5fbe ee0d 26bd 09c2 18b8 b72d a33d
00000080: 0a06 afba 9a4f 17b6 26b2 e23d 4427 762f
00000090: 1ef1 f635 b24c 0cbd d072 963e e5b8 403e
000000a0: 4e3e 8dbd 5e31 04be b3b5 313e 2162 0dbd
000000b0: feb3 b8bd 7b55 453c f276 8ea0 0849 6abc
000000c0: dc73 3721 835e b933 8ed9 5b3e 2441 063e
000000d0: 355c bcbb d8a0 1c3d 6b29 f33d 598f 71be
000000e0: d233 0dbd f81b 55b6 a26f 07be 7a7d 9a28
000000f0: 1c37 0bbe 6c8e e6bd 939c fabc 4400 ea3d
00000100: 29bb adbd b794 25be c9c5 533e 9e04 45af
00000110: b200 f3bc 3d83 ff3d 5ae1 0a3e 0b35 8f3e
00000120: e697 32bd 11ab 00a7 5fba cc3d 0b97 90bd
00000130: 5c37 a8bd 3a3f 4d3e 1438 7731 33e8 ec3d
00000140: 9a12 d639 7ae7 013a 2dae 0dbe 95b6 6fbd
00000150: 1a03 a93b eb06 19be f658 22bd a49e 2ebd
00000160: 8dfe 6fb7 bba3 c6bb b6ee d0bd 659c 2c3e
00000170: b02a 5731 9698 05bc 741b bfbd 83a2 50bd
00000180: 6cd3 40b7 a470 e3bd df9c ca3d 4105 3a80
00000190: d44a 2f9a 8322 b9bd 98cd 9ebc 6702 91bd
000001a0: a29c 9bb6 8257 983b 2e3e dfa1 d0f9 74bd
000001b0: 39c9 933e e468 18be 75fd 27ad 2550 f8bc
000001c0: 586b 8ebb 1803 23bd f455 3c3a 9dd4 aabd
000001d0: 7992 2c3c 441a df32 68f8 ef3b efd5 592b
000001e0: 8e33 c131 3694 07bd f661 a2bd f2ef ffbc
000001f0: 0f2a a83c e536 abbd 2987 51be 43fa 09bd
00000200: d022 b73e 0492 20bc 4705 fe9f e450 6cbc
00000210: 917f 06a0 2081 4800 fb23 213e 7cc8 a5bd
00000220: 4b87 12bc 33d4 13be eeaa 1abe f280 03bc
00000230: fc1c 3abd 2666 f1b4 be56 b93e c41f 2c9b
00000240: c2b3 c4bc 60ce 8d3e 4f71 7abc 2729 aabd
00000250: b755 423e 796b d03d 2a7d cebd ba5b 401d
00000260: b541 e5bb 82db 3cbd bebe ecbd 7b56 493e
00000270: 24d7 3b3c aabd 63a7 202d c1bd 4a4e a6bd
00000280: 960b 5cbd a0a6 293e ca77 bb0d c091 863e
00000290: 8c8b 4cb9 c03e 3cb9 59da 533e 3511 70bd
000002a0: 1642 ad3e a0ca 69be 468a 61bd 5a40 d9bb
000002b0: ce52 ee38 9ef0 05bd 1245 40bd 5341 06bd
000002c0: 5c15 fe37 e063 0c3e 8461 393e 42d3 9ebd
000002d0: 90d7 f8b8 29d1 e33d b5b1 2cbe 688d 3480
000002e0: f3d3 b918 5324 303e 5155 d6bc 560b bcbe
000002f0: 1a2a 2eb7 ed76 d53d 9015 1a22 59b9 c7be
00000300: 8f79 9ebe 7bf3 b43e 6aed c82e 132f 3f3d
00000310: 47d4 bb3d f245 d5bc d393 bc3a 6407 f53d
00000320: f91a 7fba 3e67 d1b2 50bd c5bc f2ef 89ab
00000330: 5ac0 89b3 af36 b6bc 7ef0 71be 858c bf3e
00000340: 620a 423e 0a39 e2bd 179d d13d 7429 b9bc
00000350: c5af 02be db48 d23c 62e8 439f 1fa2 a8bc
00000360: 645d 9121 252b ed31 285e 67be 236c 683e
00000370: e35f 26bc 07be 233e 78f8 0fbc 50c6 05be
00000380: 3a09 59be 2ea0 fbb5 501a 82bd 772b 67a0
00000390: 8920 f9bd 7ff1 38bd de95 13bd 8586 6e3e
000003a0: 9792 62bd af62 1fbe 5b85 1e3e 3940 971a
000003b0: 8a0e 28bd 2ccc 723e d96d 4bbe c9e3 61be
000003c0: 114d 543e 422c 49a4 6c1d 263d 46c4 3e3e
000003d0: b03f 42be 5616 9b3e 9e25 d729 dfdb 3d3e
000003e0: 1b91 01ba ce3e 10ba d2aa b5bd 41e4 66be
000003f0: 38d3 e2bd 1a02 f93d dbb6 a4bd ea57 28be

fc2.bias f4 [10]
-0.037200704 -0.023268327 0.038504437 0.013195122 -0.040360894 -0.036760878 0.03904499 0.0012827272
0.050502665 -0.006232233
00000000: c45f 18bd 389d bebc d4b6 1d3d 5a30 583c
00000010: 7751 25bd 9392 16bd a4ed 1f3d 2f21 a83a
00000020: e2db 4e3d c237 ccbb
