HW1/model_LeNet5_bn.pth (torch, 256755 bytes, 22 tensors)

conv1.weight f4 [6, 1, 5, 5]
-0.09289407 -0.18378629 -0.050306313 -0.06954939 0.3675482 0.10822553 -0.2833378 -0.25708795
-0.16841137 0.37871468 0.12382179 -0.17898557 -0.07254723 0.1286928 0.5310184 0.14319076
0.039448097 0.09119243 0.22680937 0.4220553 0.10424131 -0.084824935 -0.05410293 -0.038619846
0.12619357 0.2520774 -0.23241182 -0.19270042 0.23066056 -0.14106965 0.27504212 -0.22638726
-0.28603807 0.3024884 0.025463767 0.17452033 -0.19279867 -0.0962919 0.29277205 -0.21510912
-0.011466734 0.11110858 -0.04887178 -0.11787438 0.11417358 -0.07804611 0.15249425 -0.2600273
0.08170542 0.106686994 -0.5076238 -0.65409225 -0.25710738 0.09400018 0.26822597 -0.20337188
-0.132294 0.030345587 -0.0016541018 -0.19112419 0.29973674 0.22195485 -0.011550461 -0.013991565
-0.116804354 0.040702496 0.15257105 -0.021999482 0.035153918 -0.09088726 0.13800497 -0.052710757
-0.12366978 0.056247342 -0.026345927 0.31648746 -0.012793167 -0.14916553 -0.21586344 -0.34660342
0.25426012 -0.17266795 0.16101299 -0.16994995 -0.2644559 -0.08755468 -0.11889801 0.02412061
-0.010424489 -0.04454088 0.17269716 -0.08262803 0.11709881 0.09495838 0.30577922 -0.14823118
-0.029454598 -0.047152508 0.23120433 0.26274055 0.01485421 -0.15582226 -0.20943226 0.2035384
0.19420823 0.22731741 -0.11442538 -0.17975391 -0.022834692 0.069042675 0.19314124 0.07589233
-0.34327054 0.047943573 0.1538086 0.30844453 0.111835405 -0.26843145 -0.102156416 -0.06674615
0.24079429 0.2412634 -0.24426629 -0.24561623 -0.11831523 -0.04372502 0.10915023 -0.1311406
-0.16897272 0.21474741 0.061728414 0.005896229 -0.12639415 0.13751397 -0.032682452 -0.13031258
0.039201308 0.3019356 -0.036233068 -0.31144533 0.08627377 -0.24948636 0.2635432 0.22947983
-0.19128416 -0.14436485 -0.3592792 -0.08051619 0.35730928 0.18722095
00000000: 3f3f bebd 7932 3cbe fe0d 4ebd e96f 8ebd
00000010: 472f bc3e 59a5 dd3d a711 91be 08a1 83be
00000020: 0874 2cbe e4e6 c13e 4796 fd3d fe47 37be
00000030: a493 94bd 0cc8 033e d2f0 073f 99a0 123e
00000040: 5494 213d 19c3 ba3d b740 683e a217 d83e
00000050: 787c d53d b2b8 adbd 099b 5dbd d82f 1ebd
00000060: e338 013e 4a10 813e 5dfd 6dbe 4253 45be
00000070: 4832 6c3e 9074 10be 52d2 8c3e 10d2 67be
00000080: 9573 92be c2df 9a3e 6499 d03c 75b5 323e
00000090: 046d 45be b034 c5bd 38e6 953e 9145 5cbe
000000a0: f8de 3bbc e58c e33d c72d 48bd 1f68 f1bd
000000b0: d7d3 e93d a4d6 9fbd 7427 1c3e 4c22 85be
000000c0: 2c55 a73d b67e da3d a2f3 01bf 9772 27bf
000000d0: 94a3 83be 2b83 c03d ea54 893e b840 50be
000000e0: 1478 07be 4f97 f83c 72ce d8ba 0fb6 43be
000000f0: 1877 993e 2248 633e 253e 3dbc e13c 65bc
00000100: 1f37 efbd a9b7 263d 963b 1c3e 4238 b4bc
00000110: 8efd 0f3d 1a23 babd 2d51 0d3e 3ce7 57bd
00000120: 9546 fdbd 9d63 663d 6ad3 d7bc a50a a23e
00000130: 6e9a 51bc d9be 18be 4e0b 5dbe 0176 b1be
00000140: 622e 823e decf 30be 97e0 243e 5c07 2ebe
00000150: c466 87be de4f b3bd cd80 f3bd 9698 c53c
00000160: 7acb 2abc 7f70 36bd 86d7 303e e238 a9bd
00000170: 80d1 ef3d 8a79 c23d 188f 9c3e eac9 17be
00000180: c54a f1bc fd22 41bd d4c0 6c3e ee85 863e
00000190: 135f 733c df8f 1fbe 6975 56be 5f6c 503e
000001a0: 86de 463e e5c5 683e db57 eabd 6911 38be
000001b0: d20f bbbc 3f66 8d3d d1c6 453e 706d 9b3d
000001c0: 28c1 afbe 7b60 443d 0080 1d3e 71ec 9d3e
000001d0: f609 e53d d96f 89be 6237 d1bd 35b2 88bd
000001e0: c792 763e c10d 773e f120 7abe d282 7bbe
000001f0: 414f f2bd 0219 33bd 288a df3d b949 06be
00000200: 2f07 2dbe bfe6 5b3e efd6 7c3d 2735 c13b
00000210: 786d 01be 76d0 0c3e 09de 05bd a970 05be
00000220: 8d91 203d 4e97 9a3e 2069 14bd c375 9fbe
00000230: 4db0 b03d 5a79 7fbe 22ef 863e c3fc 6a3e
00000240: ffdf 43be 61d4 13be 71f3 b7be ace5 a4bd
00000250: 3ef1 b63e d9b6 3f3e

conv1.bias f4 [6]
-0.06487282 -0.13072114 0.07850035 -0.3384763 -0.027590567 0.12124751
00000000: 0bdc 84bd c3db 05be cbc4 a03d c44c adbe
00000010: 9d05 e2bc 9d50 f83d

conv2.weight f4 [16, 6, 5, 5]
0.019651314 0.04548151 0.093896404 0.16845809 -0.084082775 -0.013669212 0.026398523 0.06017164
-0.005832512 -0.041026894 -0.0473318 0.021399785 0.08555935 0.034437396 -0.13667524 0.020559022
-0.057873297 0.039666068 -0.096558325 -0.14238138 -0.10078634 0.039673924 0.09446634 -0.011891511
-0.13912067 0.16566254 -0.07222652 0.018065177 0.20654015 -0.020745272 0.008928786 0.13556138
0.03409602 -0.0014143499 0.0056933663 -0.052488983 -0.10908322 -0.09290757 -0.18402517 0.015312385
-0.23714486 -0.04113177 -0.16116856 0.07443973 0.0026012163 -0.17172138 -0.07647185 -0.16920583
-0.10208778 0.12578924 -0.31708768 -0.13951017 0.15145987 0.09910917 -0.29091635 0.020965453
-0.028800037 0.11123644 -0.12630844 -0.1510989 -0.20056692 -0.036723334 0.24167296 0.2409723
0.10285908 -0.22353007 -0.2746024 0.08343771 0.27823848 0.2980458 -0.12034598 -0.17916064
0.031366818 0.13802041 0.3583938 0.034345936 0.101907276 -0.1060682 -0.29686856 0.20772241
0.016258832 -0.042993754 -0.22250748 -0.16708319 -0.2594832 0.056715976 0.17708407 -0.015264622
-0.07408723 -0.12542836 0.02214654 -0.12776414 -0.073094435 0.13292712 0.10136487 0.0496104
-0.0033714604 -0.21319324 -0.073965214 0.03325716 -0.019689957 0.06551112 -0.021372475 0.036156498
0.019774752 -0.48936445 -0.066942774 0.1520792 0.09515331 0.07758091 -0.40694836 -0.19565627
0.15395159 0.07978034 0.039232716 -0.45075208 -0.20562075 -0.006557445 -0.0463251 -0.034586627
-0.60721344 -0.44829068 0.012409779 0.15946122 0.0728476 -0.08830985 0.03847783 -0.022977302
0.13336696 0.25256005 -0.06404945 0.086304694 -0.2727883 -0.10781572 0.060469437 0.116631195
0.048668012 -0.017630782 -0.23488206 -0.07486521 0.14733356 -0.07689264 -0.11903225 -0.16688956
0.061824646 0.2575892 -0.04567735 -0.31245273 -0.5910112 -0.064858526 0.2299476 0.09831867
-0.048835665 -0.14072275 -0.17421202 0.014000099 -0.10819367 -0.10280125 -0.20161903 -0.09155821
0.0024506054 -0.08401126 0.015470019 -0.15746288 -0.025992468 -0.1256888 -0.19045481 -0.0035129618
-0.07116643 0.10820187 -0.14776623 -0.097093694 0.06700869 0.09333687 0.31698984 0.052368913
-0.21281023 -0.24612565 0.29478365 0.20974216 0.16328418 0.11940634 0.19978815 0.1383664
0.07021612 -0.021492118 0.0072201416 0.03542563 -0.010923556 -0.048568167 -0.18253373 -0.059213255
0.020073313 0.063531846 0.09255601 -0.084906735 -0.11360055 0.05897362 -0.0062067113 0.0908762
-0.09723934 -0.012154865 -0.21114871 -0.2184067 0.00787161 -0.042258177 -0.08452556 -0.16366352
0.11308689 0.18231733 0.051903643 -0.11286071 -0.09950953 0.022480454 0.038977463 0.039791644
-0.11789546 -0.11133315 -0.010874136 -0.26683915 0.08434635 0.058281902 0.2167292 0.0042745126
0.005626061 -0.109542556 -0.23736887 0.027683092 0.31471694 0.26005116 -0.47911018 -0.029219918
0.057003513 0.15621892 0.03601485 -0.26919568 0.15157607 -0.03558482 0.18043132 0.26500812
0.01079676 0.23956332 -0.18282695 -0.054663815 -0.10144448 -0.12230137 0.09847869 0.062277675
0.027682897 -0.12657101 -0.12231783 0.044164736 0.20351236 0.0785251 0.2583153 0.14043842
00000000: cbfb a03c d24a 3a3d c24c c03d 4780 2c3e
00000010: 9733 acbd d5f4 5fbc b741 d83c 8a76 763d
00000020: a81e bfbb d10b 28bd fdde 41bd 9a4e af3c
00000030: be39 af3d 3a0e 0d3d 98f4 0bbe 656b a83c
00000040: 8d0c 6dbd e378 223d 5fc0 c5bd 6dcc 11be
00000050: 1269 cebd 2081 223d 9277 c13d 9dd4 42bc
00000060: a675 0ebe 71a3 293e 7feb 93bd 6cfd 933c
00000070: 437f 533e fdf1 a9bc 0b4a 123c 9ad0 0a3e
00000080: 45a8 0b3d b561 b9ba 6b8f ba3b b0fe 56bd
00000090: 0667 dfbd 5346 bebd 1871 3cbe cce0 7a3c
000000a0: 1ad6 72be c979 28bd 5f09 25be db73 983d
000000b0: 2b79 2a3b bbd7 2fbe 469d 9cbd 4b44 2dbe
000000c0: 6613 d1bd e5ce 003e 5159 a2be c1db 0ebe
000000d0: 4c18 1b3e c0f9 ca3d fdf2 94be bebf ab3c
000000e0: 0eee ebbc eecf e33d 0057 01be acb9 1abe
000000f0: 6a61 4dbe 356b 16bd 1e79 773e 71c1 763e
00000100: c8a7 d23d 11e5 64be b098 8cbe 64e1 aa3d
00000110: 4675 8e3e 7699 983e f477 f6bd e375 37be
00000120: 7e7a 003d 3955 0d3e 647f b73e 53ae 0c3d
00000130: c3b4 d03d 493a d9bd 28ff 97be 2fb5 543e
00000140: 3e31 853c 381a 30bd 00d9 63be db17 2bbe
00000150: fbda 84be 034f 683d 8755 353e 7718 7abc
00000160: 0cbb 97bd 4b70 00be a96c b53c 9ad4 02be
00000170: 89b2 95bd 0c1e 083e 6398 cf3d 4634 4b3d
00000180: b8f3 5cbb 544f 5abe 137b 97bd a938 083d
00000190: d54c a1bc b22a 863d 5415 afbc d618 143d
000001a0: a9fe a13c fa8d fabe 4b19 89bd a6ba 1b3e
000001b0: bddf c23d bde2 9e3d 895b d0be 1e5a 48be
000001c0: 7ca5 1d3e e063 a33d 7cb2 203d fac8 e6be
000001d0: 3f8e 52be d6df d6bb 63bf 3dbd b5aa 0dbd
000001e0: 5772 1bbf 5b86 e5be 6352 4b3c cd49 233e
000001f0: 1f31 953d cbdb b4bd ee9a 1d3d e53a bcbc
00000200: 5991 083e 8d4f 813e 5c2c 83bd 84c0 b03d
00000210: e8aa 8bbe 7dce dcbd cdae 773d 56dc ee3d
00000220: 1c58 473d 6e6e 90bc ec84 70be ee52 99bd
00000230: 9cde 163e e379 9dbd 2ec7 f3bd 19e5 2abe
00000240: d73b 7d3d bbe2 833e 2c18 3bbd cef9 9fbe
00000250: 834c 17bf 8cd4 84bd 6277 6b3e 4d5b c93d
00000260: e807 48bd a019 10be a364 32be ac60 653c
00000270: a594 ddbd 7689 d2bd 3875 4ebe df82 bbbd
00000280: 569a 203b 180e acbd f675 7d3c f33d 21be
00000290: 28ee d4bc 91b4 00be 9606 43be b839 66bb
000002a0: b5bf 91bd f198 dd3d 0850 17be 0fd9 c6bd
000002b0: da3b 893d 6727 bf3d 7e4c a23e c980 563d
000002c0: edea 59be 5d08 7cbe e2ed 963e a6c6 563e
000002d0: f833 273e 508b f43d 4495 4c3e ecaf 0d3e
000002e0: 78cd 8f3d 3d10 b0bc f096 ec3b 771a 113d
000002f0: b7f8 32bc 6aef 46bd 1fea 3abe 9989 72bd
00000300: ca70 a43c fc1c 823d 018e bd3d 95e3 adbd
00000310: 68a7 e8bd 538e 713d ab61 cbbb 4d1d ba3d
00000320: 6b25 c7bd 3325 47bc 5e37 58be 02a6 5fbe
00000330: edf7 003c e916 2dbd bd1b adbd 6997 27be
00000340: 199a e73d 65b1 3a3e ea98 543d 8423 e7bd
00000350: a7cb cbbd ee28 b83c d5a6 1f3d 90fc 223d
00000360: 2d73 f1bd a202 e4bd 6f29 32bc 249f 88be
00000370: c7bd ac3d 01b9 6e3d 42ee 5d3e 3611 8c3b
00000380: d25a b83b d957 e0bd d310 73be a7c7 e23c
00000390: 9422 a13e 6d25 853e ee4d f5be 9c5e efbc
000003a0: 847c 693d daf7 1f3e 4f84 133d 04d4 89be
000003b0: c236 1b3e 63c1 11bd fdc2 383e 25af 873e
000003c0: e5e4 303c 1650 753e fd36 3bbe 2ae7 5fbd
000003d0: 20c2 cfbd 2479 fabd 32af c93d e016 7f3d
000003e0: 3ec7 e23c d59b 01be c581 fabd 15e6 343d
000003f0: 8b65 503e c5d1 a03d e741 843e 17cf 0f3e

conv2.bias f4 [16]
0.06678611 0.065879345 -0.06452151 0.09762337 0.08840599 0.0011217864 0.053745624 0.01837586
-0.118818834 -0.04762759 0.005682955 0.103250004 -0.0046902345 -0.09026869 -0.010072461 0.050430026
00000000: 28c7 883d c0eb 863d da23 84bd c3ee c73d
00000010: 330e b53d e808 933a 5f24 5c3d f988 963c
00000020: 4a57 f3bd 2615 43bd 1538 ba3b bd74 d33d
00000030: 8ab0 99bb cade b8bd f706 25bc b78f 4e3d

conv3.weight f4 [120, 16, 5, 5]
-0.02309615 0.12944475 0.047521923 0.053618915 -0.0053874743 -0.2752943 0.014696302 -0.11868425
0.0015545042 0.0121544115 0.067053586 0.06618143 0.017797679 -0.17204602 0.058978364 0.36999086
-0.046824772 0.088856325 -0.071850754 0.1735229 0.20172842 -0.169876 -0.2482881 0.10546788
0.35120022 -0.11026759 -0.09696014 -0.06544094 0.04048294 0.10867502 0.061365403 -0.18184832
-0.10984686 0.07335093 0.07785102 0.41029766 0.08591067 -0.04183781 0.000837744 -0.13796039
-0.04547701 0.0752161 -0.04750294 -0.037585534 -0.16559921 -0.08945733 0.18779932 0.07344466
-0.012808921 -0.0394036 0.21247554 0.08231232 -0.22016557 0.06868383 0.032195777 0.14212774
-0.06560061 0.08002043 -0.060843922 0.13103437 0.09509786 0.11026346 -0.16969644 0.036659963
0.113814816 0.082244806 0.032233734 -0.010007233 -0.022959862 0.020561256 -0.07013319 -0.11216988
0.018573249 0.20449261 0.07622621 0.019624038 -0.07977629 0.2072537 0.05214393 -0.0064623198
0.18584457 -0.024213059 0.17994316 -0.09813093 0.051247396 -0.018127488 0.0131781595 0.09578521
-0.057493325 0.17889433 -0.0711262 0.1497244 0.2259406 0.06294487 -0.10574009 0.0019038694
-0.008917051 0.14738882 -0.11348392 -0.14774454 0.07870907 -0.14079297 0.13095947 0.022539044
-0.22513133 0.11253361 0.16076455 0.08368893 -0.25812885 -0.028835408 0.04594172 0.013469816
0.03213275 0.012839677 0.0027332834 0.17756747 0.0087672435 0.09329101 0.19779724 0.25245333
0.027400427 0.009260447 0.21915069 0.02365723 -0.09510357 0.071713045 0.20233718 -0.051506292
-0.10081939 0.07715172 -0.05002978 -0.03529324 -0.06481808 -0.16740215 -0.19584669 0.11083192
0.077725 -0.0043616323 0.09048562 -0.6075981 -0.08040347 0.06636982 0.1297343 0.097555734
-0.10727665 -0.050393756 -0.087486826 0.05887723 0.10306151 0.02874238 0.09115033 0.041750006
0.09453055 -0.05436971 0.05909369 0.075146236 -0.15241332 0.015888486 -0.02217667 0.0032284618
0.13480566 0.3321346 0.028779257 0.009814143 -0.06930863 -0.08912001 0.20294322 0.25935417
-0.17840229 0.025017846 -0.15883991 -0.05089096 0.20658235 -0.05964027 -0.13670135 0.087944195
0.11821443 0.07108634 -0.089639135 -0.19988568 0.22138275 0.15900151 0.26888287 0.119059734
-0.004215227 0.34722954 -0.08597118 -0.13857533 0.22006273 -0.12586665 -0.06938321 -0.0055781663
0.008605058 0.056321867 0.039533854 -0.030953942 -0.10022425 -0.07545415 0.03138927 -0.13031997
-0.019943122 0.06525384 0.16717282 0.16562317 0.102509476 -0.12661836 0.07166186 -0.119477935
0.077615984 -0.048513472 -0.14202721 0.1530266 -0.012379063 -0.18404743 -0.15853423 0.029472902
-0.3979017 0.0021879587 -0.1298337 -0.13640068 0.16073751 0.03444235 -0.046575103 -0.21847188
-0.080566175 -0.17281911 -0.23977989 -0.1638871 -0.1416904 -0.5145161 0.1526722 0.09473756
-0.062246196 -0.14586379 -0.22314398 -0.10708517 0.010774683 -0.035765175 -0.09575397 -0.073052764
0.105742246 0.1941352 0.12024795 -0.08220922 -0.050920166 -0.19759358 -0.25102615 0.27130502
0.20099723 -0.2908658 -0.00026130598 -0.022095103 -4.4017535e-05 0.23549734 -0.055546056 0.03114889
00000000: 2334 bdbc 2a8d 043e 59a6 423d 829f 5b3d
00000010: 6989 b0bb 60f3 8cbe c2c8 703c ba10 f3bd
00000020: 81c0 cb3a 4c23 473c 6453 893d 218a 873d
00000030: 70cc 913c d52c 30be 4c93 713d 716f bd3e
00000040: 55cb 3fbd 4efa b53d 7d26 93bd fdaf 313e
00000050: e591 4e3e f9f3 2dbe 3c3f 7ebe 8bff d73d
00000060: 84d0 b33e f9d3 e1bd 0a93 c6bd e605 86bd
00000070: 70d1 253d 0291 de3d 4a5a 7b3d 7236 3abe
00000080: 64f7 e0bd 0339 963d 5b70 9f3d 8912 d23e
00000090: eff1 af3d 205e 2bbd 0c9c 5b3a 7d45 0dbe
000000a0: 1a46 3abd e60a 9a3d 7192 42bd 4af3 19bd
000000b0: d792 29be 6835 b7bd 774e 403e 276a 963d
000000c0: 82dc 51bc ab65 21bd 3093 593e 5d93 a83d
000000d0: 1573 61be 1caa 8c3d b8df 033d ef89 113e
000000e0: 9d59 86bd c0e1 a33d 7a37 79bd e02d 063e
000000f0: abc2 c23d cfd1 e13d e7c4 2dbe c228 163d
00000100: be17 e93d f76f a83d 8507 043d 61f5 23bc
00000110: 5216 bcbc 1470 a83c fda1 8fbd 52b9 e5bd
00000120: ed26 983c 8366 513e 7d1c 9c3d 97c2 a03c
00000130: c061 a3bd 503a 543e e094 553d dec1 d3bb
00000140: 0a4e 3e3e 775a c6bc 0543 383e def8 c8bd
00000150: cae8 513d 1980 94bc 35e9 573c 092b c43d
00000160: 1f7e 6bbd 1330 373e 9daa 91bd 5a51 193e
00000170: f95c 673e 3de9 803d 438e d8bd 428b f93a
00000180: d318 12bc 18ed 163e 426a e8bd 584a 17be
00000190: 3932 a13d 082c 10be 3d1a 063e cda3 b83c
000001a0: d488 66be 0578 e63d 769f 243e 1a65 ab3d
000001b0: 7729 84be 3c38 ecbc 632d 3c3d 81b0 5c3c
000001c0: a19d 033d 825d 523c e320 333b 3fd4 353e
000001d0: 7ca4 0f3c 5b0f bf3d 5c8b 4a3e 9041 813e
000001e0: dc76 e03c 21b9 173c 0a69 603e cfcc c13c
000001f0: a9c5 c2bd 4ade 923d 7a31 4f3e 43f8 52bd
00000200: 657a cebd b901 9e3d 07ec 4cbd a58f 10bd
00000210: 57bf 84bd 786b 2bbe 098c 48be d8fb e23d
00000220: 492e 9f3d 06ec 8ebb 8650 b93d 8d8b 1bbf
00000230: 93aa a4bd e6ec 873d 11d9 043e 4dcb c73d
00000240: dcb3 dbbd af69 4ebd 4b2c b3bd 4029 713d
00000250: ea11 d33d 2475 eb3c 06ad ba3d 0e02 2b3d
00000260: 3c99 c13d c6b2 5ebd 3a0c 723d 45e6 993d
00000270: 3d12 1cbe 9228 823c d9ab b5bc 9a94 533b
00000280: 7f0a 0a3e 8c0d aa3e 7ac2 eb3c 80cb 203c
00000290: aff1 8dbd 8d84 b6bd 59d0 4f3e 12ca 843e
000002a0: 17af 36be 3af2 cc3c eea6 22be 0a73 50bd
000002b0: 538a 533e 5b49 74bd 70fb 0bbe 161c b43d
000002c0: 681a f23d b795 913d b994 b7bd d5ae 4cbe
000002d0: 29b2 623e 4bd1 223e 04ab 893e 97d5 f33d
000002e0: e31f 8abb 12c8 b13e a811 b0bd b1e6 0dbe
000002f0: 2058 613e 30e3 00be c918 8ebd 0dc9 b6bb
00000300: 3bfc 0c3c c2b1 663d 40ee 213d 1f93 fdbc
00000310: 5f42 cdbd b587 9abd 0992 003d 9972 05be
00000320: c25f a3bc cea3 853d 5a2f 2b3e 1f99 293e
00000330: 7df0 d13d 3ea8 01be 74c3 923d d9b0 f4bd
00000340: 21f5 9e3d 10b6 46bd 956f 11be 01b3 1c3e
00000350: 8ed1 4abc ee76 3cbe cc56 22be 2871 f13c
00000360: c6b9 cbbe db63 0f3b 20f3 04be 9fac 0bbe
00000370: 6098 243e 6c13 0d3d 89c5 3ebd 18b7 5fbe
00000380: e1ff a4bd 7ef7 30be dc88 75be 05d2 27be
00000390: 4a17 11be 54b7 03bf 1a56 1c3e c405 c23d
000003a0: def5 7ebd 515d 15be db7f 64be 784f dbbd
000003b0: 4c88 303c 817e 12bd a81a c4bd b09c 95bd
000003c0: 648f d83d 61cb 463e 8f44 f63d 4f5d a8bd
000003d0: aa91 50bd f955 4abe 8086 80be 7ee8 8a3e
000003e0: 38d2 4d3e 5dec 94be e5ff 88b9 ca00 b5bc
000003f0: 789f 38b8 3726 713e 4384 63bd f52b ff3c

conv3.bias f4 [120]
-0.022949105 0.0085511925 0.019935224 0.046459157 -0.029185291 -0.030023245 -0.032563865 0.0032633638
0.04496914 -0.028659225 -0.0023777767 0.02823095 -0.026735205 0.041167986 -0.0061328 -0.04540363
0.0028757218 0.022553064 -0.038090233 0.00040960242 0.048023917 -0.0010405091 0.0038200202 -0.031295538
0.009488539 -0.017427355 0.019238954 -0.026724529 -0.0027254354 0.03743402 -0.0514638 0.028561924
-0.0064568757 -0.021203717 0.045357347 -0.0407472 -0.02260344 -0.031718764 0.04326478 -0.040295273
-0.015516375 -0.039226856 0.009377758 -0.035253856 0.002193297 0.044650715 -0.032565355 0.044916354
-0.019334264 0.032219775 0.05002279 -0.04713871 -0.03786861 -0.00531523 -0.026224684 0.03486056
-0.044249002 -0.042074837 0.011243836 -0.032756355 0.018843712 -0.059979603 0.028827302 0.016843155
-0.02275152 0.0011776066 0.010226202 -0.024872068 -0.055677373 0.008382267 0.05326662 -0.021610238
0.025364978 0.0041445275 0.034109667 0.05116983 -0.051311217 0.022682006 0.015676294 0.032724142
-0.019201007 -0.007330278 -0.042047583 0.0027383692 -0.034548223 -0.04460479 -0.0006013835 -0.047329757
0.006614967 0.022092951 -0.043254033 -0.04761006 0.026484951 -0.0068477867 -0.042613924 -0.024561405
-0.031893395 -0.01933807 -0.005288391 0.010411785 -0.0067457343 -0.02163291 -0.009590026 -0.024522593
0.05271628 -0.034272235 -0.0076227407 -0.0029354123 0.026120702 0.04179172 -0.0023194286 0.038010795
0.0069648414 -0.014519429 0.04452192 -0.023629138 0.011634512 -0.023882074 0.026820982 -0.0039974023
00000000: c3ff bbbc 4d1a 0c3c 324f a33c f54b 3e3d
00000010: fe15 efbc 4ff3 f5bc b061 05bd 29de 553b
00000020: 9031 383d c0c6 eabc 79d4 1bbb 9844 e73c
00000030: ca03 dbbc c39f 283d a8f5 c8bb 28f9 39bd
00000040: 9b76 3c3b 34c1 b83c 8104 1cbd e8bf d639
00000050: bab4 443d b161 88ba 4e59 7a3b c02f 00bd
00000060: d175 1b3c d0c3 8ebc 039b 9d3c 66ed dabc
00000070: 389d 32bb 6a54 193d b5cb 52bd b2fa e93c
00000080: 3394 d3bb 6bb3 adbc a0c8 393d 89e6 26bd
00000090: d92a b9bc 89eb 01bd 6936 313d a80c 25bd
000000a0: 6538 7ebc 57ac 20bd 2ba5 193c 5966 10bd
000000b0: 6bbd 0f3b abe3 363d 4063 05bd 36fa 373d
000000c0: e462 9ebc e2f8 033d b2e4 4c3d 8514 41bd
000000d0: 1e1c 1bbd 622b aebb 26d5 d6bc f2c9 0e3d
000000e0: 713e 35bd aa56 2cbd 1138 383c 872b 06bd
000000f0: 215e 9a3c 2cad 75bd 3c27 ec3c a8fa 893c
00000100: 6561 babc ec59 9a3a cd8b 273c 82c0 cbbc
00000110: f50d 64bd c755 093c 192e 5a3d f407 b1bc
00000120: 37ca cf3c d1ce 873b 94b6 0b3d 7597 513d
00000130: b62b 52bd 9dcf b93c 926b 803c c009 063d
00000140: 6e4b 9dbc d432 f0bb 163a 2cbd 3676 333b
00000150: 7082 0dbd 83b3 36bd 2aa6 1dba d9dc 41bd
00000160: 5dc2 d83b 47fc b43c 242b 31bd c402 43bd
00000170: f8f6 d83c 6663 e0bb f08b 2ebd 0035 c9bc
00000180: a6a2 02bd df6a 9ebc 3d4a adbb 3196 2a3c
00000190: 520b ddbb 8037 b1bc 7c1f 1dbc 9be3 c8bc
000001a0: 07ed 573d 0b61 0cbd 2fc8 f9bb 0c60 40bb
000001b0: 15fb d53c cb2d 2b3d 8e01 18bb 35b1 1b3d
000001c0: 5339 e43b e6e2 6dbc 9e5c 363d e591 c1bc
000001d0: ae9e 3e3c 57a4 c3bc adb7 db3c a4fc 82bb

fc1.weight f4 [84, 120]
-0.14101009 0.041588757 -0.29608166 0.12558152 0.2486799 0.07223366 0.013831237 0.3560476
0.39391196 -0.02630846 0.123948425 -0.19684197 0.23266642 0.35157317 0.17181006 0.20111693
0.16656245 0.040906895 -0.16301176 -0.11746157 0.046575785 0.048673104 -0.40568066 -0.25543725
0.02953303 -0.37890184 0.21764617 0.23640762 0.2292762 0.036685012 -0.14218809 -0.035011712
0.0219002 0.30157158 0.32350188 -0.1807819 0.025138987 -0.22762683 0.09037776 -0.13288166
-0.34471497 -0.16545047 0.12253729 0.08453886 -0.40683186 0.039988976 0.1307039 0.23038192
-0.002301676 0.030692618 0.24774784 0.0710567 -0.59369314 0.029086236 0.41103354 -0.11965968
-0.41469133 0.06186069 0.088359356 0.0393153 0.4402377 0.10255624 0.3994783 0.06947715
-0.10339487 0.12089882 0.17480071 -0.4143783 0.06692951 -0.103542775 0.3270466 0.21278398
-0.42511708 -0.56422657 0.29965037 0.14759356 0.12783301 0.2931202 0.17407632 -0.016093837
0.32718667 0.1672003 0.2717707 0.13495453 0.13114981 -0.33493027 -0.38991836 0.06868895
-0.17655036 0.063476436 -0.016239215 0.2736277 0.19097218 -0.0477092 0.24854903 -0.14855598
-0.1757622 -0.1275421 -0.53612083 -0.2004091 0.43269664 -0.04967927 -0.7753791 0.09377559
0.021970987 0.13963841 -0.025520982 -0.009537366 0.32464728 -0.007259971 0.24657954 -0.14118701
0.1051245 -0.033931296 -0.029960081 -0.47381 0.08722427 0.47960156 -0.042886328 0.09531694
0.25931543 0.01089198 0.0201191 0.069559336 0.018588457 0.034841295 0.12866819 0.05963561
-0.34429255 0.119683556 0.17151636 0.04406626 0.14879748 0.03288275 0.35252187 -0.18733934
-0.29106095 0.27603018 -0.20414697 -0.21177332 0.09003496 0.093691856 0.17306088 -0.0019419378
0.011941187 0.015686069 0.12805414 0.1383786 0.10070989 0.17840038 0.08240766 -0.18980856
0.05398024 0.25941887 0.18175837 -0.1197324 0.27949852 0.10194174 -0.49568576 -0.2466591
0.072171845 0.16918689 0.25712523 -0.06601391 -0.087618105 0.068422586 -0.1698581 -0.037128452
-0.5478579 -0.26453134 0.16830821 -0.22678468 -0.052675 0.06757386 0.077133566 0.1495944
-0.35815305 -0.17043428 0.11268498 -0.033828575 0.22150244 -0.09473147 0.02198051 0.037362605
0.029130574 0.118500605 0.012293013 -0.18968444 -0.18666784 0.08250898 0.33040336 0.102398
-0.090427876 -0.12719204 -0.24773245 -0.23229003 -0.028133688 0.21857648 -0.235703 0.18690205
0.2595391 0.17888647 0.22710828 0.09635835 -0.21255316 0.09281911 0.044572007 0.097679965
-0.0971071 0.09078183 -0.5310662 -0.14238757 -0.24330217 0.074197695 -0.04970182 -0.39034656
0.24568291 -0.099697426 -0.26959538 0.46044606 0.033341415 -0.48530793 -0.041851282 -0.024121588
0.38356936 0.17592059 0.24809636 -0.09617885 0.09199153 0.063085735 -0.03240015 -0.08190888
-0.07317364 -0.2411494 -0.12882808 -0.15763508 0.11169721 -0.023835959 -0.108362265 0.05677746
0.025419315 0.27875158 -0.32359082 0.18215463 0.35664067 0.119931705 0.100165874 0.14512323
0.113712244 -0.046685033 0.19690633 0.017842887 -0.20078887 0.1616501 -0.34881073 -0.0011005405
00000000: f364 10be f958 2a3d 0498 97be 7198 003e
00000010: f2a5 7e3e 3eef 933d 6a9c 623c df4b b63e
00000020: d4ae c93e d784 d7bc acd8 fd3d f190 49be
00000030: 1b40 6e3e 6601 b43e faee 2f3e 99f1 4d3e
00000040: 598f 2a3e fd8d 273d 8eec 26be b18f f0bd
00000050: 40c6 3e3d 735d 473d 60b5 cfbe acc8 82be
00000060: 41ef f13c 6cff c1be a3de 5e3e d714 723e
00000070: 61c7 6a3e 0643 163d c199 11be 7168 0fbd
00000080: 0c68 b33c 9767 9a3e 0aa2 a53e e41e 39be
00000090: 47f0 cd3c 0217 69be fa17 b93d 2112 08be
000000a0: 7b7e b0be d96b 29be d5f4 fa3d b622 ad3d
000000b0: 444c d0be 7bcb 233d 3ed7 053e 3de9 6b3e
000000c0: b7d7 16bb 166f fb3c 9cb1 7d3e 2d86 913d
000000d0: 46fc 17bf 4246 ee3c fd72 d23e 2210 f5bd
000000e0: 6c52 d4be a361 7d3d c0f5 b43d 1409 213d
000000f0: d666 e13e 0209 d23d 6b88 cc3e 094a 8e3d
00000100: b1c0 d3bd cd99 f73d f5fe 323e 6429 d4be
00000110: 5712 893d 3c0e d4bd a772 a73e 0be4 593e
00000120: f2a8 d9be 2771 10bf c66b 993e c422 173e
00000130: a8e6 023e da13 963e 1041 323e 39d7 83bc
00000140: 0385 a73e 8e36 2b3e 8725 8b3e 8531 0a3e
00000150: 234c 063e fb7b abbe 61a3 c7be cbac 8c3d
00000160: 9ec9 34be efff 813d 1a08 85bc ee18 8c3e
00000170: 368e 433e b96a 43bd a383 7e3e 0f1f 18be
00000180: 02fb 33be 659a 02be 373f 09bf 0b38 4dbe
00000190: 6a8a dd3e 7d7c 4bbd 3f7f 46bf 6b0d c03d
000001a0: 80fc b33c 5ffd 0e3e 6111 d1bc 9d42 1cbc
000001b0: 2b38 a63e 0de5 edbb 597f 7c3e 5493 10be
000001c0: 844b d73d 8bfb 0abd d86e f5bc 3997 f2be
000001d0: a3a2 b23d 568e f53e 93a9 2fbd 8735 c33d
000001e0: fec4 843e 4674 323c d0d0 a43c 2075 8e3d
000001f0: d246 983c bfb5 0e3d 98c1 033e 7844 743d
00000200: 1d47 b0be a71c f53d fca1 2f3e d37e 343d
00000210: 5e5e 183e 10b0 063d bf7d b43e e2d5 3fbe
00000220: f105 95be d453 8d3e e70b 51be 1bdb 58be
00000230: 4064 b83d 84e1 bf3d df36 313e 9f88 feba
00000240: f8a4 433c 1280 803c a020 033e 1fb3 0d3e
00000250: fd40 ce3d 97ae 363e 59c5 a83d 2d5d 42be
00000260: 621a 5d3d 8dd2 843e de1e 3a3e 4336 f5bd
00000270: 6e1a 8f3e d5c6 d03d 86ca fdbe 3494 7cbe
00000280: d5ce 933d 543f 2d3e eba5 833e 4d32 87bd
00000290: 1f71 b3bd 2421 8c3d 48ef 2dbe 0114 18bd
000002a0: 6a40 0cbf a770 87be fd58 2c3e 3e3a 68be
000002b0: bec1 57bd 2a64 8a3d 34f8 9d3d 462f 193e
000002c0: d65f b7be 5386 2ebe 62c7 e63d d58f 0abd
000002d0: 89d1 623e 9302 c2bd 7810 b43c 8809 193d
000002e0: 3ea3 ee3c 72b0 f23d a268 493c a33c 42be
000002f0: db25 3fbe 78fa a83d a12a a93e 0bb6 d13d
00000300: 4032 b9bd a13e 02be 93ad 7dbe 70dd 6dbe
00000310: 9f78 e6bc 83d2 5f3e 215c 71be 4063 3f3e
00000320: 4fe2 843e 042e 373e 138f 683e 8757 c53d
00000330: 89a7 59be f217 be3d 2391 363d 6f0c c83d
00000340: 16e0 c6bd d3eb b93d f4f3 07bf 0cce 11be
00000350: 3424 79be f6f4 973d 2394 4bbd 81db c7be
00000360: 4d94 7b3e 2a2e ccbd 6808 8abe 96bf eb3e
00000370: 0291 083d 487a f8be 406c 2bbd a39a c5bc
00000380: 3463 c43e 8724 343e f90c 7e3e 6bf9 c4bd
00000390: 0e66 bc3d 1833 813d 05b6 04bd d8bf a7bd
000003a0: 10dc 95bd deef 76be 82eb 03be 176b 21be
000003b0: 82c1 e43d a143 c3bc 09ed ddbd 7b8f 683d
000003c0: 2b3c d03c 87b8 8e3e b2ad a5be be86 3a3e
000003d0: 9b99 b63e c19e f53d c423 cd3d 2f9b 143e
000003e0: f7e1 e83d ce38 3fbd d0a1 493e 3f2b 923c
000003f0: 999b 4dbe 9b87 253e 5297 b2be 0340 90ba

fc1.bias f4 [84]
0.1578093 0.09160888 -0.023040485 0.15875311 0.017921235 -0.036109243 0.008034661 0.11632579
0.18493009 0.11952761 0.168096 0.12873116 0.0067445524 0.27548134 0.042203516 -0.043987043
0.008353505 0.032551993 0.054294486 0.028462274 0.13263294 0.098834574 0.13461813 -0.05049558
0.2177095 0.15834136 -0.04304101 0.102719225 0.03844892 0.0046066283 0.0484547 0.05220405
0.12063883 0.057415232 0.08670893 0.037373487 -0.04551267 0.10122352 0.092972204 0.024457071
-0.08545744 -0.028491393 0.1501209 -0.024825111 -0.020601872 0.14947614 0.05050131 0.005870532
0.013647416 0.12807399 0.123077676 0.14607881 0.057477154 0.14404635 -0.013372283 0.016152123
0.071765505 -0.03239275 0.10108812 0.022663603 0.041367624 0.0028883833 0.042716563 0.16235438
0.0045922315 0.033231817 0.050916553 -0.018580122 0.04262625 0.03394463 0.13573445 0.10091693
0.04750999 0.2177848 0.102885514 -0.00275034 -0.0289855 0.21597831 0.083652094 0.08277904
0.13235004 0.11196699 0.15120262 0.22333571
00000000: c398 213e 709d bb3d 66bf bcbc 2d90 223e
00000010: 8ecf 923c 49e7 13bd d0a3 033c 373c ee3d
00000020: 505e 3d3e e4ca f43d 5c21 2c3e 1ad2 033e
00000030: 6801 dd3b e40b 8d3e 98dd 2c3d c22b 34bd
00000040: 24dd 083c 3d55 053d e563 5e3d b729 e93c
00000050: eed0 073e c869 ca3d 56d9 093e 74d4 4ebd
00000060: 3def 5e3e 3d24 223e c54b 30bd 755e d23d
00000070: 9d7c 1d3d 33f3 963b 6f78 463d ead3 553d
00000080: 7e11 f73d 3c2c 6b3d 7494 b13d f114 193d
00000090: 7e6b 3abd 474e cf3d 3668 be3d 325a c83c
000000a0: 4f04 afbd c866 e9bc 4bb9 193e 085e cbbc
000000b0: 42c5 a8bc 4610 193e 76da 4e3d 975d c03b
000000c0: 6999 5f3c d425 033e 2610 fc3d af95 153e
000000d0: 2a6d 6b3d e380 133e 6c17 5bbc 7551 843c
000000e0: cbf9 923d 43ae 04bd 4a07 cf3d 05a9 b93c
000000f0: 1971 293d 084b 3d3b 90f7 2e3d 3a40 263e
00000100: 6e7a 963b 161e 083d e08d 503d 5735 98bc
00000110: dd98 2e3d 8609 0b3d f9fd 0a3e 89ad ce3d
00000120: d699 423d fb02 5f3e a4b5 d23d 0c3f 34bb
00000130: 0073 edbc 6b29 5d3e ca51 ab3d 0f88 a93d
00000140: c586 073e f34e e53d dcd4 1a3e 1eb2 643e

fc2.weight f4 [10, 84]
-0.56775504 -0.33842593 -0.2624872 0.14434592 0.2389085 -0.09404778 -0.22276509 -0.24486576
0.15076002 -0.48139828 -0.33254185 0.08225564 -0.30130178 0.17507243 0.14737652 -0.5989304
-0.23502095 0.12080956 -0.10167777 0.16618697 0.18640178 -0.62761855 -0.5972612 0.12128914
0.24231246 -0.32918063 0.11546961 0.18065386 -0.018820701 0.20535031 0.22329858 0.1297591
0.06810176 0.07554515 -0.36160603 0.07374652 -0.22603343 0.110244274 -0.11613956 0.07205161
0.19763157 -0.36811587 -0.2780548 0.17134018 -0.0620202 -0.39393422 -0.074558936 -0.3473928
0.18305986 -0.38473147 -0.2532081 -0.24755354 -0.33543104 0.08215085 0.026413005 -0.35995707
-0.08086931 0.18725857 0.27477267 -0.3406498 -0.29495418 -0.63426125 0.16335091 0.30234644
0.14638963 -0.32940206 -0.44661283 -0.27310255 0.027400693 0.12045675 -0.44628698 0.115358844
-0.433039 0.21230291 -0.19260296 -0.42628932 0.2555717 -0.39574856 -0.50414217 -0.51552814
-0.22291856 -0.4208697 -0.45250183 0.17627953 -0.6137115 -0.09502528 -0.30480236 -0.21366593
-0.107360266 0.18332675 0.37907913 0.16123208 -0.42225483 -0.52075535 -0.48663148 -0.058895543
-0.2378455 -0.24945061 0.07576167 -0.0645034 0.06197669 0.20535848 0.35923776 -0.09682392
0.20475948 -0.55176973 0.3762672 0.11267485 -0.05863061 -0.5379158 0.14882362 -0.09950917
-0.45314127 -0.43653503 -0.40401673 0.19921732 -0.22010829 0.07161727 -0.07338876 0.16013017
0.37448677 -0.24032031 0.28229025 -0.49889797 0.29019836 -0.049337443 0.39246443 0.2345998
0.17002593 -0.12460601 0.3602835 0.36801484 -0.16134422 -0.19856314 -0.044262514 -0.4073792
-0.20919284 -0.7043034 0.40847677 -0.48453966 0.05475878 -0.38011444 -0.07873636 -0.40242764
-0.3630389 -0.37488326 -0.5072259 -0.05267388 0.037662525 0.29502827 -0.122303 -0.525641
0.087217964 -0.4796645 -0.22095257 -0.14102808 0.30723453 -0.49214435 0.2963788 -0.11051381
-0.30969313 -0.10477245 0.072333865 0.29791284 -0.38711503 -0.3533552 -0.41793403 -0.41639915
0.23786856 -0.30718648 0.5609153 0.14481775 -0.4142932 -0.34833637 -0.62377703 0.19187337
0.15254344 0.15417168 -0.17607872 -0.12506475 0.1921992 0.06350603 -0.5630679 -0.03384896
-0.653646 0.19150868 0.007874955 -0.03354374 0.24597408 0.19952928 -0.004604329 0.06159414
0.16521645 0.20768571 0.17983742 -0.48643997 -0.55047995 -0.61511934 0.09360923 -0.34361246
0.08997398 -0.3409267 -0.35987937 -0.31375888 -0.23629181 0.34501362 0.064862885 -0.031418808
0.13712123 0.28472236 0.110029556 0.047307067 -0.2376703 -0.61809367 -0.4719168 -0.47707233
-0.3636455 -0.37858078 -0.31922352 0.10877884 0.17403932 0.033243652 0.06264393 0.19220243
-0.35199964 0.18385153 -0.1232334 0.11582892 -0.02474329 -0.43041497 -0.10080121 0.08659585
0.02495754 -0.27495533 -0.2679762 -0.37864092 0.17511797 0.20710817 0.20968293 -0.027098542
-0.58232194 -0.042911276 0.09181719 -0.7299232 -0.5136437 -0.48426884 -0.6135043 -0.01271171
-0.4699083 0.15398681 -0.14283104 -0.12667026 -0.10991176 0.18463749 -0.10116158 -0.545159
00000000: 6558 11bf 2a46 adbe b964 86be 6bcf 133e
00000010: 6ea4 743e 1f9c c0bd 881c 64be 17be 7abe
00000020: d660 1a3e d679 f6be ed42 aabe a575 a83d
00000030: 3a44 9abe 3046 333e dfe9 163e 8153 19bf
00000040: 55a9 70be 016b f73d 6f3c d0bd eb2c 2a3e
00000050: 1ce0 3e3e 9cab 20bf 1ce6 18bf 7166 f83d
00000060: c220 783e 5d8a a8be 557b ec3d 53fd 383e
00000070: df2d 9abc 5a47 523e 62a8 643e 92df 043e
00000080: f078 8b3d 6ab7 9a3d 6d24 b9be 6a08 973d
00000090: 4f75 67be c0c7 e13d 94da edbd cb8f 933d
000000a0: ee5f 4a3e af79 bcbe 335d 8ebe cd73 2f3e
000000b0: e508 7ebd bfb1 c9be 5bb2 98bd 78dd b1be
000000c0: 0b74 3b3e 86fb c4be 7ea4 81be ad7e 7dbe
000000d0: 9ebd abbe b43e a83d 1660 d83c 4b4c b8be
000000e0: cf9e a5bd b6c0 3f3e 01af 8c3e a769 aebe
000000f0: 3c04 97be f25e 22bf 7645 273e 27cd 9a3e
00000100: 2ae7 153e 63a7 a8be 70aa e4be 19d4 8bbe
00000110: 6b77 e03c 07b2 f63d ba7f e4be 4241 ec3d
00000120: 4ab7 ddbe ef65 593e b639 45be 9842 dabe
00000130: 4bda 823e 8e9f cabe 760f 01bf a7f9 03bf
00000140: c344 64be 3c7c d7be 52ae e7be 9f82 343e
00000150: 321c 1dbf 9d9c c2bd 0e0f 9cbe 3ecb 5abe
00000160: b3df dbbd 02ba 3b3e a916 c23e 061a 253e
00000170: c931 d8be 3950 05bf c327 f9be 743c 71bd
00000180: c58d 73be fb6f 7fbe ef28 9b3d 5c1a 84bd
00000190: 45db 7d3d 7e49 523e 03ee b73e 9f4b c6bd
000001a0: 78ac 513e c840 0dbf 18a6 c03e 12c2 e63d
000001b0: a726 70bd dab4 09bf 3865 183e 77cb cbbd
000001c0: 2202 e8be 8581 dfbe 48db cebe a0ff 4b3e
000001d0: 1164 61be 13ac 923d d94c 96bd 2af9 233e
000001e0: bbbc bf3e 8716 76be 5988 903e 8e6f ffbe
000001f0: e194 943e 0f16 4abd 19f1 c83e ee3a 703e
00000200: 471b 2e3e 7031 ffbd 1477 b83e 716c bc3e
00000210: 6b37 25be 2354 4bbe 9c4c 35bd 0294 d0be
00000220: a636 56be 3a4d 34bf de23 d13e 9515 f8be
00000230: be4a 603d 5c9e c2be 8740 a1bd ff0a cebe
00000240: 3ce0 b9be b3f0 bfbe 8ed9 01bf 91c0 57bd
00000250: 0544 1a3d f20d 973e ff79 fabd 6990 06bf
00000260: 559f b23d 9696 f5be 6441 62be aa69 10be
00000270: d84d 9d3e 58fa fbbe f6be 973e 1055 e2bd
00000280: 1990 9ebe f092 d6bd c723 943d 0888 983e
00000290: f133 c6be f9ea b4be 73fb d5be 4532 d5be
000002a0: d193 733e 8c47 9dbe 2598 0f3f 1b4b 143e
000002b0: 3d1e d4be 2559 b2be daaf 1fbf 747a 443e
000002c0: 5934 1c3e 2edf 1d3e fb4d 34be f910 00be
000002d0: decf 443e 730f 823d 3825 10bf 35a5 0abd
000002e0: 5855 27bf da1a 443e f505 013c 2965 09bd
000002f0: a1e0 7b3e 6751 4c3e e9df 96bb 234a 7c3d
00000300: 802e 293e 90ab 543e 4d27 383e a90e f9be
00000310: 41ec 0cbf 7678 1dbf 32b6 bf3d f9ed afbe
00000320: 4744 b83d f28d aebe 1c42 b8be 01a5 a0be
00000330: 7bf6 71be a0a5 b03e d5d6 843d 02b1 00bd
00000340: 8269 0c3e 21c7 913e 2d57 e13d 0ec5 413d
00000350: d85f 73be 633b 1ebf 149f f1be d342 f4be
00000360: be2f babe 57d5 c1be 4471 a3be 71c7 de3d
00000370: 5d37 323e 7f2a 083d 764b 803d b7d0 443e
00000380: 4c39 b4be 9343 3c3e cb61 fcbd b637 ed3d
00000390: 71b2 cabc 5a5f dcbe dd70 cebd 2a59 b13d
000003a0: c173 cc3c f2c6 8cbe 2d34 89be 39dd c1be
000003b0: 2052 333e 2a14 543e 1fb7 563e c3fd ddbc
000003c0: 0d13 15bf bcc3 2fbd a70a bc3d 3fdc 3abf
000003d0: 277e 03bf 16f2 f7be 9e0e 1dbf c744 50bc
000003e0: d297 f0be b8ae 1d3e 4d42 12be d9b5 01be
000003f0: 6b19 e1bd 9c11 3d3e cd2d cfbd 8a8f 0bbf

fc2.bias f4 [10]
0.053185333 -0.15224828 -0.09361336 0.07679985 0.0636582 -0.020267988 0.08753663 0.028129123
-0.08820203 -0.15044262
00000000: ddd8 593d f9e6 1bbe 5cb8 bfbd 3d49 9d3d
00000010: 3b5f 823d 0d09 a6bc 6846 b33d 0c6f e63c
00000020: 44a3 b4bd a10d 1abe

batch_norm1.weight f4 [6]
0.48730698 0.76670676 1.169281 0.9834373 1.1680744 1.0686511
00000000: 4d80 f93e e546 443f 00ab 953f 8cc2 7b3f
00000010: 7683 953f 8fc9 883f

batch_norm1.bias f4 [6]
-0.27907535 -0.07872412 -0.47657794 0.21662943 -0.080068514 0.07920616
00000000: f7e2 8ebe 1d3a a1bd 0602 f4be 1bd4 5d3e
00000010: f6fa a3bd d736 a23d

batch_norm1.running_mean f4 [6]
-0.44008827 -0.14184709 0.43035012 -0.34916636 -0.051344227 0.13365993
00000000: 4053 e1be 5d40 11be da56 dc3e efc5 b2be
00000010: 534e 52bd 26de 083e

batch_norm1.running_var f4 [6]
0.9969119 0.065319836 0.5666718 0.13857663 0.23654059 0.07371769
00000000: 9e35 7f3f 68c6 853d 6711 113f 08e7 0d3e
00000010: b237 723e 4df9 963d

batch_norm2.weight f4 [16]
0.9293143 0.94168335 0.99142873 1.1260229 1.0500315 0.99272937 1.0585052 0.9410102
0.8340272 0.98987174 0.82703185 1.1098694 1.0059247 0.8200738 1.1021075 1.0962249
00000000: 8be7 6d3f 2912 713f 46ce 7d3f 8521 903f
00000010: 6f67 863f 8323 7e3f 197d 873f 0be6 703f
00000020: ce82 553f 3c68 7d3f 5cb8 533f 3310 8e3f
00000030: 24c2 803f 5bf0 513f dc11 8d3f 1951 8c3f

batch_norm2.bias f4 [16]
-0.21116707 -0.19134404 -0.22768793 -0.239084 -0.24719188 -0.25980145 -0.3269674 -0.0037039851
-0.34634516 -0.3145064 -0.3329431 -0.28527603 -0.17968029 -0.17774123 -0.33167243 -0.28272843
00000000: 2e3c 58be b1ef 43be 0627 69be 70d2 74be
00000010: de1f 7dbe b204 85be 4568 a7be 8fbe 72bb
00000020: 2754 b1be fc06 a1be 8577 aabe b30f 92be
00000030: 1cfe 37be cc01 36be f8d0 a9be c8c1 90be

batch_norm2.running_mean f4 [16]
-1.3394408 -0.0913373 -0.7412543 -0.7885613 -0.5664594 -0.8137369 -0.6137942 -0.75670016
-0.00756192 -1.5174515 0.14413394 -1.2722512 -1.592871 -0.66521984 -1.2858124 -0.97324157
00000000: cc72 abbf 0d0f bbbd d8c2 3dbf 27df 49bf
00000010: 7c03 11bf 1051 50bf 9e21 1dbf 1ab7 41bf
00000020: fcc9 f7bb da3b c2bf d997 133e 21d9 a2bf
00000030: 32e3 cbbf d94b 2abf 8095 a4bf 5c26 79bf

batch_norm2.running_var f4 [16]
2.1341195 0.90955174 0.55881935 1.1599451 1.4201026 1.3579972 1.4330842 1.2902001
1.6186934 2.2075949 1.1731256 3.4259348 2.488928 0.9132151 2.8251958 1.6265743
00000000: 6a95 0840 62d8 683f c90e 0f3f 1579 943f
00000010: ecc5 b53f dad2 ad3f 4e6f b73f 4725 a53f
00000020: 5831 cf3f 3c49 0d40 fb28 963f 8442 5b40
00000030: 994a 1f40 77c8 693f 02d0 3440 9633 d03f

batch_norm3.weight f4 [120]
1.2051526 1.3663237 1.136789 1.2630628 1.2401073 1.1987414 1.0590514 1.2946944
1.267257 1.2525821 1.0957882 1.2605374 1.1330153 1.1899956 1.2620511 1.3377314
1.5327353 1.3815783 1.2702366 1.138466 1.2987207 1.3657957 1.40568 1.7115021
1.438373 1.2846365 1.494027 1.2371235 1.1735755 1.2201492 1.2257185 1.4835442
1.1271963 1.2135558 1.4277319 1.3627063 1.258659 1.1507372 1.3166955 1.3449088
1.3164221 1.21705 1.0650271 1.1198298 1.264099 1.1624712 1.1904941 1.2206273
1.4023015 1.3519797 1.2877153 1.2788373 1.258412 1.2179203 1.3255119 1.0971144
1.3235364 1.3241907 1.1229122 1.3027228 1.3331953 1.3877401 1.3105353 1.2063793
1.3502791 1.3145717 1.0551481 1.2499676 1.0846226 1.6544958 1.2665052 1.1626903
1.2985594 1.3479118 1.2884153 1.3128581 1.2566104 1.2571071 1.2744274 1.3151346
1.4519569 1.3471402 1.1999816 1.066344 1.3399804 1.2993324 1.2552936 1.1585644
1.4379616 1.2310777 1.2715098 1.2098916 1.3928697 1.5124027 1.3625193 1.381905
1.171865 1.1337903 1.2293524 1.4178238 1.2383409 1.3381685 1.4409175 0.99288577
1.4350069 1.2648163 1.3920956 1.5016639 1.2693266 1.0433037 1.3203284 1.3136507
1.1140865 1.3380874 1.4677949 1.339426 1.2272887 1.2571213 1.4288 1.2226813
00000000: 7142 9a3f b2e3 ae3f 4d82 913f 0bac a13f
00000010: d6bb 9e3f 5c70 993f ff8e 873f 8cb8 a53f
00000020: 7a35 a23f 9c54 a03f ca42 8c3f 4a59 a13f
00000030: a506 913f c751 983f e48a a13f c83a ab3f
00000040: ac30 c43f 8fd7 b03f 1d97 a23f 41b9 913f
00000050: 7b3c a63f 65d2 ae3f 52ed b33f 8012 db3f
00000060: 9b1c b83f f86e a43f 473c bf3f 105a 9e3f
00000070: b937 963f d92d 9c3f 58e4 9c3f c7e4 bd3f
00000080: f847 903f cc55 9b3f ebbf b63f 296d ae3f
00000090: bd1b a13f 5b4b 933f 7a89 a83f f925 ac3f
000000a0: 8580 a83f 4bc8 9b3f cf52 883f 9556 8f3f
000000b0: ffcd a13f dbcb 943f 1c62 983f 843d 9c3f
000000c0: 9e7e b33f ac0d ad3f dbd3 a43f f1b0 a33f
000000d0: a513 a13f d0e4 9b3f 60aa a93f 3f6e 8c3f
000000e0: a469 a93f 157f a93f 96bb 8f3f 9fbf a63f
000000f0: 25a6 aa3f 78a1 b13f 9fbf a73f a36a 9a3f
00000100: f2d5 ac3f e343 a83f 180f 873f f0fe 9f3f
00000110: ead4 8a3f 85c6 d33f d81c a23f 09d3 943f
00000120: 3237 a63f 6088 ac3f cbea a43f bc0b a83f
00000130: 9cd8 a03f e3e8 a03f 7020 a33f 5556 a83f
00000140: b9d9 b93f 176f ac3f ff98 993f f67d 883f
00000150: 7a84 ab3f 8650 a63f 76ad a03f d74b 943f
00000160: 200f b83f f493 9d3f d5c0 a23f badd 9a3f
00000170: 8e49 b23f 6996 c13f 0867 ae3f 43e2 b03f
00000180: acff 953f 0a20 913f 6b5b 9d3f 407b b53f
00000190: f481 9e3f 1b49 ab3f fc6f b83f c32d 7e3f
000001a0: 4eae b73f 80e5 a13f 3030 b23f 8636 c03f
000001b0: 4b79 a23f fa8a 853f 8500 a93f b525 a83f
000001c0: 639a 8e3f 7346 ab3f b4e0 bb3f 5072 ab3f
000001d0: cc17 9d3f 5ae9 a03f ebe2 b63f d280 9c3f

batch_norm3.bias f4 [120]
-0.10792021 -0.07996854 0.047099795 -0.08831254 -0.11599357 0.05498942 0.08367373 0.07024822
-0.0032282942 0.024913074 0.0055100485 -0.19144142 -0.11186836 -0.015879164 -0.09408395 -0.0080404645
0.026018111 -0.08131737 -0.040843334 -0.12810196 0.10194935 -0.12303139 0.03031452 -0.05288608
-0.039873436 0.1056819 0.0378138 0.03731849 -0.081166595 -0.08424896 -0.11564391 0.007257207
-0.09428547 0.025790676 -0.09720091 -0.030540481 -0.06574166 -0.07463697 -0.17901039 -0.1232841
0.009610822 -0.1477027 -0.070848554 -0.10037126 0.02728895 -0.078830376 -0.16979621 -0.0485774
0.0022651998 0.020914532 -0.044742133 -0.14535877 0.13164908 -0.10267159 0.039034832 -0.06884266
-0.1060133 -0.06068091 -0.045306545 -0.045582656 -0.06401066 -0.031697605 -0.10600697 -0.06334139
-0.10361959 -0.037392274 -0.1305803 -0.0060166414 -0.10372017 0.16959617 -0.055926673 -0.00298884
-0.13530159 0.07024735 -0.0030727547 -0.09367622 -0.020440299 -0.0459928 -0.08072546 -0.04974986
-0.020341257 -0.082702294 -0.03568503 -0.12797886 -0.09383949 -0.060119394 -0.015814664 -0.07410997
-0.11166954 -0.16554864 0.01627719 -0.19508442 -0.23622465 0.07953625 -0.16961084 -0.050591417
-0.09106487 0.06170245 0.049607784 -0.016604584 -0.050400678 -0.031185571 -0.03441188 -0.08321644
-0.082355246 0.088679396 0.07420812 0.039796893 -0.10618934 -0.12957957 -0.16685262 -0.014175886
-0.0060498337 -0.08567754 0.088857025 0.05337937 -0.13696708 -0.043214105 -0.061938282 0.020794474
00000000: 4505 ddbd 8cc6 a3bd b7eb 403d 34dd b4bd
00000010: 098e edbd 963c 613d 225d ab3d 4cde 8f3d
00000020: ca91 53bb 8116 cc3c a38d b43b 3809 44be
00000030: 3d1b e5bd 0515 82bc 16af c0bd 27bc 03bc
00000040: ef23 d53c b989 a6bd 574b 27bd 292d 03be
00000050: d2ca d03d e2f7 fbbd 2856 f83c 139f 58bd
00000060: 5452 23bd c16f d83d a5e2 1a3d 46db 183d
00000070: ac3a a6bd b88a acbd b7d6 ecbd ddcd ed3b
00000080: be18 c1bd f846 d33c 4511 c7bd 0830 fabc
00000090: 90a3 86bd 45db 98bd 804e 37be 607c fcbd
000000a0: b676 1d3c 603f 17be 0c19 91bd 728f cdbd
000000b0: 138d df3c d271 a1bd 0fdf 2dbe 19f9 46bd
000000c0: bf73 143b f454 ab3c 8743 37bd eed8 14be
000000d0: 04cf 063e 7c45 d2bd fde2 1f3d 61fd 8cbd
000000e0: 801d d9bd 8c8c 78bd 5b93 39bd e1b4 3abd
000000f0: 0518 83bd 59d5 01bd 2f1a d9bd 21b9 81bd
00000100: 8236 d4bd a428 19bd d8b6 05be 3f27 c5bb
00000110: 3e6b d4bd 9eaa 2d3e 5e13 65bd 6ae0 43bb
00000120: 808c 0abe d8dd 8f3d 4560 49bb 51d9 bfbd
00000130: 6a72 a7bc f262 3cbd 6453 a5bd 82c6 4bbd
00000140: b5a2 a6bc d25f a9bd 772a 12bd e40c 03be
00000150: eb2e c0bd c13f 76bd c18d 81bc f8c6 97bd
00000160: 00b3 e4bd 9585 29be be57 853c 36c4 47be
00000170: e0e4 71be e7e3 a23d 77ae 2dbe f238 4fbd
00000180: 3880 babd b5bb 7c3d 8831 4b3d 5606 88bc
00000190: f170 4ebd e278 ffbc 79f3 0cbd 626d aabd
000001a0: dea9 a8bd 8b9d b53d 6dfa 973d 1102 233d
000001b0: cc79 d9bd 82b0 04be 6adb 2abe fa41 68bc
000001c0: af3d c6bb b577 afbd acfa b53d 54a4 5a3d
000001d0: 1941 0cbe 4601 31bd ffb2 7dbd 2c59 aa3c

batch_norm3.running_mean f4 [120]
0.5304405 -0.81224823 1.7310334 -2.1233666 0.14066221 -3.0666537 -2.1807907 0.10220296
0.7411872 -1.4303871 -1.9363371 -0.98824525 0.12644595 2.1136663 -0.27754444 -2.307262
-0.0038693051 -0.110210106 -0.58745044 1.8764284 0.8257836 0.8616887 0.7152263 -0.37942076
-1.4687678 -0.66600335 1.8915765 0.8889615 1.114686 -0.7789277 0.017266136 -1.2877761
-1.7374489 -0.5008515 -0.35731438 -0.7882149 -2.1513913 -0.6881103 2.214001 0.05865611
-2.3242843 -1.9564472 -2.5847185 -2.2600818 -0.7820354 -1.7905916 -0.9495696 -0.60305816
0.3545104 0.8990649 1.1234413 -1.6597798 0.84929246 0.7738152 0.60640955 -1.6475809
2.6015174 1.4916354 0.8544569 -0.8214004 0.24516563 1.3173847 1.5556003 2.5476174
0.36155456 1.1629303 0.13791576 -0.055453356 2.876309 1.8989223 0.52450895 0.5131374
2.7461061 1.7042391 -1.4169732 0.010613553 1.5311873 0.18110207 1.3181112 -2.5448253
0.5476602 1.2021394 0.88408345 -0.403149 0.5501183 -0.101917505 -1.9946897 0.3160128
1.3134414 1.182197 -0.29919416 -0.2154903 1.6670382 0.83107716 0.28917032 -1.1266029
-1.1031245 -0.91140646 0.58519906 2.1897714 0.7585676 -0.42868406 0.8588879 0.5855632
-0.613317 0.5480455 0.65747356 -1.0018064 0.058499817 -0.8288875 -0.20641658 -0.7518298
0.33931005 -1.3386942 2.2352772 1.5631378 1.8816344 -1.0768414 0.4129333 1.1640412
00000000: f3ca 073f 80ef 4fbf 8192 dd3f 3de5 07c0
00000010: c109 103e 0e44 44c0 1392 0bc0 c94f d13d
00000020: 72be 3d3f ed16 b7bf e5d9 f7bf a4fd 7cbf
00000030: 0c7b 013e 4f46 0740 4e1a 8ebe 2eaa 13c0
00000040: 2b94 7dbb d6b5 e1bd 2763 16bf ce2e f03f
00000050: 8e66 533f a197 5c3f 1219 373f 7043 c2be
00000060: 9500 bcbf 327f 2abf 2e1f f23f fb92 633f
00000070: 08ae 8e3f ce67 47bf b671 8d3c d9d5 a4bf
00000080: ba64 debf ce37 00bf e9f1 b6be 74c8 49bf
00000090: 65b0 09c0 ff27 30bf 31b2 0d40 6441 703d
000000a0: 13c1 14c0 dd6c fabf 076c 25c0 2ea5 10c0
000000b0: 7933 48bf 1b32 e5bf fe16 73bf 0562 1abf
000000c0: 6382 b53e 1e29 663f edcc 8f3f aa73 d4bf
000000d0: 3b6b 593f c118 463f a83d 1b3f eee3 d2bf
000000e0: 437f 2640 e9ed be3f b0bd 5a3f 4c47 52bf
000000f0: b30c 7b3e 10a0 a83f e91d c73f 2a0c 2340
00000100: ae1d b93e e6da 943f ca39 0d3e 0f23 63bd
00000110: 7215 3840 e30f f33f 3846 063f f95c 033f
00000120: 34c0 2f40 8224 da3f 615f b5bf 78e4 2d3c
00000130: f2fd c33f d272 393e deb7 a83f 6bde 22c0
00000140: 7533 0c3f b4df 993f 4b53 623f 8c69 cebe
00000150: 8ed4 0c3f 20ba d0bd fe51 ffbf 6ecc a13e
00000160: d91e a83f 3b52 973f fa2f 99be 7da9 5cbe
00000170: 8261 d53f 79c1 543f 220e 943e 8634 90bf
00000180: 2f33 8dbf ef51 69bf 9bcf 153f 3725 0c40
00000190: 7c31 423f 7a7c dbbe 14e0 5b3f 78e7 153f
000001a0: 5802 1dbf b64c 0c3f 3050 283f 313b 80bf
000001b0: 819d 6f3d f931 54bf de5e 53be eb77 40bf
000001c0: 0cba ad3e 555a abbf c80e 0f40 e614 c83f
000001d0: 65d9 f03f f0d5 89bf fe6b d33e 4dff 943f

batch_norm3.running_var f4 [120]
1.4445652 0.9725066 3.26918 0.8837156 1.1315314 1.3455776 3.1368945 1.3984983
1.3627145 1.4260603 2.004696 1.6045908 1.3061534 2.2132294 1.0475992 1.1223832
1.4752722 1.3916265 2.7925084 1.417446 2.025549 1.3002503 1.433824 2.241898
1.0276933 1.1603595 1.7193328 2.6479337 0.70773864 1.7345848 1.0743653 1.5391014
1.9313817 1.4788845 1.125622 1.0937483 1.4324071 1.0307753 1.1449257 1.1337329
0.91466606 0.89838934 2.8295536 1.2455959 1.9608219 1.5832267 1.2338881 1.6235126
1.3583698 1.0972731 1.2013258 0.8916067 1.3386883 1.1314209 1.2213128 1.2274139
1.8279859 1.2776837 2.6351929 1.0325806 1.0509425 1.1357224 1.0584741 1.3801277
1.1456457 1.6107732 1.7919816 2.1883376 1.2840905 2.7239983 1.7658727 1.6904912
1.0171608 1.8693328 1.0731761 1.0507764 1.205119 1.4273154 1.1070083 0.9302545
2.3703988 1.381872 1.3208904 2.235698 3.0250845 1.977211 1.4643313 1.1033721
1.7562765 1.3176186 1.0814 1.0851841 1.1153175 2.0066535 0.80952185 0.90935117
1.4851103 1.9373515 2.4089558 1.9646839 1.5480387 0.92226726 2.093243 2.1379337
1.1977025 1.5357472 1.725071 1.7374126 1.3744833 1.977403 1.3021278 2.0092394
2.2070715 1.1313112 1.9601814 2.6545253 1.6528181 0.95281893 1.34988 1.5531685
00000000: 83e7 b83f 31f6 783f 3f3a 5140 303b 623f
00000010: 05d6 903f e33b ac3f e1c2 4840 fe01 b33f
00000020: 6e6d ae3f 2589 b63f f04c 0040 3b63 cd3f
00000030: 0930 a73f 8da5 0d40 bb17 863f 41aa 8f3f
00000040: b8d5 bc3f d120 b23f 75b8 3240 df6e b53f
00000050: 98a2 0140 9a6e a63f 8b87 b73f 427b 0f40
00000060: 748b 833f a986 943f 1913 dc3f bf77 2940
00000070: 5c2e 353f e006 de3f cd84 893f 4601 c53f
00000080: 8437 f73f 164c bd3f 6214 903f f2ff 8b3f
00000090: 1e59 b73f 72f0 833f ed8c 923f 291e 913f
000000a0: 8e27 6a3f d8fc 653f 6817 3540 b06f 9f3f
000000b0: 36fc fa3f 2ca7 ca3f 0cf0 9d3f 43cf cf3f
000000c0: 10df ad3f 7273 8c3f 0bc5 993f 5640 643f
000000d0: 235a ab3f 66d2 903f fa53 9c3f e61b 9d3f
000000e0: 71fb e93f 248b a33f 00a7 2840 9a2b 843f
000000f0: 4985 863f 5a5f 913f 147c 873f 06a8 b03f
00000100: 85a4 923f d12d ce3f a75f e53f b90d 0c40
00000110: 145d a43f fd55 2e40 1e08 e23f 0462 d83f
00000120: 5332 823f 4c46 ef3f d65d 893f d77f 863f
00000130: 5741 9a3f 45b2 b63f 73b2 8d3f 2925 6e3f
00000140: 9db4 1740 2fe1 b03f f012 a93f ad15 0f40
00000150: fc9a 4140 4015 fd3f 356f bb3f 4c3b 8d3f
00000160: abcd e03f baa7 a83f 516b 8a3f 50e7 8a3f
00000170: b9c2 8e3f 036d 0040 d33c 4f3f 3dcb 683f
00000180: 1818 be3f 22fb f73f 552c 1a40 c37a fb3f
00000190: 2226 c63f b519 6c3f b1f7 0540 e8d3 0840
000001a0: 514e 993f 5d93 c43f 20cf dc3f 8963 de3f
000001b0: 12ef af3f 8b1b fd3f 20ac a63f 6197 0040
000001c0: a940 0d40 cece 903f 39e7 fa3f bee3 2940
000001d0: 8b8f d33f f1eb 733f dec8 ac3f 3ace c63f
