HW1/model_LeNet5_vanilla.pth (torch, 250606 bytes, 10 tensors)

conv1.weight f4 [6, 1, 5, 5]
00000000: 6955 b6bc c2f5 8cbe d40c 113e 1cbf 383e
00000010: 8c1c b53e 42d3 1abe 1e92 1abe 16fe 843e
00000020: a8e8 9e3e 22ac d63e 4c88 b3be f594 9cbe
00000030: 066f 56bd b52c b43e a434 963d 6fd7 cebe
00000040: 37e0 54be 3d8d 3f3e 8c18 6c3c 4e3c 933e
00000050: cd0f abbe 0ddb 69be 10aa 80bd a4f0 4cbd
00000060: 3e30 f6bd cd15 cfbd c6c1 0ebf b16b dfbe
00000070: 6ab4 f4be 6bba 53be c452 acbd 9394 84be
00000080: 4b35 0bbf 5776 c5be aa9a b6be 10e2 8b3e
00000090: 17c3 733d a74d dcbd 4437 87bd 8bfc 233e
000000a0: 4780 7bbd daec 0fbe 1a43 2ebe f239 583d
000000b0: b500 cebd 8dee 2a3d a3b1 98be 6953 d1bc
000000c0: 2f0f 7ebd 2290 643d 103c 12be 51f3 abbe
000000d0: 9aef e2bd 8159 33be 6f26 f9bd 5095 9bbe
000000e0: 9e5f 96be d631 61be fb5f 67be 1775 033e
000000f0: 43de 68be 28b7 a2be c36b 023c 9d60 c43d
00000100: c010 383e 20d2 8ebd 2a80 9fbd e784 4a3e
00000110: d58c b63d d4ad 6abd 3d48 28be 8577 52bd
00000120: b8e3 5fbd 8afc c03c 07f3 853e 6dd0 e6be
00000130: 43d6 f6be 17b2 30bf 04c9 3e3c 87bc d23d
00000140: 288e 30be ae9d 02bf 6277 04bf 1b95 093e
00000150: 6d69 5e3e dc4d fb3e 51d7 963d 8d3d a5be
00000160: 0789 0f3e 1ef4 5c3e 3070 c43e ec66 43bd
00000170: 422c 72be df63 113e 0b5c 403e d5c5 9c3e
00000180: 18a5 0e3c f415 0ebe 959a 5f3e 53f2 903e
00000190: 5d1a 3abd 0742 483e 28a6 9e3e bedf 833d
000001a0: e47b 5a3e be54 32be d29a c3bd bad9 303e
000001b0: 9c35 853b 363a 093d 4df2 113e 9f18 f63d
000001c0: 968f 8f3d c0ac 1e3e 060b afbd a7bc cf3d
000001d0: e6a9 d73d 8f12 c13d 0020 5c3e 2fc1 283e
000001e0: 06df 44bd 11e8 3d3e 3678 303d c0e2 183e
000001f0: 1fe6 173e 08cb 393e b7ba a83e 13ab a83e
00000200: b040 eebd 83c8 1abe 151e 033d 3a14 31bd
00000210: 3a5f 6e3e f0da f93c 2990 87be 09ec 613d
00000220: 6b18 383e 0ffc 87bd 1247 863b ca0c 35be
00000230: 5aad 483e 494a 0c3e df18 983e c2b6 c9bd
00000240: d75e d3bd 9616 053e 270c 273e 3d89 733e
00000250: ed4f 8b3b 2e78 0dbe
-0.022257524 -0.27531248 0.1416505 0.18041652 0.35373342 -0.15119651 -0.15094802 0.25975102
0.31036878 0.41928202 -0.35064924 -0.30582395 -0.052351974 0.3519036 0.07334259 -0.40398738
-0.20788656 0.18706222 0.014410149 0.28756946 -0.33410493 -0.22837467 -0.06282437 -0.05003418
-0.1202092 -0.1011158 -0.55764425 -0.4363685 -0.47793895 -0.20676582 -0.08414224 -0.25894603
-0.54378194 -0.3856685 -0.35664874 0.2732091 0.059512224 -0.107569985 -0.06602338 0.16014306
-0.06140163 -0.14055195 -0.17017785 0.052789636 -0.100587286 0.041731406 -0.29823026 -0.025552468
-0.0620262 0.05580152 -0.14280725 -0.33584073 -0.110808566 -0.17514612 -0.12165534 -0.30387354
-0.29369825 -0.21991667 -0.22595207 0.12837635 -0.22741036 -0.31780362 0.007960263 0.0958874
0.1797514 -0.06973672 -0.07788117 0.1977726 0.0891358 -0.05729468 -0.16433807 -0.051383514
-0.05466053 0.02355792 0.26161978 -0.4508089 -0.48210344 -0.69021744 0.011644606 0.10289865
-0.17241728 -0.5102185 -0.51744664 0.13435785 0.21719904 0.4908284 0.07365287 -0.32273522
0.14017116 0.21577498 0.38366842 -0.047705576 -0.23649696 0.14198254 0.18785112 0.30619684
0.008706354 -0.13875562 0.21836312 0.2830988 -0.0454353 0.19556437 0.30986142 0.0643916
0.21336323 -0.17415139 -0.09551014 0.17270556 0.0040652286 0.03350278 0.14252587 0.12016415
0.07009809 0.15495586 -0.085470244 0.101434045 0.105304524 0.09427368 0.21496582 0.16479944
-0.048064254 0.18545558 0.043083392 0.14930248 0.14833878 0.18143857 0.32954952 0.3294302
-0.11633432 -0.15115552 0.03201111 -0.04323218 0.23278514 0.030499905 -0.26477173 0.05515674
0.17978065 -0.06639873 0.0040978277 -0.1768066 0.19597378 0.13700213 0.29706475 -0.098493114
-0.10320824 0.12996897 0.1631323 0.23782821 0.0042514713 -0.13815376

conv1.bias f4 [6]
00000000: 672e e73d 3d6a b8be 934e 37bf cbf7 a3be
00000010: b104 20be af3b 3e3d
0.112881474 -0.36018553 -0.7160427 -0.3202499 -0.1562679 0.046443637

conv2.weight f4 [16, 6, 5, 5]
00000000: ff35 6dbe 16e5 9fbe 6d34 71bd 1887 b3bd
00000010: 75db d83b 6605 d7bd e0c0 50be 0400 193b
00000020: 2900 d53d 1ee4 033e 3369 2bbe 9383 60be
00000030: 8c05 9a3d 7883 0e3e d8d5 363e e006 3f3d
00000040: f93c 48be 3f67 f8bd f5c6 573d fd1a 743e
00000050: 7924 d7bd 1272 64be b219 2cbe 6582 82bc
00000060: 1d4d b33d 685f 23bc ff35 423e e174 013e
00000070: 63c1 a13c 5346 1dbe 8186 6bbd b790 aa3d
00000080: e58e 623c fe7c f8bd 6b88 44be 5d09 79bd
00000090: 266d e73c f8c7 bf3d b843 d4bc 1765 b4bd
000000a0: 2b6d 3bbd 97a4 603d f467 0c3e 29ac c83d
000000b0: 6483 9dbb 2d9b 143d 780d 9b3d 3b89 623d
000000c0: 08a2 0f3e 2213 b53d 369c a2bd 303c c33d
000000d0: 1d05 9c3d 1eb3 813d 9973 10bd ef5b b8bd
000000e0: 8f4c 2abc ff17 023e 9e1d ffbc f00c 16bd
000000f0: 20ee 02be 68f2 b23d 1ad2 cc3d 6778 823d
00000100: 306e a53c 04ec d3bd f657 babd 8305 433d
00000110: fd1d 4f3d e7b9 713d 647c b8bd dcaf 883d
00000120: c7f7 de3d fe85 313e 6cdc 213e 3786 87bd
00000130: 5a20 543d 121b 873e 6bf7 703e 99d8 3f3d
00000140: b890 02be a9c0 b7bc 8158 263d b894 0cbe
00000150: 59b0 88bd 137f 4bbe 7d9c d5bd 65fc bf3d
00000160: c561 213c 57de 0fbc cccb 8abd 2f59 17be
00000170: 2b20 88bd f32a b0bd 4318 d63c 4d6d 5abe
00000180: 88b4 1cbe f9c3 4339 9ffa c13d 8d7b b43d
00000190: 054d 7cbc 888d 94bd cb1e 1ebd c870 bc3d
000001a0: e38a 30bd 477a 093d 42e2 8ebd 473d 203c
000001b0: 5821 2d3d e58c 5fbc 00f2 733c 6cf4 2bbd
000001c0: 45ae 413c c1cd f13c 672d c8bd 282d 93bd
000001d0: bbb4 d8bb 9b29 0c3e 06c8 ecbc 74f2 cdbd
000001e0: 55a9 6a3d 4c51 9a3c 29e2 fa3d f936 08b9
000001f0: 085a dcbd 2a4a fbbd 720e 12be 8bd6 02be
00000200: 1a19 dbbb a1f8 14bd f774 b8bd ec29 c6bd
00000210: fb86 df3c cb33 f03d e280 47bd 4cc4 9fbc
00000220: 87af 67bd 3e2b 433d 163e c23d 6017 84bc
00000230: fb8e ce3c 07ed 11bd 7ced 933d 2d30 cc3c
00000240: f225 24be 541a 583d 1488 ed3d c05b 5d3d
00000250: ac95 5f3d 4662 10be 018d ed3b 4956 863d
00000260: af6a 34bd 268e 043e 431b 553e ce31 e83d
00000270: f110 00be 23cb 7dbe f4e4 a739 24c5 7e3b
00000280: a569 3abd 593c 58be aa41 9dbe 8675 49be
00000290: 79af 5bbe 78ad 653c 1103 2bbe bcec 3abe
000002a0: ce48 37bd 4854 34be 9fb8 4b3e 2e15 273d
000002b0: 934d a03d 26ad b63d 19ce dcbc 02d4 443e
000002c0: 090d 543d 0bcf 0f3e 8a06 ea3c bbc0 973d
000002d0: 932a 0d3e b113 f33d d06f dc3d b3d6 6e3d
000002e0: 0f86 b0bc 3a24 243d 1b3d 163c cb48 233d
000002f0: 491f 293d 4e53 1e3d a5d6 e0bc 2d03 07bd
00000300: 3cad 84bd c107 3b3c 69ed 57be a513 d4bd
00000310: a469 51be 8284 91bd 827d 47be c55e 83be
00000320: 17ac cb3d ec12 b23d 0fde 473d a128 b53d
00000330: e3c1 e53d ae1f 593e e39e 983d 84b9 ae3d
00000340: f1ad 9a3d d68a 8d3d 26e0 c13d c7b0 833c
00000350: 7599 b03d bb47 74bc 3f7e 143d 3a7c 0b3e
00000360: e83e e5bd 46cd c9bd 85fd 06be ceb1 edbd
00000370: 7ea2 883d b61b 08be 3baa 67be 78b2 5bbe
00000380: 3c95 53be 482c b03d eec0 83bd 7a42 1cbd
00000390: dee9 87bc 9c6a f0bd a372 be3d 8d9c 59bd
000003a0: ce9c 9b3d 2be9 2c3e 9727 113d e001 003e
000003b0: e7d6 4dbd 78c4 c8bb bb26 043e 68eb 2d3d
000003c0: fc09 fdbc c592 c2bd 3ad5 a9bd 4d8e 22bc
000003d0: 285c 05be 8c51 a63c 3631 debd bfd2 71be
000003e0: d647 6cbe 4d6d 6ebe 3721 7abd 2458 b2bb
000003f0: e850 e23c 0940 913c 7637 17be 35bd 0ebe
-0.23165129 -0.31229466 -0.058887888 -0.087660015 0.006617958 -0.104990765 -0.20386076 0.0023345957
0.10400421 0.12879989 -0.16739349 -0.21925192 0.07520589 0.13917339 0.17855012 0.046637416
-0.19554509 -0.12129068 0.052679975 0.2383842 -0.105050035 -0.2230914 -0.16806677 -0.015931318
0.087549426 -0.009971477 0.1896591 0.12642242 0.019745534 -0.15358858 -0.05750132 0.083283834
0.013828014 -0.12133215 -0.19192664 -0.060799945 0.028250288 0.09364313 -0.025911197 -0.08808344
-0.045758408 0.054844465 0.1371153 0.09798462 -0.0048069227 0.0362808 0.07570928 0.055306654
0.14026654 0.0884154 -0.07939951 0.09532964 0.07618163 0.06332992 -0.035266493 -0.0900191
-0.01039423 0.12704466 -0.031142052 -0.036633432 -0.1278615 0.087376416 0.10001011 0.06370621
0.020194143 -0.10347751 -0.090988085 0.04761268 0.05056571 0.05901518 -0.09008101 0.066741675
0.108871035 0.1733627 0.1580674 -0.06617396 0.051788665 0.2638784 0.23531882 0.046837423
-0.12750518 -0.022430735 0.040611748 -0.13728607 -0.06674261 -0.19872694 -0.104302384 0.09374312
0.00984997 -0.008781037 -0.067771524 -0.14780115 -0.066467606 -0.08601942 0.026134616 -0.21330757
-0.15303242 0.00018669655 0.0947163 0.08812628 -0.015399222 -0.072535574 -0.038603585 0.09201199
-0.043101203 0.03356388 -0.06976749 0.009780235 0.042268127 -0.013644432 0.01488924 -0.041981146
0.011821334 0.029517056 -0.09774285 -0.07186347 -0.0066133416 0.13687746 -0.028903972 -0.1005601
0.057290394 0.018837593 0.12250168 -0.0001299045 -0.107593596 -0.12270005 -0.14263323 -0.12777154
-0.006686342 -0.036369924 -0.09006684 -0.09675965 0.027286043 0.11728629 -0.048706897 -0.019502781
-0.05656388 0.04764866 0.09484498 -0.016124427 0.025214663 -0.035626438 0.07223031 0.024925316
-0.160301 0.052759483 0.115982205 0.054042578 0.054586098 -0.14099988 0.007249475 0.06559426
-0.044047054 0.1294485 0.20811181 0.113376245 -0.12506463 -0.24784522 0.00032023306 0.003887483
-0.045510907 -0.21116771 -0.3071416 -0.19673738 -0.21453656 0.014018409 -0.16700388 -0.1825437
-0.044747166 -0.17610276 0.19894646 0.040791683 0.07827296 0.08919744 -0.026953744 0.192215
0.051770244 0.14043824 0.028567571 0.07409807 0.13785772 0.1186899 0.10763514 0.058310222
-0.0215483 0.04007361 0.009169842 0.039864343 0.0412896 0.038653664 -0.0274461 -0.032962013
-0.06478354 0.011415423 -0.21086659 -0.103553094 -0.20450455 -0.07105352 -0.19481471 -0.2565824
0.09944933 0.08695015 0.048795756 0.0884564 0.112186216 0.21203491 0.0745218 0.08531478
0.07552708 0.069112465 0.09466581 0.016075505 0.086230196 -0.01490968 0.03625321 0.13621607
-0.11193639 -0.09853606 -0.13182648 -0.11606179 0.06671618 -0.13291821 -0.22623532 -0.21454799
-0.20662397 0.08602196 -0.06433283 -0.038149334 -0.016591009 -0.11739084 0.09299209 -0.053127814
0.075982675 0.16885822 0.035438146 0.12500715 -0.050253775 -0.0061269365 0.129054 0.04246083
-0.03088855 -0.0950065 -0.08292623 -0.009921622 -0.13023436 0.020302556 -0.1084923 -0.2361555
-0.23074278 -0.23283882 -0.061066832 -0.005442636 0.02762647 0.01773073 -0.1476725 -0.13939364

conv2.bias f4 [16]
00000000: 5a93 f2bc e21d 983d ae69 42bd 7962 db3d
00000010: d80a d9bd 6169 973d bfc2 8b3d eea7 19bd
00000020: fca1 fcbd 40e9 a9bd 2d87 0dbd 8ba9 01bd
00000030: 622b 52be 8716 053e a69b d1bd 9f23 273d
-0.029611278 0.07427575 -0.047464065 0.107121415 -0.105977714 0.07393146 0.06824254 -0.037513666
-0.123355836 -0.08296442 -0.03455274 -0.03165583 -0.20524362 0.12996875 -0.10234766 0.040805455

conv3.weight f4 [120, 16, 5, 5]
00000000: b471 ae3d e2ee 6f3c 0b27 bbbd 63bc 403d
00000010: 213d 2f3c c1bd 1bbd 2e48 0ebd 2d1f 87bd
00000020: 2941 e83d 863d 263a 3706 d83c 9df5 16bd
00000030: db90 84bb c373 a23c e89a 693d a5a3 5c3d
00000040: 799f 273d 7714 5cbd e5f5 813d 33ca 973c
00000050: 8049 923d 26e4 8cbd 0d38 1cbd 4378 42bc
00000060: d269 a83c 9745 d0ba e4e6 613c 12e6 e0bd
00000070: da91 89bd de7e 05bd ffeb 97bb 3ee1 4bbd
00000080: 93f4 643c c972 36bc f844 df3c c774 cabc
00000090: f71b 223c 4137 6f3a d831 9a3c c85e 81bc
000000a0: e674 4bbd 408b 86bd d8dc 94bd e773 b0bd
000000b0: 5022 08bd c0b5 4bbc 2a5b e63b 2b88 8cbc
000000c0: df84 b0bd cdcb 183d fc81 e9bc a569 3c3d
000000d0: c428 113d a810 00be 2ea5 693d 2e57 f0bc
000000e0: 88e8 6a3d 849f fe3c 7acd 9bbd d030 1abd
000000f0: dea9 a6bd d8a4 21bc 63d5 873d beb6 dc3b
00000100: ca6c 09bd ddab 84bd 7789 c0bc 7875 f83c
00000110: 6d3d cabd 543b 09be e6fe 2bbc 2704 d3bd
00000120: ee55 a6bc 9529 e2bc e9d8 aabd 6a82 bb3c
00000130: e24e 693d 5f21 4c3d e758 fabd c1a5 5a3d
00000140: d457 ccbc 50ca 67bd ca0a e6bc a978 c7bc
00000150: 151a 70bd f8f1 a53c 66c1 65bd 7b70 49bd
00000160: c3bf 00be ff77 70be a59e 05bd ecbd 9fbc
00000170: a6dd 95bc 00f0 e6bd 5a33 4abd 474a 2e3d
00000180: e5e9 bc3d ef75 ce3c 593c 04be 555c 063e
00000190: ccef c938 d307 d93d 7bb2 033e bcad 8ebd
000001a0: 1f4c d9bd 664f a63c 84ae 963d a891 46bd
000001b0: f167 ebbc f8a0 44bd 83d4 6fbc 777c 9fbc
000001c0: c880 c5bd be58 8a3d 6119 8a3d 1d69 a73c
000001d0: 6439 ac3c d677 afb9 8373 37bd 7244 c9bc
000001e0: 6974 ae3d b162 183d 11ef 52bd 00d4 663d
000001f0: 979a 2f3c fb5e 6ebe 06a1 c1bd 6e5d 7fbc
00000200: cec8 16bd c02b 38be 316c f1bd abca febb
00000210: d636 503c 03c4 a0bc fd6b b4bd a527 6bbd
00000220: 7efe 07bd 5148 623d 34b7 a03b ca3e 95bc
00000230: c40f 8cbc c306 5ebd 350d d93d d879 ae3d
00000240: 90b4 40bd 0a6c 083b d183 ff3c eaa9 df3d
00000250: d45c a7bc 9f74 963c b5c6 8cbd ca0e 2fbd
00000260: e071 573d 74ca 65be 4175 dbbd 87df 273b
00000270: 61ad 9dbc 9123 f8ba 205c a0bc 01fe 4f3d
00000280: 84e4 59bd 27f4 8abc c209 4f3d c9de 7dbd
00000290: e32f a73c db95 c63c aadc a73d d68c 773d
000002a0: 83ca 383b 5fe6 a83d 2648 d6bc 8e89 333d
000002b0: e762 193d 43dd b1bd 69f3 663d 14f6 f03c
000002c0: 0064 9cbc cd0c 213e 7054 00be bc63 9f3d
000002d0: 26d8 1dbd d507 25bd 2d3c 19bd 7b75 52be
000002e0: 9fe0 733d 9a9c 6abd cd3a c6bc 53d0 143d
000002f0: b1c3 09be 5bb1 4f3c 1f68 45bc b4fe a73a
00000300: 5204 933c 3424 1ebe 7441 bcbb 4458 1f3c
00000310: ed8e acbc 3fe5 9fbc 7bbf 54be 0772 afbc
00000320: 2471 be3d f9a4 9fbc 5395 d3bc ddff 903d
00000330: 0a9a b23c 19d0 9ebd 9c1f 02bd 1a07 94bc
00000340: d747 96bd eb04 e8bd bc94 57bb 477b 06bd
00000350: beef 133d 0859 49bc 0e98 8d3d 2af0 04bc
00000360: 6b6c 7fbd c871 eebc 02a7 0cbe 726e a1bc
00000370: 6e56 24bd 4413 423d 0405 4a3b f6f6 afbd
00000380: 1705 353c dfbf f9bd 070d 2abe b3e6 8b3e
00000390: dbbc 033d 8eb2 c5ba 641e 98bd cd1f 2fbc
000003a0: ded5 2b3e 25b0 69bc 9d3b da3d 51cf 32bd
000003b0: 47ab b03c c63f bdbd 752e 66bd ff64 d53d
000003c0: 6383 3cbd 545c 69bd 4d27 973d d550 0b3d
000003d0: d695 073c 09a3 343d a7be 24bc 4a77 4f3d
000003e0: 5c8c 3dbd 9bdc 1cbd f175 fabd c6a0 92bd
000003f0: ae8a 263e 6b69 10be 6de1 0cbe 417b b0bc
0.08517781 0.014644356 -0.09138306 0.04705466 0.010695727 -0.03802276 -0.034736805 -0.06597743
0.11340553 0.0006341565 0.026370151 -0.03685533 -0.0040455884 0.01983059 0.057032496 0.053867
0.04092357 -0.053730454 0.06345729 0.018529033 0.07142925 -0.06879453 -0.03813939 -0.011869493
0.020558272 -0.001588988 0.013787959 -0.109813824 -0.06717272 -0.032591693 -0.004636287 -0.049775355
0.013974327 -0.011135765 0.027254567 -0.024713887 0.009894363 0.000912536 0.018822595 -0.015792266
-0.04967203 -0.065695286 -0.07268685 -0.086158566 -0.033235848 -0.012433469 0.0070299106 -0.017154774
-0.08619093 0.037303735 -0.028504364 0.045999188 0.035439268 -0.12506354 0.057042293 -0.029338446
0.057350665 0.031081922 -0.07607551 -0.037644207 -0.08137868 -0.009865962 0.06632497 0.0067356518
-0.033551015 -0.06478093 -0.023503048 0.030329451 -0.09874997 -0.13401538 -0.010497784 -0.10303526
-0.020304646 -0.027607718 -0.083421536 0.022889335 0.056959994 0.049836513 -0.12223988 0.05338073
-0.024944223 -0.056589425 -0.028081317 -0.024349527 -0.058618624 0.020256981 -0.056092642 -0.049179535
-0.12573151 -0.23483275 -0.032622 -0.019499741 -0.018294167 -0.11276245 -0.04936538 0.042551305
0.09224299 0.02520272 -0.12913646 0.1312116 9.6290925e-05 0.105971955 0.12861054 -0.06966731
-0.10610222 0.020301532 0.07357505 -0.048478752 -0.028736087 -0.048005074 -0.014638069 -0.01946853
-0.09643704 0.067552075 0.06743122 0.020435864 0.02102346 -0.00033467886 -0.044787895 -0.02456877
0.08518297 0.037203494 -0.051497523 0.056354523 0.010718009 -0.2327842 -0.09454541 -0.01558624
-0.036812596 -0.1798544 -0.11788214 -0.0077756247 0.012708386 -0.019624716 -0.0880966 -0.057410855
-0.033201687 0.055244748 0.004904652 -0.018218417 -0.017097361 -0.054205667 0.10598222 0.085193336
-0.047047198 0.002081635 0.031190785 0.109210804 -0.020430006 0.018366156 -0.06873838 -0.042738713
0.052598834 -0.22440511 -0.10715724 0.002561541 -0.019247713 -0.0018931498 -0.019575179 0.050779346
-0.053196445 -0.016962124 0.050546415 -0.061980043 0.020408576 0.024241379 0.08196385 0.060437046
0.0028196878 0.08247065 -0.02615745 0.043832354 0.037447836 -0.086847804 0.056384478 0.029414214
-0.019090652 0.1572754 -0.1253221 0.07782695 -0.038536213 -0.040290672 -0.037410904 -0.20552628
0.059540387 -0.057278253 -0.02419796 0.036331486 -0.13453557 0.012676562 -0.01204875 0.0012816996
0.017946396 -0.15443498 -0.0057451073 0.009725634 -0.021064246 -0.019518493 -0.20776169 -0.021416677
0.092989236 -0.019487845 -0.02582804 0.07080052 0.021801967 -0.07754535 -0.031768426 -0.018069793
-0.07337921 -0.11329063 -0.003289505 -0.03283241 0.036117308 -0.012289293 0.06913768 -0.0081139
-0.062359255 -0.02910699 -0.13735583 -0.019705985 -0.04012149 0.047381654 0.0030825743 -0.08592026
0.011048577 -0.121948 -0.16606532 0.27324447 0.03216253 -0.0015083121 -0.074276716 -0.010688734
0.16780803 -0.014263188 0.106559016 -0.043654744 0.021566046 -0.092406794 -0.05619665 0.10419654
-0.046023738 -0.056972817 0.07380543 0.034012634 0.00827547 0.044100795 -0.010055221 0.050650872
-0.046276435 -0.038296323 -0.12229527 -0.07159571 0.1626384 -0.14102714 -0.13757868 -0.021543147

conv3.bias f4 [120]
00000000: 0793 51bc 8c44 953c 2c59 a7bc b800 0bbd
00000010: 61a6 b23d 3fff 9b3b 8a35 d33c 919c fb3c
00000020: 45ce e33c 92f2 893d d0de 3b3d a6b5 b7bd
00000030: b304 d83a 5ca4 a93c cd8a f8bd 7aa5 073e
00000040: 060b 8f3d e6c1 b83d 385b f0bc 2b8d dfbc
00000050: 7b5e 88bd 5b23 fb3b 0cd6 36bd cbf9 2c3d
00000060: 1f1d 26bd b80f 33bd bf35 07be 7c88 963c
00000070: b203 0ebd 0af9 fcbc cca7 89bd 7ec8 1fbd
00000080: 2e00 91bc fa39 0d3e a87f 68bd bbcf 983d
00000090: f405 cfbb d9ab 70bd 752d e9bc 9f19 1bbd
000000a0: d744 c4bd 4124 b33c e8cd 3abc b4a7 14bd
000000b0: 052e a03d 2112 4b3d 52e6 26bd 0107 08be
000000c0: 39fd 69bb beeb b53b 6f78 09be 7cd6 9d3d
000000d0: d901 a5bd 325f bf3c 43e2 803c 6ecc 82bd
000000e0: b5d2 96bd 5daf cbbc f70e 2ebb 16ca b63c
000000f0: 7eb1 283c d213 9bbc 5fab 17bc 9156 1d3d
00000100: 8bb7 8d3d 7f81 a43d b6b3 98bb af35 013d
00000110: 84b9 d5bd 7884 993d fe84 84bd 3b4b 323d
00000120: 5c4e c63d e0be 29bd 2bf5 73bd 7136 e4bc
00000130: ad0b 46bd 82bf d53c 4829 0dbd 303e 8fbd
00000140: 1b6f b63d bfc5 b7bd b011 a73d cbd4 c4bd
00000150: 0373 4f3d 90ab 58bd 72b1 bdbd 7a6e 913d
00000160: 1530 7f3d 41cb 89bc cd7c 103c e296 85bd
00000170: 2b7a 9b3c 8bbb 093c 25bc e13d 6b13 063d
00000180: 6610 d5bc dc1e 2bbd 2a9e ce3c d436 153e
00000190: 05ca 883d 94e2 043d 3ab4 c0bc b34f e63d
000001a0: 0e78 003d 9538 1b3d 438d adbd f3cb 93bc
000001b0: 2849 5cbd 6030 313d 683d d43c 1109 93bd
000001c0: 1592 e9bd 206f 2abd 8675 47bd 34e6 803d
000001d0: 3ce9 d73d fdd5 e43d c078 1b3d aba6 b3bd
-0.012791402 0.018221162 -0.020428263 -0.033936232 0.087231405 0.0047606523 0.025782365 0.030714305
0.027808318 0.0673572 0.045866787 -0.089701936 0.0016480893 0.020708255 -0.12135849 0.13246718
0.069845244 0.09021358 -0.029340371 -0.027288994 -0.06658646 0.007664127 -0.044637725 0.04223041
-0.040555116 -0.043716162 -0.13204096 0.018375628 -0.034671493 -0.03088047 -0.06721458 -0.039009564
-0.017700281 0.13791648 -0.056762367 0.074614964 -0.0063178483 -0.058757637 -0.028464058 -0.03786623
-0.09583443 0.021867873 -0.011401631 -0.036292747 0.078212775 0.049577836 -0.040746994 -0.13283922
-0.003570391 0.0055517843 -0.13424848 0.07706925 -0.08056993 0.023360822 0.01573289 -0.06386648
-0.07364408 -0.024863893 -0.0026559213 0.022313159 0.010296224 -0.01893035 -0.009257167 0.038412634
0.06919774 0.08032512 -0.004660095 0.031545337 -0.10435775 0.074959695 -0.06470679 0.043528777
0.096829146 -0.0414418 -0.059559982 -0.027857991 -0.04835098 0.026092295 -0.034463197 -0.06994283
0.089079104 -0.08973264 0.081576705 -0.096108995 0.050646793 -0.05289799 -0.09262361 0.0710115
0.062301714 -0.016820552 0.008818817 -0.06522919 0.018979153 0.00840653 0.11022214 0.032733362
-0.026008796 -0.041777477 0.025221903 0.14571697 0.06679157 0.032442644 -0.023523439 0.1124567
0.031364493 0.037895758 -0.08474209 -0.018041587 -0.053780705 0.043259025 0.025908187 -0.07179464
-0.11404816 -0.041609883 -0.048696063 0.06293908 0.10542533 0.111736275 0.037956953 -0.08772024

fc1.weight f4 [84, 120]
00000000: d0e5 aabd 4ed8 0abd e911 a3bd 1637 643d
00000010: af0c 573d 2221 213d 5954 07be cc39 303e
00000020: 41ad 1cbe 0e88 9fbc b285 3a3c 1f29 4f3a
00000030: 3a6e a5bd 04f8 543d 59fd 553d bacb eebd
00000040: 3a6c aabd a22e c63d a904 543a 54d5 b4bd
00000050: d2a2 253d 88e4 d4bc fc56 5f3d fecf 1a3d
00000060: 207f 113e fb24 343d 6f73 87bc a4db 063e
00000070: a0ed febc 3f93 31bd b530 223e 806d c9bc
00000080: c504 483d 2beb c83d dffb 17bd a1dc e3bd
00000090: 0b70 d63d cf20 90bc a269 d4bd 5733 96bb
000000a0: 4afa 5bbc 42c4 8f3c 70e6 21be 25a2 6e3d
000000b0: c7de dfbc 89b0 3abd c4d3 ddbc 35ea 403d
000000c0: 240f b1bd a94e 743d df35 503d e422 dabd
000000d0: 5567 083c 06d8 48be 6952 99be cd64 c43d
000000e0: 1161 3abb bcb3 3f3d f1fa a0bd 9969 903d
000000f0: 28e9 88bd 57bc 98bc 69b2 16bd e24e d13d
00000100: f6d7 91bd 700b 7b3c e800 e3bd ceaa 26be
00000110: caff a53c a9a1 05be 2cfa bbbc 4875 e5bd
00000120: 4171 e6bb d628 f6bd 3ab9 9a3d 5b56 283e
00000130: a572 02bd e3fe 94bd 7808 02be 44b2 babd
00000140: 847c abbd 7a5f 9e3d e0ed 5dbd 217a 98bd
00000150: 9d49 8dbd 7d9d b93d e1d8 033d 462d 91b9
00000160: 42e6 09be 359c 4a3d b61a 153e 46bf ac3d
00000170: b303 30bc 1d4c e3bd acd3 92be b543 ad3e
00000180: acce 1c3d 4146 bf3d 9430 423d 2663 bc3d
00000190: 23c1 28be 6f1a 1bbe 3b34 3ebe 9f06 e5bd
000001a0: 9604 bebc da04 0bbe d014 b73d ca32 3abc
000001b0: 5451 bebd 0d3e fdbd 8d6c fabb 22af 5abd
000001c0: d6e7 0d3c 82da 81bd 68c3 d1be 8abb e33d
000001d0: d4e7 65be 76ef da3d 4d9b a8bd f183 8a3d
000001e0: 8224 21bc 849d 98bd f1fc e2bd 131c 01be
000001f0: c0c9 69bd 739a afbd d0fe 4f3d 1c01 7f3d
00000200: 823c 94bc b970 9c3e fd57 73bd c89e 68bd
00000210: b8ab 8e3c a899 5dbe 7d37 033d 4e61 79bd
00000220: 58a4 8fbd cb6b bdbc 73ae 763d e9d6 763d
00000230: 1918 4c3d 7d23 f83d 4f0a 4a3e 3b5c 68bd
00000240: 92be cf3d 363b 89bc c5bf adbc 5a17 46bd
00000250: 56c2 883d 8df1 21bc 332b a8bd af99 23bd
00000260: 138c 44bd 5d3b 85bd 1a0c e43b 1aa8 0cbd
00000270: 205f 9cbd 0385 4b3d 3d6d b63d 867b 40bc
00000280: 3bc0 753d 98c8 15bd 21e0 ad3d c984 713c
00000290: 30a1 b63d 1835 d8bb b3b4 163c 8e35 b63d
000002a0: 5619 2fbd 9a88 ae3c a980 78bd afe0 6cbd
000002b0: 1df3 d7bd 1660 aa3d ac9e 163d ba29 29bd
000002c0: 9df2 9dbd 8aa7 63bd 37ca 813d cf61 d73c
000002d0: e62f 0bbd feb3 153d b974 8bbd 4b59 b63d
000002e0: 1614 e1bd d227 0abe 7ae4 98bd 42cc cf3d
000002f0: c52b 51bb 31c9 a93d 464d a5bd f3c6 2bbc
00000300: 2114 ccbc 8252 823d 1d3f bcba 405b d3bc
00000310: 8255 edbc 43a2 da3c a5d8 bebd 28a7 103e
00000320: 66f7 aabd 4b19 11bd 0cb3 4fbd 6965 c6bc
00000330: 87fa c03c c102 6dbd 0e95 ddbd d41d c9bd
00000340: 59e5 e8bc 6b82 1e3d 9afc 013d 6542 27bb
00000350: b722 98bd 98ca 5b3d 4959 813d 07b3 003e
00000360: 69b1 2e3c e408 aabc 1eb6 06bd 8462 9d3d
00000370: ba17 c13d d543 67bd f17b 943d 9b50 8dbd
00000380: 9374 9bbd bbfd 4d3e 2805 57bd b1c0 e4bc
00000390: 9f07 4abe 93a9 423d 1b3d bc3d ef08 10bd
000003a0: b3fb 313d 030d 03bc be66 9d3c 3853 b13d
000003b0: 75b0 9bbd 5877 07be 0597 553d 3c74 43bd
000003c0: 27d4 bcbd 79de 653d 2bee 6a3d 9274 9bb8
000003d0: fab1 dfbc 3eb8 833d 3d23 61bd 8ee3 3ebc
000003e0: 5fae 783c 849d 88be d9ad 82bc 6d5c 9ebd
000003f0: c231 edbc 5013 6b3e f9ac ae3d 5c3a f5bd
-0.083446145 -0.03389769 -0.079624005 0.055716597 0.05250233 0.03933824 -0.1321577 0.17209548
-0.15300466 -0.019474056 0.0113844145 0.0007902551 -0.08077665 0.05199434 0.052243564 -0.116599515
-0.08321424 0.09676863 0.00080878526 -0.088297516 0.04043848 -0.025987878 0.054526314 0.037796013
0.1420865 0.04398058 -0.016534535 0.13169724 -0.031119168 -0.043353315 0.15838893 -0.024588346
0.048832674 0.0981048 -0.037105437 -0.11126066 0.10470589 -0.01759377 -0.1037171 -0.004583757
-0.013426373 0.017549638 -0.15810561 0.0582601 -0.027327908 -0.045578513 -0.027078517 0.047098357
-0.08645466 0.05964533 0.050832625 -0.10651186 0.0083254175 -0.19613656 -0.29945686 0.09589539
-0.0028439204 0.046802267 -0.07860363 0.07051391 -0.06685096 -0.018644495 -0.03679124 0.10220124
-0.071212694 0.015322551 -0.11084157 -0.16276094 0.020263571 -0.1304995 -0.02294644 -0.1120401
-0.007032544 -0.120195076 0.075548604 0.16439192 -0.031847615 -0.07275178 -0.12698543 -0.09116033
-0.08373359 0.077330545 -0.054181933 -0.07445169 -0.06898806 0.09063242 0.032189254 -0.00027690287
-0.13466743 0.049465377 0.1456097 0.0843492 -0.010743069 -0.11098502 -0.28677118 0.3384072
0.038283035 0.09339572 0.04740961 0.091985986 -0.16479926 -0.15146802 -0.18574612 -0.111829035
-0.023195546 -0.1357607 0.089395165 -0.011364648 -0.09292856 -0.12365351 -0.007642335 -0.053389676
0.008661231 -0.06340505 -0.40969396 0.111197546 -0.22451717 0.10690205 -0.08232746 0.06763447
-0.009835364 -0.07451919 -0.11083401 -0.12608366 -0.05707717 -0.08574381 0.050780118 0.062256917
-0.018095259 0.3055475 -0.059410084 -0.05679205 0.017415866 -0.21640646 0.03203534 -0.060883813
-0.07013768 -0.023122689 0.06022496 0.060263548 0.04982767 0.12116144 0.19730495 -0.056728583
0.1014377 -0.016751867 -0.021209607 -0.048362114 0.06677692 -0.00988425 -0.082113646 -0.039941486
-0.047985148 -0.06505463 0.0069594504 -0.03434 -0.07635331 0.049687397 0.08907554 -0.0117482
0.05999778 -0.036568254 0.08490015 0.014741131 0.08917463 -0.006598126 0.0091983555 0.088969335
-0.04274877 0.021305371 -0.060669575 -0.057831462 -0.10544417 0.08319108 0.036772415 -0.04129956
-0.077122904 -0.0555797 0.063373975 0.026291756 -0.033981226 0.036548607 -0.068093725 0.0890375
-0.10990159 -0.13491753 -0.074654534 0.10146381 -0.0031916958 0.08290327 -0.08071379 -0.010484445
-0.024911942 0.06363393 -0.0014362071 -0.025800347 -0.028971437 0.0266887 -0.093186654 0.14126265
-0.08347969 -0.035424512 -0.05070786 -0.024218278 0.02355696 -0.057863954 -0.108194456 -0.098201424
-0.028429674 0.038698595 0.03173504 -0.0025521752 -0.07428496 0.053660005 0.06315858 0.12568294
0.010662415 -0.020756193 -0.032888524 0.07684806 0.094283536 -0.056461174 0.072502024 -0.0690014
-0.07590594 0.20116322 -0.05249515 -0.027923914 -0.1972947 0.047525 0.091913424 -0.03516477
0.04345293 -0.007998708 0.01921403 0.08658451 -0.07602016 -0.1322912 0.052145977 -0.04771827
-0.09220152 0.05612037 0.05735604 -7.412689e-05 -0.027306546 0.06431626 -0.054965246 -0.011650933
0.015178292 -0.26682675 -0.015952038 -0.077324726 -0.02895439 0.22956586 0.08529086 -0.11974022

fc1.bias f4 [84]
00000000: 26de e4bd fea8 0cbe 1f86 cc3c 743b 093e
00000010: 508a ecbd a110 2a3e a4f1 983c 71a2 3a3d
00000020: 6ff8 893d 140e 733d 1ce8 a43d 334e 0a3e
00000030: c006 c5ba 2c8e 503e 2501 c73a 2d3e 2e3e
00000040: c89e 6e3d e3ed 653c 5029 01be 3b75 85bc
00000050: b4d1 443a 172a 30be 1cb1 ea3d 9f6d 393d
00000060: 550e a43d d2c2 d53d 64b1 2e3e f365 9c3d
00000070: 1ee2 dd3c 9bc1 b83d b873 0dbd f12e 953b
00000080: 65ec bd3d ead0 2cbd 513f 36bd f0da 71bc
00000090: e1f2 2fbc 01d5 a5bc 7994 1c3b bf86 1ebd
000000a0: 3fed d83d 590b 43bc c531 223e 359d bfbd
000000b0: 6da4 d53d 0b0b 1b3e e572 f2bc 38fe 353d
000000c0: 98a7 303e 1103 c83c 678a 173e e27e af3c
000000d0: b956 08be a540 cb3d 3cad ee3a 194d 3f3e
000000e0: 2df0 fc3d cf58 de3a 74d0 083e d418 213d
000000f0: 27ff 103d a224 ffbd 81e9 373e e98b 81ba
00000100: 484f e3bd 8108 e23d 230f 643d 97b2 73bd
00000110: 3614 e9bd e7a6 cbbc 22aa f43d 7c55 acbd
00000120: facc 01be b760 31be 9957 28bd 73a8 073e
00000130: 32a4 77bd 7a8c 203d 0e56 0f3e b5a3 263e
00000140: d3d8 cc3d c0fd d4bc 6cac 473d f9ea 8a3d
-0.11175184 -0.1373634 0.024966298 0.13401586 -0.115498185 0.16607906 0.01866991 0.045565072
0.06736838 0.059339598 0.08052084 0.13506393 -0.0015031919 0.20366734 0.0015182836 0.17015906
0.058256894 0.014033767 -0.12613416 -0.016291251 0.0007508055 -0.17203556 0.11459562 0.04527056
0.08010546 0.1043755 0.17059857 0.07636633 0.02708536 0.09021302 -0.034534186 0.004552715
0.09273604 -0.042191423 -0.044493977 -0.014761671 -0.010739059 -0.02024317 0.0023892208 -0.038702723
0.10592126 -0.011904561 0.15839298 -0.09356157 0.10431752 0.15140931 -0.029595802 0.044431895
0.17251432 0.024415525 0.1479889 0.021422807 -0.13314332 0.09924439 0.0018209587 0.18681754
0.123504974 0.0016963723 0.13360769 0.03933032 0.035399582 -0.12458159 0.17960168 -0.0009883615
-0.11099106 0.11036778 0.055678498 -0.05949649 -0.11380808 -0.024859859 0.11946513 -0.08414742
-0.12675849 -0.1732205 -0.041099165 0.13247852 -0.060459323 0.03919647 0.13997671 0.16273387
0.100022934 -0.025999904 0.04874842 0.06783099

fc2.weight f4 [10, 84]
00000000: 87c4 a0bc 5330 543d df74 1d3d c519 2bbc
00000010: 40b9 c3bd 0364 243e 92f5 58be 3b15 833d
00000020: 88b0 283d d695 a5bc 432c 233d bab1 f33d
00000030: 80bc 293e 791f 8cbe 603f 013c 5ceb 1dbd
00000040: 5c8f 8c3d 11ba 32bd bb82 3e3d 579f b03d
00000050: 1294 62be 8b1e 3abd 62ad 823d 8961 82be
00000060: 8f8f 193e 01cc d23d 7cb2 d6bd 2806 d2bd
00000070: a719 44bd 3a3c 043e 8bc4 33be f3ab c5bc
00000080: e539 7c3d 5abf f23d 5d98 a73d 14af 31be
00000090: 7236 bf3d 56d0 b23b c276 8dbd 0731 aa3d
000000a0: 5764 9ebd 52b3 493d 6868 c93d cca1 c2bc
000000b0: 290b a8bd 0942 c63d d5e2 b23d 8751 22be
000000c0: 2fc9 a03d f037 fdbd dded efbd 94f7 7cbd
000000d0: da3b 3439 9604 13bd 40ef b5be 3e23 963d
000000e0: efc9 9ebe d828 c8bd ff9d 5ebd 34f2 cc3d
000000f0: d97e 4c3d 0ba0 9f3c bb76 e83d d534 d3bd
00000100: 3e75 dd3d 9ef7 8abd 7990 903b a1a6 3e3d
00000110: ef1c 3b3e 680b d3bd e94c 833d 4b6a 9dbd
00000120: 3789 dc3d c430 99ba 4b4d 06be 5c14 983d
00000130: 3a1b 6abc 880e 88bb bdb8 db3c 62f8 70be
00000140: 53b1 13be eb62 1cbe b7cb c73c 0aa4 f4bd
00000150: 4fec 9d3e 5b49 a1bd 8d23 243e c261 253c
00000160: 1fc0 23bd 525d 14bc 2097 1fbe 8766 7cbd
00000170: 67ea 1fbe 6f5e a5be 6666 16be 32c6 4bbe
00000180: bd32 98bc 6168 77be 5bb3 913c b28e 19bd
00000190: 4bbe e43d 8daf c8bc a36d 1f3c 2957 b73d
000001a0: 5258 c5bd cf74 5e3a 4add 8dbe 578d 80be
000001b0: 8e72 f33d 2015 383e 75da 073d 1edb f33c
000001c0: 1ecc 953d 516f 49be 1a74 8dbd f7ea b63d
000001d0: 7c43 77be bddf 92be adf3 8e3d 397b ddbd
000001e0: 65f1 2d3d b074 5fbd ac5e ba3c d565 93bc
000001f0: 968e 94bd be11 4d3d ae2d cfbd 382d e93a
00000200: acf7 2fbd 445d 94be cfed 3a3e 0f85 d93d
00000210: 6a58 e83d 0f72 7c3e 7150 b8bd 1db4 743d
00000220: 2260 d9bb 2a94 96be 3f79 df3d 312b 0e3e
00000230: c893 3a3c 78bf a7bc 9989 a43d db81 9ebe
00000240: 2121 903d 18e5 e1bc 4fb6 ccbd 819d 233d
00000250: 9c17 ac3d d451 4abd d563 86be 4bfd 31bd
00000260: f9d0 3c3e 0a4d 1ebd 64f2 95bd a098 a2bd
00000270: 2d65 023e 160d a03d 2e60 3dbd 2202 9e3d
00000280: 2cb7 523e 6077 fc3d 8090 a93d 1d10 efba
00000290: c570 41be 6f4f 743c 0ee1 00bc 9646 033d
000002a0: de31 adbd 8cb3 393d 96e7 423b 47ad 42bd
000002b0: 59a0 963b abe5 013e 598d 45be a460 fb3d
000002c0: cad8 aabe 7702 213d 3a83 c23d 86b7 023e
000002d0: 1cfa 743d 8b69 053d 3279 d03c 46b2 183e
000002e0: 7622 e43d 1155 dabc d3e2 65bc ec3d 7dbd
000002f0: ca0f 53bd c265 69bd d744 423e 53b6 a4bc
00000300: 0c49 76be ee57 ff3d a6d0 ec3d d027 613e
00000310: b02a bdbe 22d5 d1bd 7f54 1bbe 8c30 80be
00000320: 1b67 913d 75e8 62bc 13ac b7be 6d41 aabd
00000330: 0aa4 823d 4af7 f6bd eb16 30be 2a06 853d
00000340: 5027 27bb 310d a93c 47bd da3b 2b64 7bbd
00000350: 444d da38 ef3f 04be cb46 c93c 7969 083e
00000360: 0a3f dd3d a6da 863c 5df3 b23d 49c0 4abe
00000370: 29b9 143c e6fb a23d 9651 013e a39e a73d
00000380: de29 71be a769 e6bd 2d53 8c3d 964a 51be
00000390: 821c aebe eb0d f0bd a285 a6bd 25cc 2cbe
000003a0: 2443 9e3d bd33 de3c 629b 9e3d 5c7f 55bd
000003b0: db33 d1bd 4775 c13c dc89 f0be f6d8 c63d
000003c0: 4443 4b3d 36a0 43be 1cac 003e 8e35 0c3e
000003d0: dbd4 1a3c f0f8 063e eb08 473d c0fb f23d
000003e0: 43a0 c9bb 932d 7fbe 36ef 003e 2c2f 353d
000003f0: 5f01 60be cd9f bebc 0bcc 313d f938 75bd
-0.019624962 0.051803898 0.038441535 -0.010443156 -0.09556818 0.16053776 -0.21187428 0.06400534
0.04118398 -0.020213049 0.039837133 0.11899133 0.16575813 -0.27367762 0.007888645 -0.038554534
0.06863281 -0.043634478 0.046511393 0.08624142 -0.22126797 -0.045439284 0.063807264 -0.25465038
0.1499617 0.10292817 -0.10483262 -0.102550805 -0.047876026 0.129136 -0.17555444 -0.024129843
0.06157865 0.11852904 0.08183358 -0.17351943 0.093365565 0.0054569645 -0.06907417 0.083101325
-0.07733982 0.04924328 0.09834367 -0.023758791 -0.08205254 0.09680564 0.08734671 -0.15851413
0.07850873 -0.12364185 -0.11715291 -0.061759546 0.00017188434 -0.035893045 -0.35534096 0.07330941
-0.31013438 -0.09773415 -0.054349896 0.10007134 0.04992566 0.019485494 0.11350771 -0.10312811
0.10813378 -0.067855105 0.0044117537 0.04654563 0.18272756 -0.1030491 0.06411154 -0.076862894
0.10768359 -0.0011687507 -0.13115422 0.07425758 -0.014288718 -0.004152123 0.026821489 -0.2353225
-0.14423113 -0.15272109 0.024389131 -0.119453505 0.30844352 -0.078753196 0.16029187 0.010094108
-0.039978143 -0.009055452 -0.15584993 -0.061621215 -0.15616761 -0.3229861 -0.146875 -0.19899824
-0.018578881 -0.24160911 0.017785719 -0.0374896 0.11169108 -0.024497772 0.009730729 0.08952171
-0.096359864 0.0008486034 -0.27707893 -0.25107834 0.11887084 0.17976809 0.03316732 0.02976757
0.07314323 -0.1967137 -0.0690691 0.08931535 -0.24146837 -0.28686324 0.06980071 -0.108145185
0.04246654 -0.05455464 0.022750221 -0.017992893 -0.072537586 0.05006575 -0.101161346 0.0017789965
-0.042960808 -0.28977406 0.1825478 0.10621082 0.11344989 0.24652885 -0.08999718 0.059742082
-0.0066337744 -0.29409915 0.10911798 0.13883664 0.011387773 -0.020477042 0.08034057 -0.30958447
0.07037569 -0.02757506 -0.0999571 0.03994513 0.08402941 -0.049394444 -0.2624804 -0.04345445
0.18439092 -0.03864769 -0.07321623 -0.07939267 0.12733908 0.07814996 -0.046234302 0.077152506
0.20577687 0.123274565 0.08279514 -0.0018239055 -0.18890674 0.014911517 -0.007866157 0.032049738
-0.08456777 0.045337245 0.0029740087 -0.04752853 0.0045967516 0.12685268 -0.19292201 0.12274292
-0.33368522 0.03930899 0.09497686 0.12765321 0.059808835 0.032571357 0.025448415 0.14911756
0.111393854 -0.026651891 -0.01403113 -0.06182663 -0.05152873 -0.05698181 0.18971573 -0.02010647
-0.24051303 0.12467943 0.11563234 0.21987844 -0.3694663 -0.1024573 -0.15168951 -0.25037038
0.07099744 -0.013849367 -0.3587347 -0.0831326 0.06378944 -0.120588854 -0.17196243 0.06495316
-0.002550561 0.020636173 0.0066753956 -0.061374824 0.00010409442 -0.12915014 0.02456989 0.13321485
0.10803039 0.016461682 0.08737824 -0.19799913 0.009077349 0.07958202 0.12628779 0.081845544
-0.23551127 -0.1125062 0.06851802 -0.20438609 -0.34006125 -0.11721405 -0.08130957 -0.1687475
0.0772765 0.02712428 0.07744481 -0.052123412 -0.10214969 0.023615493 -0.46980178 0.09709351
0.049624696 -0.19104084 0.12565655 0.13692304 0.009450163 0.131809 0.04859249 0.11864424
-0.006153138 -0.24919729 0.12591252 0.04423444 -0.21875523 -0.023269558 0.04340748 -0.059868786

fc2.bias f4 [10]
00000000: 86e7 99bd 171c 0fbe 6324 ea3d 3e6d 353d
00000010: bcc1 95bd a0b8 a0bd adee 3ebc 6fca 7fbd
00000020: b0f0 b33c 63be 81bc
-0.07514863 -0.13975559 0.114327215 0.044293635 -0.073123425 -0.078477144 -0.011653584 -0.062448915
0.021965355 -0.015837854
