HW1/model_LeNet5_dropout.pth (torch, 250606 bytes, 10 tensors)

conv1.weight f4 [6, 1, 5, 5]
0.27203834 0.05837204 -0.4103453 -0.5627162 -0.504401 0.29954478 0.14102015 -0.050864268
-0.076607704 -0.15399034 0.25306204 0.14816207 0.012099703 0.18078917 -0.05839647 0.08751154
0.39089024 0.2916912 -0.002451711 0.123611 0.3120772 0.29855308 0.14901434 -0.09668551
-0.20021924 0.06795643 -0.4117216 -0.3971687 -0.18930009 0.33465302 -0.10409415 -0.49756613
-0.75017685 -0.29625314 0.33747402 0.091671504 -0.07351712 -0.24220411 -0.07050309 0.1337905
0.33179393 -0.1052329 -0.07268404 -0.10088853 0.27815843 -0.2096431 -0.058730926 0.037596654
0.003762944 0.022501256 -0.0025148457 -0.4379747 -0.70946956 -0.8037431 -0.4795251 0.20197146
-0.12458002 -0.531728 -0.57655525 -0.27416682 0.11931444 0.18987401 0.23397979 0.24375597
0.3219194 0.14161669 0.21943112 0.14768414 0.05119045 0.09646172 0.05855949 -0.184837
0.22201724 -0.052503813 0.120982416 0.037289985 0.14765331 -0.30796924 -0.10092188 -0.045547444
0.12078642 -0.22983529 -0.37483034 -0.21267234 0.28326133 0.09334963 0.085580565 -0.11650596
-0.19890766 0.015324786 0.15421142 -0.094228245 -0.035719223 -0.05629569 -0.113857426 -0.32977787
0.12668473 -0.09202779 0.03201169 -0.0092152925 0.4087463 -0.20822693 -0.06668739 0.16216995
0.41603893 0.12717487 -0.12666959 -0.18886755 0.5221071 0.38407445 -0.12855978 -0.56258184
-0.3589439 0.37624058 0.4618165 -0.15834844 -0.63015276 -0.46978435 0.038292162 0.4051159
-0.18903394 -0.5409578 -0.49042624 0.115601316 0.5254833 -0.38075417 -0.81269777 -0.7939891
0.19107656 -0.01534813 0.031901795 -0.23955247 -0.637175 0.54769295 0.203483 0.32534334
-0.1426908 -0.39541245 0.48558223 0.19621265 0.4490032 -0.11601643 -0.14407788 0.63553584
0.46099007 0.26103708 -0.31467226 -0.5203861 0.45090637 0.26944995
00000000: 9c48 8b3e 8517 6f3d c718 d2be 2b0e 10bf
00000010: 6d20 01bf ef5d 993e 9667 103e 0d57 50bd
00000020: 80e4 9cbd a5af 1dbe 5991 813e ccb7 173e
00000030: d53d 463c cc20 393e 2331 6fbd 4039 b33d
00000040: c422 c83e 8d58 953e e3ac 20bb c427 fd3d
00000050: 95c8 9f3e f3db 983e 3797 183e 0d03 c6bd
00000060: 4606 4dbe be2c 8b3d 2ccd d2be b259 cbbe
00000070: e2d7 41be a457 ab3e 502f d5bd fdc0 febe
00000080: 970b 40bf 7eae 97be 65c9 ac3e 45be bb3d
00000090: 2590 96bd 5b04 78be ed63 90bd 6000 093e
000000a0: e5e0 a93e 5984 d7bd 5fdb 94bd a59e cebd
000000b0: c86a 8e3e aeac 56be d78f 70bd f3fe 193d
000000c0: b99b 763b 8e54 b83c 1cd0 24bb 383e e0be
000000d0: cc9f 35bf 1cc2 4dbf 5084 f5be 9bd1 4e3e
000000e0: cf23 ffbd 541f 08bf 2099 13bf 985f 8cbe
000000f0: 215b f43d 556e 423e 6698 6f3e 2a9b 793e
00000100: 9fd2 a43e f703 113e 8db2 603e 833a 173e
00000110: 14ad 513d b98d c53d 13dc 6f3d e945 3dbe
00000120: 7d58 633e 3d0e 57bd a1c5 f73d 62bd 183d
00000130: 6e32 173e 25ae 9dbe 21b0 cebd f58f 3abd
00000140: df5e f73d f159 6bbe c3e9 bfbe c7c6 59be
00000150: a107 913e 172e bf3d dd44 af3d ad9a eebd
00000160: 73ae 4bbe d014 7b3c 99e9 1d3e bdfa c0bd
00000170: 524e 12bd 4f96 66bd 152e e9bd a5d8 a8be
00000180: a4b9 013e 1179 bcbd b11e 033d bdfb 16bc
00000190: 3247 d13e 7139 55be 6693 88bd e10f 263e
000001a0: 0e03 d53e 213a 023e acb5 01be 7f66 41be
000001b0: d0a8 053f 68a5 c43e 2da5 03be 5d05 10bf
000001c0: 7fc7 b7be 9ba2 c03e 3673 ec3e 1826 22be
000001d0: b151 21bf 9387 f0be 3ed8 1c3d 5a6b cf3e
000001e0: 1d92 41be 367c 0abf 2619 fbbe 62c0 ec3d
000001f0: 1386 063f 36f2 c2be f60c 50bf df42 4bbf
00000200: 93a9 433e b976 7bbc 75ab 023d 3e4d 75be
00000210: e71d 23bf 9b35 0c3f d95d 503e 6793 a63e
00000220: 891d 12be 8073 cabe 3c9e f83e f8eb 483e
00000230: bfe3 e53e 069a edbd 2789 13be 7ab2 223f
00000240: e406 ec3e a7a6 853e b91c a1be 0638 05bf
00000250: 33dd e63e 58f5 893e

conv1.bias f4 [6]
-0.17082773 -1.2045524 -1.2394638 -0.3400671 0.14602561 0.024623046
00000000: 77ed 2ebe c62e 9abf c0a6 9ebf 461d aebe
00000010: bd87 153e 45b6 c93c

conv2.weight f4 [16, 6, 5, 5]
0.06803107 -0.3903177 -0.48283795 -0.07659549 -0.17103331 0.31152764 -0.23994349 -0.47680643
-0.007082818 -0.15222374 -0.00022079192 -0.142787 -0.685233 0.04968487 -0.053333364 0.054777823
0.086244576 -0.5587899 0.13671152 -0.075699605 0.017962577 0.25784427 -0.29784906 0.31961808
0.025916215 -0.15049237 0.21127541 -0.04203833 -0.032777175 0.11000124 -0.08940934 0.2738089
-0.091419086 -0.27809125 0.058805592 -0.11826937 0.021153945 -0.078382455 -0.19997 0.08651209
-0.09298838 -0.13039343 0.049047165 -0.22877415 0.08950839 -0.002270681 0.023619398 0.3719217
0.06724635 0.33288175 -0.011280385 -0.21865115 -0.0349274 0.30324373 0.10986512 -0.015644513
-0.1432567 -0.20100325 0.07026292 0.096897125 0.023743575 -0.058179766 -0.17126724 -0.113762155
0.11057129 -0.23092656 -0.22562744 -0.22486567 -0.16458048 0.12458574 0.16803694 0.25256696
0.27998084 0.12133909 0.27917495 -0.0747254 0.1201826 -0.0701768 0.0035600436 0.10813994
0.14127833 0.20992035 -0.10241375 -0.110636145 0.19380118 0.12317275 0.09178854 -0.039369363
-0.05998717 0.27629805 0.025296815 0.031720635 0.042189218 0.02086577 0.20885625 0.07731762
0.1222352 0.22656144 0.120018184 0.40381828 -0.25149456 0.3279497 0.16569541 -0.18226314
-0.005512221 -0.30234045 -0.040014807 0.109703094 -0.11996133 -0.18092513 -0.340694 -0.14218457
0.013153253 -0.059795603 -0.17408678 0.014605184 -0.14128464 0.11510573 0.44453984 0.1198908
-0.546484 -0.604483 0.09360031 0.37439054 -0.0387556 -0.6819282 0.10361227 0.15017937
-0.07720173 0.19424412 -0.72498256 0.049394976 0.06936339 -0.2949099 -0.039364472 -0.68106264
0.03791083 0.13087559 -0.11517723 -0.078268565 -0.5149595 -0.35996154 -0.11280081 -0.08437255
-0.29646072 -0.017291756 -0.63845533 -0.053468455 -0.10724587 -0.5330112 0.12643944 0.25529107
-0.06427069 -0.30753225 -0.061135042 0.07845097 -0.0045364643 -0.07792826 -0.19275516 -0.0920076
0.19671412 0.11162524 -0.03268937 -0.33217546 -0.15262207 0.31229782 0.38369545 -0.08071583
-0.3281534 0.14432581 0.080308095 0.120418064 -0.014039497 -0.325486 0.30925506 0.03160711
0.088544264 0.2668769 0.1311578 0.110315606 -0.0076430477 -0.48016706 -0.2513706 -0.44237712
-0.23758137 0.16420735 -0.1884216 -0.10997372 -0.12766217 0.06354449 0.08232626 -0.18141589
-0.013475951 -0.22062509 -0.13762316 0.24524276 -0.056748223 0.2093523 -0.24485345 -0.49216318
0.070877284 0.39108974 0.5618658 0.27125368 0.27196133 -0.13424659 -0.48450893 -0.8278212
-0.48960957 0.06476432 -0.57387024 -0.26146245 -0.40050435 -0.60535985 -0.10539116 -0.3031582
-0.120925464 -0.3969767 -0.38831323 0.28124362 -0.029937007 -0.14231147 -0.33095726 -0.77457327
0.4123529 0.0002025954 0.07206348 0.17186615 0.026877038 0.17669639 -0.07393707 -0.05425474
0.028701063 -0.07761158 0.07810955 0.057115946 -0.037615154 0.1604318 0.0014848664 0.22865526
-9.944918e-05 -0.0799763 0.21620823 -0.0662124 0.15156348 0.06339402 0.07034556 0.19306372
-0.5132392 -0.3398135 -0.051455792 -0.2785123 -0.30155733 -0.030320315 -0.35908532 0.07845347
00000000: e053 8b3d b9d7 c7be 8936 f7be 19de 9cbd
00000010: 5b23 2fbe 8d80 9f3e bfb3 75be f91f f4be
00000020: fc16 e8bb 8ae0 1bbe 6184 67b9 c136 12be
00000030: 6e6b 2fbf 5d82 4b3d 1674 5abd b65e 603d
00000040: ffa0 b03d db0c 0fbf 1bfe 0b3e 6508 9bbd
00000050: 4126 933c 2a04 843e ac7f 98be fba4 a33e
00000060: 3e4e d43c ac1a 1abe 9558 583e 6230 2cbd
00000070: 5c41 06bd 5548 e13d 3e1c b7bd ae30 8c3e
00000080: ee39 bbbd fa61 8ebe 22de 703d 3637 f2bd
00000090: 0a4b ad3c fb86 a0bd f0c4 4cbe 402d b13d
000000a0: b170 bebd db85 05be aee5 483d c543 6abe
000000b0: 2d50 b73d b5cf 14bb 787d c13c 856c be3e
000000c0: 74b8 893d 7a6f aa3e 5dd1 38bc 16e6 5fbe
000000d0: 0910 0fbd c342 9b3e f700 e13d ec28 80bc
000000e0: e2b1 12be ccd3 4dbe 01e6 8f3d 0072 c63d
000000f0: e381 c23c e84d 6ebd ae60 2fbe 22fc e8bd
00000100: 3373 e23d 0378 6cbe e10a 67be 3043 66be
00000110: c987 28be cf26 ff3d e011 2c3e 7550 813e
00000120: a659 8f3e a180 f83d 05f0 8e3e a109 99bd
00000130: 4c22 f63d dbb8 8fbd 9f4f 693b 7978 dd3d
00000140: 44ab 103e 5cf5 563e 4dbe d1bd 3495 e2bd
00000150: d173 463e ff41 fc3d a1fb bb3d c541 21bd
00000160: 1bb5 75bd f076 8d3e 443b cf3c 7fed 013d
00000170: 9ace 2c3d b1ee aa3c 6ade 553e b358 9e3d
00000180: 7356 fa3d b9ff 673e 18cc f53d 45c1 ce3e
00000190: e5c3 80be 06e9 a73e 0fac 293e 30a3 3abe
000001a0: dc9f b4bb 5ecc 9abe 91e6 23bd 04ac e03d
000001b0: 49ae f5bd 7044 39be 726f aebe d598 11be
000001c0: be80 573c 3cec 74bd ce43 32be 954a 6f3c
000001d0: ecac 10be 8ebc eb3d ba9a e33e 4f89 f53d
000001e0: 60e6 0bbf 66bf 1abf 85b1 bf3d 1eb0 bf3e
000001f0: 31be 1ebd d992 2ebf ab32 d43d 9fc8 193e
00000200: f11b 9ebd eee7 463e 7598 39bf 6352 4a3d
00000210: 650e 8e3d 6efe 96be a43c 21bd 1f5a 2ebf
00000220: 6348 1b3d 4004 063e 0ae2 ebbd 454b a0bd
00000230: 63d4 03bf e14c b8be 1c04 e7bd 84cb acbd
00000240: b3c9 97be 71a7 8dbc cf71 23bf bd01 5bbd
00000250: b9a3 dbbd 6c73 08bf 5779 013e 83b5 823e
00000260: 5aa0 83bd de74 9dbe bd68 7abd e7aa a03d
00000270: 9fa6 94bb da98 9fbd 9c61 45be 7b6e bcbd
00000280: 6d6f 493e c69b e43d 4ae5 05bd e712 aabe
00000290: f648 1cbe 80e5 9f3e bb73 c43e 574e a5bd
000002a0: b903 a8be 25ca 133e 9278 a43d bf9d f63d
000002b0: eb05 66bc 1aa6 a6be ae56 9e3e 7576 013d
000002c0: b256 b53d 17a4 883e 3b4e 063e 26ed e13d
000002d0: 8872 fabb 75d8 f5be a6b3 80be 417f e2be
000002e0: 8848 73be f925 283e 98f1 40be e739 e1bd
000002f0: dfb9 02be 9d23 823d ac9a a83d 16c5 39be
00000300: 3cca 5cbc 8beb 61be 16ed 0cbe eb20 7b3e
00000310: d370 68bd 7360 563e ddba 7abe d0fc fbbe
00000320: 1c28 913d ea3c c83e 70d6 0f3f c3e1 8a3e
00000330: 843e 8b3e f077 09be 8e11 f8be 17ec 53bf
00000340: 1bae fabe 28a3 843d 29e9 12bf 68de 85be
00000350: e80e cdbe ddf8 1abf 52d7 d7bd 8d37 9bbe
00000360: c5a7 f7bd 8840 cbbe fed0 c6be 2aff 8f3e
00000370: 743e f5bc 19ba 11be 3b73 a9be 6f4a 46bf
00000380: eb1f d33e ca6f 5439 0596 933d aefd 2f3e
00000390: 3c2d dc3c e6ef 343e 526c 97bd 383a 5ebd
000003a0: 7e1e eb3c d2f2 9ebd e6f7 9f3d 69f2 693d
000003b0: 5912 1abd 3c48 243e d99f c23a 9b24 6a3e
000003c0: 5f8f d0b8 9dca a3bd b165 5d3e 5e9a 87bd
000003d0: 7533 1b3e b9d4 813d 5511 903d 7fb2 453e
000003e0: a563 03bf 09fc adbe 4fc3 52bd 2a99 8ebe
000003f0: b965 9abe 4f62 f8bc 08da b7be 36ac a03d

conv2.bias f4 [16]
0.25256732 -0.029774696 -0.33411348 -0.31535706 0.39905876 0.2682562 0.34141204 0.49013364
-0.039997395 -0.17909029 0.3126762 0.20611988 -0.10722003 0.5833349 0.08504509 0.08651733
00000000: 8150 813e 10ea f3bc ec10 abbe 7b76 a1be
00000010: 6e51 cc3e e058 893e 8fcd ae3e ccf2 fa3e
00000020: 4fd4 23bd 7263 37be 1817 a03e 1711 533e
00000030: 2d96 dbbd 7055 153f 1f2c ae3d ff2f b13d

conv3.weight f4 [120, 16, 5, 5]
-0.11918107 0.09190884 0.2158533 0.24594417 -0.038670916 -0.1966968 -0.10412603 0.23923343
0.28896004 0.24681054 0.034836944 0.07540743 -0.10595317 0.013051424 0.20987196 0.13989225
-0.16230857 -0.35792863 -0.1883771 0.003502422 0.2325866 -0.4684256 -0.5476696 -0.31584287
-0.009421065 0.074078776 -0.2757185 0.09538146 -0.034822833 -0.5820385 -0.12434862 -0.35027692
-0.27206856 -0.07609614 -0.57867146 0.068189636 -0.1169792 -0.016036827 0.14156653 -0.43352565
0.010951059 0.015175471 0.042480968 0.09551468 -0.29679278 0.23224966 0.3375752 -0.040839203
-0.16263738 -0.7790251 0.029921401 0.046250302 -0.51412135 0.06609231 -0.5343547 0.05157715
-0.0028222606 0.0228016 -0.055356055 -0.5789301 0.022792203 -0.081782274 0.18865308 -0.43368265
-0.64578295 0.09262356 -0.08711909 0.11582676 -0.1829537 -0.6976161 0.019565655 0.021899242
-0.13750362 -0.3702789 -0.5428376 -0.021997532 -0.07585184 -0.029547269 0.3083035 -0.09532806
0.17631632 -0.10056668 -0.07614524 -0.077750385 -0.090649806 0.3123081 -0.07295246 -0.26293474
0.036759056 0.18905544 0.16036229 -0.032732043 -0.029776087 0.058949023 0.078332335 -0.20967627
0.22257441 0.24139231 0.12209061 -0.29136652 -0.37395656 -0.41514665 -0.17652372 -0.22704971
-0.2454964 -0.21014251 0.035073042 0.37664464 0.06608505 0.120957784 -0.12338317 0.24111345
0.3127803 0.3594519 0.14653154 0.04632666 -0.1160447 0.018336017 0.09511865 0.11225934
0.4576333 -0.04795307 0.2771342 0.08533263 -0.016761724 -0.32020804 0.045453854 -0.06823165
-0.4818127 -0.7218545 -0.016716218 -0.2712299 0.19892642 -0.3358132 -0.464304 0.3886418
-0.15232883 0.091234654 -0.23039754 -0.6780127 0.3590249 -0.18406507 0.05699951 -0.09769157
-0.19009364 0.17810008 -0.25329176 0.17898655 0.110189386 0.2769608 0.112543955 -0.20230176
0.0019656112 -0.0904509 -0.075004116 0.19557667 0.077371985 0.30680925 0.08350899 -0.08559232
0.040509462 -0.045128725 0.12500948 0.25862092 0.13463248 0.039522454 -0.072881304 0.17013451
0.10282666 -0.006921468 0.027313955 -0.04935653 0.22599036 0.25397223 -0.102560446 0.050517485
-0.3498309 0.19477724 0.046949957 0.08628155 0.27530515 -0.22533907 0.17082216 -0.22755258
-0.018012637 0.4211712 -0.17244962 0.21519366 0.11226633 -0.13307327 -0.008305693 -0.28570935
0.016523456 0.13574752 -0.00897036 -0.071288854 -0.18027505 -0.16304341 0.28635952 0.2557032
-0.71452314 0.47353405 0.016112594 0.12174373 0.3362105 0.004281144 -0.26789215 0.2170183
-0.0019729026 0.15819298 0.053243767 -0.27100548 0.18098754 0.046411753 0.013147768 0.071604796
-0.028289422 0.101891354 -0.18426882 0.17660424 0.0036025234 0.15693583 -0.10141359 -0.17855218
-0.23064248 -0.26131406 -0.7379639 0.31745073 0.019325973 -0.1004574 0.030482495 -0.2351861
0.4740442 0.2792535 0.013532635 0.047451347 0.026604127 0.01574847 0.08814072 -0.49625942
0.01628273 -0.04443018 0.002608669 -0.10638266 -0.38393885 0.1737966 0.13871258 0.288134
-0.12638882 -0.15395749 -0.40210822 -0.3884375 -0.09167926 -0.26342034 -0.17597166 0.35279784
00000000: 3415 f4bd b43a bc3d a608 5d3e cad8 7b3e
00000010: 6565 1ebd e36a 49be 0740 d5bd 9cf9 743e
00000020: 92f2 933e e7bb 7c3e 2fb1 0e3d 366f 9a3d
00000030: fafd d8bd a4d5 553c ade8 563e ea3f 0f3e
00000040: 3834 26be 6c42 b7be ede5 40be e488 653b
00000050: 2f2b 6e3e 7bd5 efbe 1334 0cbf 28b6 a1be
00000060: d05a 1abc 9db6 973d fa2a 8dbe 5b57 c33d
00000070: 63a2 0ebd 7a00 15bf 7daa febd 7f57 b3be
00000080: 924c 8bbe 4bd8 9bbd d023 14bf 02a7 8b3d
00000090: ca92 efbd aa5f 83bc d1f6 103e 13f7 ddbe
000000a0: 126c 333c 8aa2 783c 8600 2e3d 339d c33d
000000b0: 39f5 97be dbd2 6d3e a8d6 ac3e 0247 27bd
000000c0: 6a8a 26be 306e 47bf ba1d f53c f570 3d3d
000000d0: 759d 03bf 685b 873d 78cb 08bf 9042 533d
000000e0: adf5 38bb 6cca ba3c 08bd 62bd c334 14bf
000000f0: b7b6 ba3c 777d a7bd 462e 413e a70b debe
00000100: 0852 25bf 6cb1 bd3d 7e6b b2bd 9536 ed3d
00000110: 3758 3bbe f896 32bf 2748 a03c 0a66 b33c
00000120: c0cd 0cbe 3295 bdbe 68f7 0abf 2b34 b4bc
00000130: 3658 9bbd 1d0d f2bc f5d9 9d3e 5c3b c3bd
00000140: 448c 343e e7f5 cdbd 09f2 9bbd 983b 9fbd
00000150: 9ba6 b9bd d9e6 9f3e 1968 95bd 629f 86be
00000160: aa90 163d c097 413e 0336 243e 0912 06bd
00000170: fbec f3bc 8874 713d b46c a03d 60b5 56be
00000180: 8cea 633e 8c2f 773e a40a fa3d fe2d 95be
00000190: 3c77 bfbe 1a8e d4be a2c2 34be b87f 68be
000001a0: 6963 7bbe 992f 57be c0a8 0f3d 91d7 c03e
000001b0: 9957 873d b7b8 f73d 51b0 fcbd 72e6 763e
000001c0: bd24 a03e 140a b83e 5d0c 163e 06c1 3d3d
000001d0: d8a8 edbd 6a35 963c 91cd c23d 3ae8 e53d
000001e0: e94e ea3e 706a 44bd 89e4 8d3e e0c2 ae3d
000001f0: e24f 89bc 4ff2 a3be d22d 3a3d 09bd 8bbd
00000200: 27b0 f6be 75cb 38bf 73f0 88bc a5de 8abe
00000210: 5eb3 4b3e b5ef abbe 41b9 edbe 0ffc c63e
00000220: 17fc 1bbe 3cd9 ba3d 55ed 6bbe 3e92 2dbf
00000230: 1dd2 b73e 8e7b 3cbe 5178 693d 8512 c8bd
00000240: e8a7 42be de5f 363e 75af 81be 4048 373e
00000250: f9aa e13d cecd 8d3e 727d e63d 3128 4fbe
00000260: 7cd1 003b 523e b9bd c29b 99bd 4045 483e
00000270: 3475 9e3d 1a16 9d3e c306 ab3d 074b afbd
00000280: 40ed 253d e6d8 38bd 7c02 003e f669 843e
00000290: 19dd 093e 4ce2 213d cb42 95bd be37 2e3e
000002a0: c996 d23d 7bcd e2bb 84c1 df3c 132a 4abd
000002b0: 046a 673e a608 823e 360b d2bd 6ceb 4e3d
000002c0: 091d b3be af73 473e 994e 403d 62b4 b03d
000002d0: ccf4 8c3e 49bf 66be 01ec 2e3e 8b03 69be
000002e0: 3d8f 93bc c0a3 d73e a296 30be ba5b 5c3e
000002f0: e4eb e53d 5c44 08be 9a14 08bc 7f48 92be
00000300: 335c 873c 6601 0b3e 6bf8 12bc e4ff 91bd
00000310: 069a 38be daf4 26be b79d 923e 88eb 823e
00000320: fdea 36bf 0e73 f23e 8ffe 833c c754 f93d
00000330: c823 ac3e d748 8c3b 2929 89be 0c3a 5e3e
00000340: d04b 01bb 57fd 213e 2316 5a3d 3bc1 8abe
00000350: cc54 393e 401a 3e3d bc69 573c 89a5 923d
00000360: 38bf e7bc 6aac d03d f7b0 3cbe bed7 343e
00000370: 5018 6c3b c9b3 203e eeb1 cfbd 62d6 36be
00000380: 8b2d 6cbe f5ca 85be 34eb 3cbf e788 a23e
00000390: 8151 9e3c 9cbc cdbd 6db6 f93c a0d4 70be
000003a0: ecb5 f23e 51fa 8e3e fcb7 5d3c 585c 423d
000003b0: e6f0 d93c ef02 813c 1f83 b43d b715 febe
000003c0: 5c63 853c 6cfc 35bd 34f6 2a3b 27df d9bd
000003d0: a293 c4be bcf7 313e ac0a 0e3e 4d86 933e
000003e0: 126c 01be 08a7 1dbe 21e1 cdbe 48e1 c6be
000003f0: 56c2 bbbd 08df 86be ea31 34be eba1 b43e

conv3.bias f4 [120]
-0.08458534 0.20712842 -0.12651953 -0.065223604 -0.058467474 -0.14293762 0.05142631 0.0032979446
0.20242615 0.08510216 -0.05613881 -0.12884998 0.23670244 -0.09978478 -0.1532161 -0.0653307
-0.050379984 -0.12308476 0.16365287 0.17298485 -0.40422708 0.10333967 -0.059019107 0.06678299
-0.15481827 -0.14522682 -0.026455272 0.00451285 -0.05540926 -0.046712063 -0.020251216 -0.10240174
0.21630466 -0.07378827 0.032547083 -0.03671362 -0.018835876 -0.0284222 -0.06711803 -0.14452569
0.11650463 -0.014255947 0.006456031 -0.21447894 0.065081805 -0.06817866 -0.09015223 -0.053767618
-0.041484673 -0.19899169 -0.0749805 -0.038555797 0.17580496 0.14950512 0.28588438 -0.17207822
-0.13867834 -0.082633875 -0.22982478 0.30657017 -0.14862077 -0.14544228 -0.054084983 -0.3494824
0.17139043 -0.047192864 0.07259185 -0.08839785 0.036067203 -0.053192448 -0.12366286 -0.08208987
0.08560801 0.043642867 -0.006312871 0.04606337 -0.018990269 0.031617142 -0.023869913 -0.05829829
0.06063322 0.039988365 -0.12468777 -0.07828092 -0.34075472 -0.06902941 0.05814015 0.0021804692
-0.011280555 -0.06487702 0.20630477 -0.19370814 -0.19165672 0.041754242 -0.09420245 -0.0015019006
0.06630457 -0.039658092 0.014043909 0.06369979 -0.05414476 -0.15738948 -0.10681598 -0.036997788
0.07953646 -0.07245187 -0.2013075 0.0901845 -0.32051107 -0.12655278 -0.11425207 -0.0732595
-0.25235087 -0.18001074 0.0971718 -0.08106787 0.004576549 -0.39749393 -0.19111179 -0.12648037
00000000: 143b adbd 7919 543e 568e 01be f493 85bd
00000010: 977b 6fbd 3d5e 12be 65a4 523d 5422 583b
00000020: cd48 4f3e 0b4a ae3d cff1 65bd 40f1 03be
00000030: 2062 723e f65b ccbd aee4 1cbe 1acc 85bd
00000040: 3e5b 4ebd dd13 fcbd 9e94 273e f122 313e
00000050: daf6 cebe c0a3 d33d 05be 71bd 85c5 883d
00000060: ae88 1ebe 57b6 14be bab8 d8bc 88e0 933b
00000070: d2f4 62bd 2655 3fbd e1e5 a5bc 01b8 d1bd
00000080: f87e 5d3e 4e1e 97bd 1750 053d 0561 16bd
00000090: b24d 9abc acd5 e8bc 2d75 89bd 8bfe 13be
000000a0: fb99 ee3d c791 69bc 1d8d d33b 5ea0 5bbe
000000b0: 9c49 853d 41a1 8bbd bba1 b8bd 6f3b 5cbd
000000c0: d5eb 29bd 7ac4 4bbe 608f 99bd afec 1dbd
000000d0: 3706 343e df17 193e 705f 923e 4635 30be
000000e0: b201 0ebe f33b a9bd 3057 6bbe c4f6 9c3e
000000f0: 0b30 18be d2ee 14be 3788 5dbd 5bef b2be
00000100: f980 2f3e 4e4d 41bd 09ab 943d ef09 b5bd
00000110: 34bb 133d 53e0 59bd f442 fdbd bc1e a8bd
00000120: 4153 af3d ddc2 323d 33dc cebb f2ac 3c3d
00000130: 7b91 9bbc fa80 013d d68a c3bc 30ca 6ebd
00000140: 8a5a 783d d7ca 233d 4d5c ffbd bf51 a0bd
00000150: 6777 aebe 4b5f 8dbd 5e24 6e3d 34e6 0e3b
00000160: 14d2 38bc 3ede 84bd 8f41 533e 6d5b 46be
00000170: a941 44be 7f06 2b3d 37ed c0bd 6cdb c4ba
00000180: b1ca 873d 8670 22bd 6c18 663c 0975 823d
00000190: e5c6 5dbd b52a 21be 56c2 dabd fe8a 17bd
000001a0: 03e4 a23d a561 94bd 8e23 4ebe a7b2 b83d
000001b0: 071a a4be 0d97 01be fdfc e9bd 1409 96bd
000001c0: 2234 81be bc54 38be 0202 c73d e906 a6bd
000001d0: e0f6 953b 5384 cbbe cfb2 43be 1284 01be

fc1.weight f4 [84, 120]
0.22310981 -0.033844985 -0.2903825 -0.6116558 -0.014453536 -0.1807607 0.13580099 0.1963056
0.054589987 0.12675963 0.010447505 -0.10587589 -0.2976437 -0.09402248 0.009812548 0.014127234
-0.011333919 0.10185892 -0.06533443 0.13075016 0.07416561 0.36335713 0.01761439 0.20816022
0.021523291 0.23246469 0.060443718 -0.052961055 0.10091593 -0.34121597 -0.19785655 0.20786805
0.18363142 0.09973741 0.013618864 0.038734622 0.15911038 -0.25942886 0.070697956 0.27614084
-0.024424227 0.045015004 0.20180154 0.46020684 0.13537392 -0.041110642 0.051593695 0.009300347
0.10374909 0.16441591 -0.04353996 -0.048861656 0.049848408 -0.25147986 -0.07953346 -0.35937342
-0.0023239083 0.055736594 -0.22142817 0.03414944 0.040126815 -0.5559676 0.24984282 -0.008080122
0.001136904 0.023905367 -0.31755227 0.35013232 0.27215198 0.2868675 -0.42917976 -0.049761865
-0.36177015 -0.59591734 -0.05974511 -0.07885252 0.09670676 -0.29101846 0.063982114 -0.037215568
0.20277254 -0.0787333 -0.19296129 -0.043566905 0.06816906 0.39425156 -0.01395475 0.029710097
-0.06667657 0.03559303 0.2339273 0.103992544 0.025428927 -0.14410192 -0.18303265 0.088793516
-0.340355 0.17714104 -0.01692965 0.19821233 -0.096205994 0.108032614 -0.30378193 0.04178223
0.10500284 0.11006352 -0.20669776 0.38016787 -0.08092809 0.359863 -0.11204052 -0.10176829
0.10947326 0.054340478 0.13720374 -0.07356168 -0.08940043 -0.46076667 -0.36490273 0.19758917
-0.12687036 0.08901681 0.21132599 0.067747876 -0.6071127 0.4585683 -0.09710787 0.07080564
-0.28401375 0.10614559 0.049763005 0.5547584 -0.4553647 -0.29541218 0.3582017 -0.061405063
-0.0434957 -0.11650279 -0.12572026 -0.2595013 0.057807855 -0.05037441 -0.010558998 0.06736824
-0.0066641844 -0.14420033 0.07877659 -0.03578603 -0.01655901 -0.03321877 0.035448566 -0.029232299
-0.20581825 -0.115829565 0.24801423 0.046717122 0.21090703 0.117315486 -0.095124826 -0.10111446
0.49208373 0.0710785 0.0653082 0.021790588 0.23029843 0.116998024 -0.11449539 -0.2903307
0.05909165 -0.13321206 0.064601265 -0.28107986 0.33630428 0.14190394 0.18635222 0.1269894
-0.546847 0.035017025 0.16285405 0.18150394 0.27016675 0.08554865 0.0877727 -0.19945493
-0.19545077 0.03576356 -0.08762271 -0.030462107 0.1282307 0.18212566 0.12756191 -0.016780298
-0.00035582233 0.2142529 0.012581677 0.7649442 -0.4793821 0.3239649 -0.075840294 -0.49910107
-0.08706365 0.30110094 0.15285744 0.14142004 0.088123664 -0.021104734 0.4757611 0.0077756965
0.05575455 0.21875922 -0.0023878864 0.060077276 -0.62024146 -0.37016448 -0.052191038 -0.36288732
-0.05502287 -0.02114253 0.42830294 -0.48587534 0.09531611 -0.18241921 -0.005666111 0.020721039
0.11464921 -0.058757603 -0.29826796 -0.23403287 0.40241373 -0.05746563 0.060169015 0.0019921735
0.12779978 0.11380058 0.011281217 0.0067693195 -0.0438147 0.2170562 0.22557479 -0.0070300805
-0.24188977 0.34257087 0.28933442 -0.12960163 0.21179011 -0.22424778 -0.0026520102 -0.5107636
0.20964766 -0.19929253 0.008624235 0.10056823 0.06946488 -0.31085277 -0.27667984 -0.054279298
00000000: e676 643e 0aa1 0abd 04ad 94be 7995 1cbf
00000010: 86ce 6cbc 5519 39be 6a0f 0b3e 5604 493e
00000020: c099 5f3d 47cd 013e 032c 2b3c 75d5 d8bd
00000030: c164 98be dc8e c0bd cfc4 203c ea75 673c
00000040: e7b1 39bc 699b d03d 0fce 85bd 5fe3 053e
00000050: 24e4 973d f209 ba3e 0e4c 903c f427 553e
00000060: 9d51 b03c 390b 6e3e d593 773d b1ed 58bd
00000070: 03ad ce3d dcb3 aebe e89a 4abe 5ddb 543e
00000080: e009 3c3e 2143 cc3d a821 5f3c 32a8 1e3d
00000090: d5ed 223e dcd3 84be 17ca 903d 5562 8d3e
000000a0: 5115 c8bc a761 383d 10a5 4e3e 3ba0 eb3e
000000b0: 769f 0a3e a263 28bd e953 533d 7c60 183c
000000c0: 677a d43d a55c 283e f556 32bd 2923 48bd
000000d0: d82d 4c3d f8c1 80be 70e2 a2bd cbff b7be
000000e0: b64c 18bb 0e4c 643d 11be 62be 48e0 0b3d
000000f0: 045c 243d e553 0ebf ccd6 7f3e 7d62 04bc
00000100: 2b04 953a 30d5 c33c 3696 a2be 8b44 b33e
00000110: 8157 8b3e 4ce0 923e 73bd dbbe 19d3 4bbd
00000120: f039 b9be 0a8e 18bf 4ab7 74bd 6e7d a1bd
00000130: 320e c63d 5f00 95be 0e09 833d 5a6f 18bd
00000140: 9ba3 4f3e ed3e a1bd a597 45be 3673 32bd
00000150: 389c 8b3d 57db c93e 77a2 64bc 9762 f33c
00000160: ba8d 88bd ffc9 113d a38a 6f3e 0bfa d43d
00000170: 5350 d03c 748f 13be e96c 3bbe 60d9 b53d
00000180: 0343 aebe 7664 353e 0db0 8abc 2cf8 4a3e
00000190: a607 c5bd 3440 dd3d 4e89 9bbe d823 2b3d
000001a0: bb0b d73d fc68 e13d 94a8 53be 5da5 c23e
000001b0: a0bd a5bd f73f b83e 8075 e5bd e56b d0bd
000001c0: 8433 e03d 1f94 5e3d 237f 0c3e 82a7 96bd
000001d0: 9317 b7bd 9ce9 ebbe 88d4 babe d154 4a3e
000001e0: 4eea 01be 724e b63d d765 583e 66bf 8a3d
000001f0: bd6b 1bbf 77c9 ea3e 7ee0 c6bd 8c02 913d
00000200: 406a 91be dc62 d93d 4bd4 4b3d a604 0e3f
00000210: 9025 e9be 4440 97be 3766 b73e e083 7bbd
00000220: 8c28 32bd 0499 eebd d0bc 00be 5bdd 84be
00000230: eec7 6c3d 6655 4ebd a6ff 2cbc 5cf8 893d
00000240: 3b5f dabb 40a9 13be 9f55 a13d 5f94 12bd
00000250: c3a6 87bc 6810 08bd 8432 113d 9378 efbc
00000260: 05c2 52be 0d38 edbd 71f7 7d3e 745a 3f3d
00000270: 03f8 573e 1a43 f03d ced0 c2bd 1915 cfbd
00000280: 66f2 fb3e 9b91 913d 4ec0 853d 2d82 b23c
00000290: 5ad3 6b3e a99c ef3d 8f7c eabd 3aa6 94be
000002a0: 160a 723d be68 08be ab4d 843d b3e9 8fbe
000002b0: 1330 ac3e 444f 113e 1ed3 3e3e 8209 023e
000002c0: 2afe 0bbf 036e 0f3d 36c3 263e 2bdc 393e
000002d0: 4c53 8a3e 2134 af3d 2cc2 b33d ea3d 4cbe
000002e0: 3f24 48be d07c 123d 8973 b3bd ab8b f9bc
000002f0: e94e 033e 267f 3a3e 979f 023e d676 89bc
00000300: aa8d bab9 1d65 5b3e 6123 4e3c 62d3 433f
00000310: 9271 f5be bade a53e 2852 9bbd 2d8a ffbe
00000320: 6d4e b2bd e729 9a3e a986 1c3e 6ad0 103e
00000330: 2e7a b43d d6e3 acbc f596 f33e 45cb fe3b
00000340: e25e 643d 6b02 603e 167e 1cbb 9713 763d
00000350: 25c8 1ebf 3386 bdbe 45c6 55bd 5ecc b9be
00000360: a95f 61bd 1933 adbc 864a db3e a7c4 f8be
00000370: 1835 c33d 1acc 3abe c9aa b9bb 2bbf a93c
00000380: 34cd ea3d d0ab 70bd 94b6 98be 50a6 6fbe
00000390: 2c09 ce3e 1561 6bbd c973 763d 208f 023b
000003a0: f2dd 023e 4710 e93d dbd4 383c 2bd1 dd3b
000003b0: 0b77 33bd fb43 5e3e 14fd 663e 975c e6bb
000003c0: f4b1 77be 7365 af3e a423 943e 4ab6 04be
000003d0: 82df 583e 36a1 65be 59cd 2dbb 67c1 02bf
000003e0: e0ad 563e 5713 4cbe aa4c 0d3c b7f6 cd3d
000003f0: 9a43 8e3d 1828 9fbe fba8 8dbe f853 5ebd

fc1.bias f4 [84]
-0.071128584 0.32650426 -0.02729465 0.8562217 0.21119535 -0.23244531 -0.17730428 -0.49136484
0.1511767 0.37550032 -0.22050436 -0.2994932 -0.22587778 0.07049265 -0.3658252 0.41145918
-0.67320544 -0.51497483 0.13323762 -0.11899517 -0.017525697 -0.31048593 -0.747121 -0.11666264
0.034955706 0.15422858 -0.15013047 0.0012703298 0.10265786 -0.13032041 0.09408047 0.7359118
-0.11514858 0.9101316 -0.2364918 -0.51268417 -0.4736085 0.04124845 -0.0072596096 0.45218542
0.047218475 0.4725874 0.32608023 -0.44888967 0.8419644 0.06352832 1.0097301 0.11818812
0.10481685 -0.46895555 0.021910304 0.8697271 -0.060088765 0.3365699 -0.40044206 -0.1688445
0.37140697 0.65590477 0.03166311 -0.04434244 -0.02639824 0.15976468 0.20978361 0.10131164
-0.06916328 0.0448678 -0.08343827 0.10012692 -0.049980115 0.5268108 -0.11060414 0.67071295
0.16571459 0.67706585 0.06893803 -0.57337695 0.117210396 0.040032785 0.2205915 0.057493024
0.41433507 0.30004072 -0.23013987 -0.0507745
00000000: ddab 91bd 912b a73e 0899 dfbc 5831 5b3f
00000010: 9843 583e 2506 6ebe 418f 35be 2c94 fbbe
00000020: 11ce 1a3e 9441 c03e e5cb 61be 2c57 99be
00000030: 814c 67be 735e 903d 714d bbbe c7aa d23e
00000040: 3157 2cbf 64d5 03bf 716f 083e bdb3 f3bd
00000050: 0d92 8fbc 03f8 9ebe 5243 3fbf d2ec eebd
00000060: b72d 0f3d 19ee 1d3e cdbb 19be 3281 a63a
00000070: 493e d23d b772 05be 43ad c03d b764 3c3f
00000080: 05d3 ebbd 62fe 683f e82a 72be 453f 03bf
00000090: d07c f2be 22f4 283d 05e2 edbb d984 e73e
000000a0: 2968 413d faf6 f13e fdf3 a63e ded4 e5be
000000b0: fb8a 573f 231b 823d d63e 813f 9d0c f23d
000000c0: 37aa d63d f11a f0be 3d7d b33c 6fa6 5e3f
000000d0: a31f 76bd e452 ac3e be06 cdbe 93e5 2cbe
000000e0: 0e29 be3e 60e9 273f 2db1 013d 6ba0 35bd
000000f0: 1f41 d8bc 5a99 233e 84d1 563e 7a7c cf3d
00000100: 7aa5 8dbd 4cc7 373d afe1 aabd 580f cd3d
00000110: f3b7 4cbd 13dd 063f 6c84 e2bd d8b3 2b3f
00000120: 16b1 293e 3054 2d3f 622f 8d3d d5c8 12bf
00000130: 010c f03d 6bf9 233d bde2 613e ce7d 6b3d
00000140: ba23 d43e f09e 993e c9a9 6bbe ecf8 4fbd

fc2.weight f4 [10, 84]
-0.045329746 0.17820494 0.05098524 -0.7516634 -0.2519453 0.20380597 0.14518559 -0.074313015
-0.057670366 -0.04566955 -0.28703487 0.014616806 0.17396255 0.01579194 0.24500231 -0.3696603
0.06702259 0.14134459 -0.40590605 -0.3228582 0.110488415 -0.09476224 -0.34472233 -0.2843674
0.07640499 0.29242635 -0.26077658 -0.18538159 -0.053543806 0.23772304 -0.24908926 -0.3793976
-0.36984652 -0.16294946 -0.20857175 0.1474982 0.05627809 -0.0066629173 -0.16229685 -0.29172707
0.28527042 -0.3840358 -0.42344522 0.1428253 -0.041321073 -0.2874109 0.1648283 0.06419353
-0.45648956 0.11516081 0.09580355 0.057357267 -0.06396216 -0.26178324 -0.16301407 -0.6738069
-0.10551128 -0.075798735 0.070109256 -0.3610402 -0.017050337 -0.28492102 -0.10997707 -0.25948858
0.108234845 0.07842046 -0.15306889 -0.19621569 0.11589685 0.12516193 -0.23764801 0.2525869
0.14785793 0.111096464 -0.5169315 -0.0025098284 0.13183576 -0.39009717 -0.6266615 0.0153822275
-0.4141711 0.19895394 0.13090467 -0.19318783 -0.4363916 0.20957664 -0.14118005 -0.058934573
0.08343776 0.18672776 -0.083094195 0.38945493 -0.39148757 -0.05545519 0.16597079 0.005383802
-0.25713193 -0.046197616 0.2885612 0.02304778 0.4241791 0.32105547 -0.29447943 -0.31201255
0.023592148 -0.13060415 0.482463 -0.3731629 -0.46369508 -0.24925 -0.07582365 0.24334237
-0.16516134 0.15881263 -0.13031478 -0.4946772 -0.35833442 -0.48014396 0.0985269 0.14670694
0.20331962 0.33078954 -0.40195853 -0.28303087 -0.08587652 -0.23517981 0.32551786 -0.3874742
-0.39378273 -0.18441129 -0.39432353 -0.38682568 -0.21280977 0.32143602 -0.23667468 -0.05371049
-0.048814233 -0.4115185 0.08219213 0.21830258 -0.5544951 0.19695343 0.43706957 -0.4791159
-0.35665348 -0.20006633 -0.1571921 -0.75746846 -0.3542225 -0.14060734 0.013095343 -0.1959944
-0.21825457 0.025476055 -0.52655023 0.098263696 -0.12928353 0.18553916 -0.07743047 0.296814
-0.015648346 0.13754652 -0.28464407 -0.0154561205 -0.4556218 -0.34510335 0.16926706 -0.1320577
-0.07418494 -0.2608777 -0.11031649 0.264586 -0.5096782 -0.92548126 -0.6457885 -0.3163088
0.2268686 -0.33435914 -0.04891299 0.18544118 -0.629991 0.098188765 0.04443118 0.08513583
0.043492522 0.05304615 0.21435347 -0.23264006 -0.40373042 -0.2345336 -0.11853565 -0.21370813
0.15956359 -0.6777063 -0.32889083 0.02363528 -0.45951977 -0.6170449 -0.43503782 0.20253582
-0.2043767 0.20292187 0.114865616 0.039050493 -0.5949143 0.081376486 -0.12506638 0.070701614
-0.6083845 -0.6166734 0.16276611 -0.5073235 0.19521287 0.01845018 0.021103356 0.12500666
-0.11600746 0.007884985 0.11287634 -0.28839216 -0.25910383 -0.63201547 -0.32640338 -0.24052331
0.40823925 0.3943276 0.18652709 -0.36134896 -0.47380784 -0.56534153 -0.012398879 0.33853397
-0.31579486 0.17945348 -0.2149164 -0.19821574 0.14990678 0.22179227 -0.5437863 0.29145792
0.21508217 0.036285527 -0.03816422 -0.095125645 0.29044995 0.04315681 0.13220003 0.23550633
-0.60384226 -0.23135279 -0.20408222 -0.0867409 0.22907263 -0.27611598 -0.108238555 -0.23134668
00000000: afab 39bd 5b7b 363e e6d5 503d 036d 40bf
00000010: f9fe 80be 83b2 503e 88ab 143e 6c31 98bd
00000020: c337 6cbd fe0f 3bbd 3cf6 92be 547b 6f3c
00000030: 3d23 323e 195e 813c e3e1 7a3e 1d44 bdbe
00000040: 2443 893d a3bc 103e ebd2 cfbe ac4d a5be
00000050: c047 e23d b512 c2bd 727f b0be 9b98 91be
00000060: 387a 9c3d e8b8 953e 8284 85be acd4 3dbe
00000070: c050 5bbd ab6d 733e 4111 7fbe 6740 c2be
00000080: 865c bdbe 39dc 26be d593 55be c509 173e
00000090: db83 663d 9a54 dabb 2531 26be 405d 95be
000000a0: f70e 923e 57a0 c4be d0cd d8be cc40 123e
000000b0: 4940 29bd 8627 93be c0c8 283e e677 833d
000000c0: 00b9 e9be 6ed9 eb3d a734 c43d 74ef 6a3d
000000d0: 98fe 82bd 7408 86be 29ed 26be 9c7e 2cbf
000000e0: 4c16 d8bd 5e3c 9bbd 7195 8f3d 43da b8be
000000f0: 26ad 8bbc 2be1 91be a83b e1bd b0db 84be
00000100: 3baa dd3d e89a a03d 17be 1cbe c4ec 48be
00000110: 545b ed3d 732a 003e 005a 73be 1253 813e
00000120: 1268 173e 8b86 e33d 9f55 04bf ef7b 24bb
00000130: f4ff 063e d1ba c7be e36c 20bf bd05 7c3c
00000140: 3c0e d4be 95ba 4b3e e00b 063e 08d3 45be
00000150: b86e dfbe 429b 563e 8191 10be 6165 71bd
00000160: 6be1 aa3d 9035 3f3e 4a2d aabd a366 c73e
00000170: 0f71 c8be fb24 63bd 3ff4 293e 9b6a b03b
00000180: cca6 83be b639 3dbd 4bbe 933e b3ce bc3c
00000190: 012e d93e 6261 a43e 02c6 96be 1cc0 9fbe
000001a0: 5244 c13c 18bd 05be 6405 f73e 350f bfbe
000001b0: 7169 edbe 643b 7fbe 6e49 9bbd be2e 793e
000001c0: 0e20 29be c79f 223e 3d71 05be 5446 fdbe
000001d0: 9c77 b7be 6ed5 f5be 79c8 c93d 583a 163e
000001e0: 0533 503e 3f5d a93e 82cd cdbe 6ce9 90be
000001f0: 07e0 afbd fad2 70be 47aa a63e 0563 c6be
00000200: e49d c9be 50d6 3cbe c6e4 c9be 040e c6be
00000210: ceea 59be 4393 a43e d95a 72be 88ff 5bbd
00000220: 6ff1 47bd 8eb2 d2be 5954 a83d b68a 5f3e
00000230: 64f3 0dbf 29ae 493e 95c7 df3e ae4e f5be
00000240: 499b b6be 30de 4cbe f7f6 20be 74e9 41bf
00000250: a75c b5be 5ffb 0fbe d98d 563c c2b2 48be
00000260: 207e 5fbe 29b3 d03c ffcb 06bf 7a3e c93d
00000270: e762 04be fafd 3d3e de93 9ebd 01f8 973e
00000280: f630 80bc ffd8 0c3e debc 91be ab3b 7dbc
00000290: 4347 e9be 63b1 b0be 5854 2d3e 223a 07be
000002a0: 46ee 97bd c391 85be 9ded e1bd d177 873e
000002b0: 457a 02bf 57ec 6cbf 6552 25bf 3af3 a1be
000002c0: 3e50 683e 1f31 abbe fd58 48bd 4be4 3d3e
000002d0: 1747 21bf 3117 c93d 78fd 353d b25b ae3d
000002e0: 3725 323d eb46 593d 7a7f 5b3e 3239 6ebe
000002f0: c1b5 cebe 9329 70be d2c2 f2bd 4ed6 5abe
00000300: a364 233e 297e 2dbf 6164 a8be c69e c13c
00000310: 2d46 ebbe a8f6 1dbf 47bd debe 8d65 4f3e
00000320: 2048 51be c0ca 4f3e aa3e eb3d 69f3 1f3d
00000330: 4e4c 18bf b7a8 a63d 6711 00be 02cc 903d
00000340: 16bf 1bbf 4fde 1dbf 29ac 263e f4df 01bf
00000350: e2e5 473e d524 973c f2e0 ac3c bf01 003e
00000360: 5295 edbd 0630 013c b62b e73d 23a8 93be
00000370: 42a9 84be c4cb 21bf 581e a7be be4b 76be
00000380: bc04 d13e 4fe5 c93e f500 3f3e bb02 b9be
00000390: f196 f2be 39ba 10bf ab24 4bbc 5354 ad3e
000003a0: ddaf a1be a7c2 373e 0b13 5cbe 11f9 4abe
000003b0: 2a81 193e 831d 633e 9435 0bbf f939 953e
000003c0: 803e 5c3e 22a0 143d 1652 1cbd 3cd1 c2bd
000003d0: dbb5 943e 32c5 303d 725f 073e 9228 713e
000003e0: 6895 1abf bfe7 6cbe eefa 50be 37a5 b1bd
000003f0: 0492 6a3e 135f 8dbe 2dac ddbd 25e6 6cbe

fc2.bias f4 [10]
-0.19002466 -0.93323237 0.32200015 -0.022303283 -0.1613599 -0.356958 0.42653343 0.14080612
0.08575869 -0.32423577
00000000: d395 42be 51e8 6ebf 34dd a43e 60b5 b6bc
00000010: 883b 25be 33c3 b6be 9762 da3e 7b2f 103e
00000020: 41a2 af3d 3b02 a6be
